Code/models/exo_bilstm.pt (torch, 323942 bytes, 19 tensors)

l1.weight_ih_l0 f4 [256, 1]
00000000: 1f00 45bd 2864 ebbd 0a5e 5abd b83f 5ebc
00000010: caef bdb8 c71a 63ba b19a 183d da80 f3bd
00000020: d068 633d 318d 873c 396e 22bd 7396 ed3d
00000030: 8d05 623d 1f37 c3bd 62cd c8ba 3ded c2bd
00000040: e5dc 83bc 1860 81bb 8977 b63b 944d 9f3d
00000050: b59d dd3b adb1 5fbd d031 343d afcc 01be
00000060: d4af ca3d a010 b33c fc51 a1bd 8895 96bd
00000070: 86a2 8f3d e32c 8f3c cf07 023e f097 37bd
00000080: b953 22bc 8c0c e2bc a699 af3d 403a 3c3d
00000090: 4818 2ebc c0da 6fbd a061 0fbd fa28 223d
000000a0: 4d4b 0b3d a4d5 903c 0328 8bbd c1e3 8dbc
000000b0: 81f8 cdbd ed85 ea3d ea1e b43b 4458 5abd
000000c0: 25f7 c83d 11a6 523d a8ac 1e3d e5b4 f0bd
000000d0: 29bc 4bbd 14b2 a43c d2b4 4e3d b206 29bc
000000e0: 78ef 4a3c 0bf0 1abd 8326 e9bd a8b3 e93c
000000f0: 1a82 103d 2945 8a3d 081c 44bd 181f 56bd
00000100: e145 533d 7909 5fbd 3ead a8bd ef18 f03c
00000110: e916 96bd cb88 bf3d 7add 363d 0d04 073c
00000120: b15d 4cbc ab9b e63d 4e0f 893d cd88 a3bb
00000130: 4b33 d3bd bb90 c43c 2efa b03c 20cc cd3d
00000140: 3e0e a63d f405 8f3d 8568 6ebd b0e7 823d
00000150: 1715 883d f9f9 bcbd f69e ae3d feba e5bb
00000160: ee1f a13c a745 bbbd a158 f43d 2e04 0abd
00000170: de62 c9bd 0200 b23d 1c6a ed3d efc2 dfbc
00000180: 0020 02bd 00fc a33d 7cec 94bd d779 9fbd
00000190: 682c ac3c 4c3d 393d 2c00 b23c 0eb1 eebd
000001a0: f89f 90bd e500 f9bd 3af9 84bd 0c1b 9ebc
000001b0: 0380 c5bd b78e 8e3d e50a 49bd ca1e ed3d
000001c0: 269c ac3d d089 d2bd 9a92 4abc f1e8 bd3d
000001d0: ed7b 1abc 7150 97bd da44 1fbd b636 ae3d
000001e0: edfc eebc 7c1a b43c 19db 583d 7d9f 283d
000001f0: 7f24 9fbd 6740 a5bd 4c15 dd3c 2c40 b83d
00000200: 2737 933d 6553 ab3d b345 313d 494b bcbd
00000210: 72f6 7d3d eaef 6fbd 2a85 bc3d 6cac acbd
00000220: 45bb 00be 22cb 3dbd 55d7 cebd ad69 b23d
00000230: 92bd d9bd 55b6 bd3d 79ba f13c 97fe 9ebb
00000240: e4c7 493d 8461 e2bd 7004 91bd 2098 8ebd
00000250: 68a0 8abc 8ddf bebc 94f7 b8bd fead c53c
00000260: 564a c43d 8325 5b3d f6a1 e73d 8f8e 863d
00000270: 5c20 a63d 84e1 653b cb97 e63d d505 e03d
00000280: f0e8 353d f643 c8bd 0b0c 223d 9a11 1c3d
00000290: bf82 3bbc 6c0c b13d cdde 09bd 3acb ebbd
000002a0: 017c 843d 0685 8e3c f447 9cbd 8dee acbd
000002b0: 5e31 db3d b826 d53c 19d2 493c 53b2 643c
000002c0: 75cf bcb8 df3e 02bd c69e 6f3d 9b3d 95bd
000002d0: 3c18 833d a31a 5f3c f23d 5abb 96ac 02be
000002e0: e747 803d 685e 983a aaf0 ad3d 38dd 0aba
000002f0: 97ae 273d af37 453d 7001 5ebd 1ada b4bc
00000300: f16a 003e 62f6 c3bc 7e46 3d3d ea3d 2cbd
00000310: a395 35bd 8e0a b73d 4ccb e33d 2af3 87bc
00000320: 8f5f 273d 3253 51bc d6c5 1fbd 6c7d abbd
00000330: 4e13 eebc cd50 babc a314 213d 5fe0 58bb
00000340: ca93 dd3d 884a e6bd c433 e73c b25f 2fbd
00000350: 582b 75bd fe90 953d 15c9 0fbd 45d2 4cbd
00000360: 6073 d13c 26d5 ba3d 80b3 f4bc 2299 813c
00000370: 4517 a33c b7e3 c5bb 55b1 693c b2ec 7bbd
00000380: 4cd7 c1bc cc07 8abd 8034 e1bc 0c11 06be
00000390: 4cf1 62bd 4bde 9a3d 0898 62bd 16a2 57bd
000003a0: 3d3f aabc 7c74 dabd 3372 383d 27ea ccbc
000003b0: 9d12 b73d 20fc c6bc 7386 c63d 9efb fc3d
000003c0: 96b2 83bd 383f 97bd a377 6cbd b1cc 303d
000003d0: 146f ccbd 6cc4 cb3d 4efe 8a3d 969c 743d
000003e0: 7eab e7bd c0ec ba3d 5e6e a3bc b576 01be
000003f0: da1e 02bd bcc3 68bc 63bf eb3d eaf3 043d
-0.04809582 -0.11493713 -0.05331234 -0.013564996 -9.0568865e-05 -0.0008663353 0.0372569 -0.11889811
0.05551988 0.016546817 -0.039655898 0.116009615 0.055181075 -0.09531998 -0.0015319998 -0.09517906
-0.016096542 -0.003948223 0.005568449 0.07778469 0.006763185 -0.054612804 0.043992817 -0.12675737
0.09896818 0.021858513 -0.078769654 -0.073527396 0.07013421 0.017477458 0.12698291 -0.044822633
-0.009907656 -0.027593873 0.08574228 0.04595399 -0.010625906 -0.058558226 -0.03500521 0.03958986
0.03400736 0.017679997 -0.06794741 -0.017320516 -0.10057164 0.114513256 0.0054968493 -0.053306833
0.09812764 0.051427905 0.038738877 -0.11753253 -0.04973999 0.020104446 0.050465412 -0.010316538
0.012386195 -0.03782658 -0.11384299 0.02852805 0.035280325 0.067514725 -0.047878295 -0.052275747
0.051580314 -0.054452393 -0.08236168 0.029308764 -0.073285885 0.09352263 0.04464481 0.008240712
-0.01247351 0.1126016 0.06692372 -0.004990673 -0.10312518 0.023994794 0.02160367 0.100486994
0.08108185 0.06983557 -0.058205146 0.06391847 0.066446476 -0.09227366 0.08526413 -0.0070108166
0.019668546 -0.091441445 0.11930967 -0.033695392 -0.098333105 0.08691408 0.115925044 -0.027314631
-0.0317688 0.080070496 -0.07271668 -0.07786911 0.021017268 0.045224473 0.021728598 -0.11654864
-0.070617616 -0.12158374 -0.06492849 -0.019300006 -0.09643557 0.069608144 -0.049082655 0.11578138
0.084282205 -0.10280192 -0.012364054 0.09272946 -0.00942896 -0.0738839 -0.03888402 0.08506529
-0.029173339 0.021985285 0.052943323 0.041167725 -0.07770633 -0.080689244 0.026987694 0.08996615
0.07188254 0.083655156 0.04327936 -0.09194047 0.062002607 -0.05857841 0.092050865 -0.08431324
-0.12571438 -0.0463363 -0.10099665 0.08711562 -0.10631861 0.09263293 0.029507862 -0.004852127
0.049262896 -0.11053756 -0.070809245 -0.06962609 -0.01692219 -0.023299957 -0.09031597 0.024130818
0.09584491 0.05350257 0.113101885 0.0657016 0.08111641 0.0035077045 0.11259421 0.10938612
0.0444116 -0.097785875 0.039562266 0.038102724 -0.0114447465 0.086449474 -0.033659745 -0.11513372
0.06468964 0.017397415 -0.076309115 -0.084439375 0.107027754 0.02601944 0.012318158 0.013958531
-9.0031805e-05 -0.03179824 0.058501028 -0.07287141 0.06401107 0.0136171905 -0.0033301082 -0.12761149
0.06263714 0.0011624815 0.08493169 -0.00052972464 0.040937986 0.048148807 -0.05420059 -0.022076655
0.12540795 -0.023921195 0.046209805 -0.042051233 -0.044332158 0.0893756 0.1112276 -0.016595442
0.040862616 -0.012776183 -0.03900703 -0.08373532 -0.02906194 -0.022743607 0.03932632 -0.003309272
0.10819204 -0.112446845 0.028222926 -0.04281587 -0.05985579 0.07303046 -0.035103876 -0.050005216
0.02556771 0.09122686 -0.029870749 0.01582009 0.019908557 -0.0060391086 0.014263471 -0.061505027
-0.023662232 -0.067397684 -0.027490854 -0.1309244 -0.0554059 0.0756193 -0.05532077 -0.05264481
-0.020782107 -0.10666749 0.045030784 -0.025013996 0.08939097 -0.024290144 0.09693613 0.1235268
-0.06430547 -0.07385105 -0.057731282 0.04316396 -0.09982124 0.09949574 0.06786786 0.059719644
-0.113120064 0.09127188 -0.019950088 -0.1264294 -0.031767704 -0.014206823 0.115111135 0.032459177

l1.weight_hh_l0 f4 [256, 64]
00000000: 74c4 723d 5587 c73c ab11 043e b487 11bd
00000010: 715c fc3d 605c ed3d 33e1 b0bb 6b55 b33d
00000020: 9184 f83d 649b b33d 1c31 913c dd27 913d
00000030: 709c df3d 75ad 9f3d b45f d3bd 22e3 c43d
00000040: 70ee 063d ce91 c3bd 5f00 8ebd 361e 813d
00000050: f2a8 243c b6c8 bd3d 302d fabc b2b5 9b3d
00000060: a4b9 be3b 9480 e33c 7791 d3bd 2a2a e4bd
00000070: 4c9f e03d 967c 6a3d 9b52 a3bd 88af 9cbb
00000080: fdf7 88bd 057c bebd 0ec1 893c 6e4e 683d
00000090: 425a acbd 1378 a63d 4fe4 023e 1144 cf3d
000000a0: fa7b e6bc 6469 b4bd 7709 553d 4d88 01bd
000000b0: 37fa e6bd 0d8a 02be ff49 86bc a92a 7b3d
000000c0: eb85 19bd c4b3 d1bd 422f 823d 99c0 87bd
000000d0: 3a5d fb3c ea38 d23d bfd0 76bd 77db ab3d
000000e0: 7b04 c5bd ccfe c53d de88 9c3d 74cd fd3d
000000f0: a664 8f3d 08e0 bb3d 7981 903d 179b b7bd
00000100: 5bb6 d43d d2fa fd3c 3c99 c13d daa7 56bc
00000110: 7c33 c3bd ef6e 4cbd a752 a93d 0658 1f3d
00000120: 82f4 a33d a48f ee3d 5d4a b4bd f576 953d
00000130: 8f61 ebbc 5d85 39bd fe4f ba3d ea40 a13d
00000140: 62c0 863d 80b0 8cbc 1364 ef3c 9fca bc3d
00000150: 4e1f efbc 0d8d 8cbd 87bc df3d 9700 ff3c
00000160: 719a f93d 7b23 b23b 39f7 da3d f3f7 c73d
00000170: a09e cabd 4848 8d3c 8a04 b23d 0070 d5bd
00000180: 39c4 d43d 304d febc 4ced 92bd 7011 a53d
00000190: 33b1 f4bd 3c53 6a3d 8f2d 86bd 9a1b fabc
000001a0: a949 adbd 3c23 b23d 60f2 c43d 1dcc 053d
000001b0: 9813 16bd a909 82bc 479c a43d 177f 9d3d
000001c0: 658d 4ebd acfa 64bd 527c 89bb 83b0 82bd
000001d0: b620 133d f5f6 353d 6cb1 adbd d5d5 bd3d
000001e0: eb69 7c3d 9001 b4bd 733a bcbd fe2b b9bd
000001f0: fe14 e1bd 4f46 023c 1f07 94bd 3143 633d
00000200: ffb0 bfbd ef70 f13d 03b3 6f3c 4a1f cf3d
00000210: 7bba e53d 9eaa d6bd 79f7 dfbd 9ce4 00be
00000220: d5a7 79bc 9b5b 7bbd 4d87 f63d 0035 03bc
00000230: 8b30 2bbd 956c f63d 9a9a 8c3d 057f 04bb
00000240: d2ae 813b f586 983b 2850 a13c 9e6f 5e3c
00000250: dd3f 0fbc 07f4 883d eb84 30bc 8ffb adbd
00000260: 228b a63d 8935 0bbc b730 a839 13ea 073d
00000270: b342 aabc 0cff d93d 6d60 a1bd dfc1 db3d
00000280: 32e3 b1bd 49d1 333d 01be 163d b081 da3d
00000290: d28c fabd 5397 fa3c 530d b33d e73a 7ebb
000002a0: 3b6f cc3d 7151 2abd 4b8d a63b b179 adbd
000002b0: 9322 423d 6186 823c 8b27 85bd 56cf bc3d
000002c0: d855 fdbc 28c8 b1bc b015 c43b 6394 c83b
000002d0: f10e 823c bddf 7f3d 4c74 c33d 95c7 6c3d
000002e0: ce3d dcbc 1dfc 953d 78b0 4a3d 1c2a 4b3d
000002f0: b637 143d 38a6 f9bd 0ccb 05bd 1033 8f3d
00000300: abdc a3bd fcca 74bd 6597 ad3d ee5f aa3d
00000310: 08ce efbd 8936 073d 7c55 c23c 5697 ae3b
00000320: df67 2d3c 51c5 e23d 7c74 f2bd 2427 83bc
00000330: 53c1 a33d 46a2 e33d 12a5 983d 5ff0 a13d
00000340: 4c2b 893d a7ff 5cbc 5c71 083d a2f2 513b
00000350: e635 173d 13fa 91bc 7839 f63d 10f9 57bd
00000360: 4bfd 8ebc bafc 68bc 04ff 1e3d 88d3 8e3d
00000370: 68aa 243d 943f e1bb ab76 b93c 46b8 353d
00000380: 3b98 5abd 3815 fb3c 3b76 bcbc 4935 3cbc
00000390: 6040 cebd 012c 3d3d a3c1 97bd d1ce 883d
000003a0: 2077 c23d c633 f2bd 440f f4bc 24a6 d23d
000003b0: 7d41 863b aee4 263c 80bc 26bd 63d1 c53d
000003c0: cf22 e3bd e43a 6e3d 7581 ff3d 9a98 013c
000003d0: 7ceb dcbc cf90 b3bb afd8 b53d 2d1c 82bc
000003e0: 9625 cb3c 55d9 a3bd fa4d f93c 734e 41bc
000003f0: 43f9 d8bd 6bf6 9b3d 85e4 64bd 2429 17bd
0.059269384 0.024356524 0.12897365 -0.035529807 0.12322319 0.11589885 -0.0053979396 0.087565266
0.1213466 0.08769873 0.017723612 0.070876814 0.1091851 0.07796756 -0.10320988 0.09613635
0.032942235 -0.095492944 -0.069336645 0.063045904 0.010050045 0.09266798 -0.030539125 0.07603015
0.00582047 0.027771272 -0.103304796 -0.11140855 0.109678835 0.05724772 -0.0797474 -0.004781667
-0.06687925 -0.093009986 0.016815688 0.05671542 -0.08415653 0.08128371 0.12782405 0.101204045
-0.028135289 -0.08809164 0.05201098 -0.031624127 -0.112781934 -0.12747975 -0.016392706 0.06131998
-0.03748123 -0.10239366 0.0635667 -0.06628532 0.030684102 0.10264762 -0.06025767 0.08391469
-0.09619995 0.09667739 0.07643293 0.12392703 0.07001619 0.0917359 0.07055945 -0.08965128
0.10386344 0.03100339 0.09453055 -0.013101542 -0.09531304 -0.049910482 0.08267718 0.038902305
0.080056205 0.11648491 -0.08803246 0.0729808 -0.028733043 -0.0452932 0.090972885 0.078737095
0.06579663 -0.017174006 0.029222524 0.092183344 -0.029189732 -0.06862841 0.109246306 0.031128211
0.121876605 0.0054363585 0.10691685 0.097640894 -0.098935366 0.01724638 0.08692272 -0.10421753
0.10388989 -0.031042665 -0.07174167 0.080599666 -0.119478606 0.057208285 -0.06551658 -0.03053074
-0.08461315 0.08698127 0.09616542 0.03266536 -0.03663978 -0.015873747 0.0803762 0.07690256
-0.050427813 -0.05590312 -0.0041957283 -0.06381323 0.035919867 0.04442497 -0.08481106 0.09269301
0.06162445 -0.087893605 -0.09190836 -0.09041594 -0.10990332 0.007951333 -0.07227921 0.055484
-0.09359931 0.117891185 0.014630082 0.1011339 0.11217209 -0.104817614 -0.109358735 -0.12587208
-0.015237768 -0.06136666 0.12037525 -0.008008242 -0.04179434 0.12032429 0.068654254 -0.002021731
0.003957608 0.00465476 0.019691542 0.013576416 -0.008743254 0.066871695 -0.010773878 -0.084952466
0.08132006 -0.0084966505 0.00032079752 0.033182215 -0.020783758 0.106443495 -0.0787972 0.10730337
-0.08685912 0.04390076 0.036802296 0.10669267 -0.122338906 0.030589735 0.08742776 -0.0038792433
0.09982153 -0.041581575 0.0050827614 -0.084704764 0.047396254 0.015933217 -0.06501683 0.09219234
-0.030924723 -0.021701887 0.0059840307 0.0061212047 0.015876265 0.062469233 0.09543666 0.057807524
-0.02688494 0.073234774 0.0494847 0.049600706 0.036185943 -0.12189907 -0.032664344 0.06992161
-0.080010734 -0.059763893 0.08476142 0.083190784 -0.11709219 0.033010993 0.023722403 0.0053280992
0.010583847 0.11072791 -0.11838624 -0.016009875 0.07995858 0.111149356 0.0745336 0.07907175
0.06697711 -0.013488687 0.033311233 0.003203549 0.036916636 -0.01781944 0.1202268 -0.05272776
-0.017454764 -0.014220411 0.03881742 0.0697394 0.040201575 -0.006874034 0.022639593 0.04436519
-0.053367835 0.030649766 -0.023005595 -0.011487314 -0.10070872 0.046184544 -0.0740998 0.06680072
0.094953775 -0.11826281 -0.029792435 0.10285595 0.0040971623 0.010186357 -0.04070711 0.09659078
-0.110906236 0.05816163 0.12475864 0.007909918 -0.026967756 -0.005479909 0.0887922 -0.015882576
0.024798196 -0.08000437 0.03043269 -0.011798489 -0.10594418 0.0761536 -0.055881996 -0.03690447

l1.bias_ih_l0 f4 [256]
00000000: a942 f03d 0a82 c33d 8530 9abc 269f 36bc
00000010: 589a 86bd d6b8 4cbd 04b1 b1bd 03e6 523d
00000020: 9a74 4b3d e8f4 dfbd b493 753d d018 763d
00000030: 13d9 14bd 0cb6 d4bd b66f 86bb 7a5f 0f3d
00000040: fdee b53d e1e3 bfbd 40da c73d 8e75 e9bd
00000050: f945 d3bc 1870 b5bd 0e52 223d f299 14bd
00000060: f0c5 61bd 7214 4abd f1bc 46ba 4786 08be
00000070: 7949 4c3d 75ce d7bd b572 d93d b26d 823b
00000080: e866 3f3d f965 a53d fb9b 773b 5657 6e3d
00000090: ea6d 53bd 33af 933d 104e 52bc fd6c 4a3c
000000a0: 8066 1d3d 91cf 35bc 15b8 dcbd 129d c73d
000000b0: 7e12 d63d ad67 2dbd 5967 343d 9fd7 203d
000000c0: e8b0 6fbd d1f8 b03d bd61 e9bd c524 433d
000000d0: 2db1 02be c879 52bb 453e b0bd 67ee 033e
000000e0: 6511 cc3d a488 a83d 7714 7ebc c47e 823d
000000f0: 4880 b53d 39dc 8b3d b7d4 eb3c 2723 7f3d
00000100: bcb6 abbd 63f3 32bc 3deb 853d ee35 553d
00000110: cab5 5bbc ee05 84bc 890f b9bd b5b0 05bd
00000120: 965b f8bd 8bb4 b63d 678d ccbd 7869 fbbd
00000130: a4a0 c33d fb6a bc3d 523c 11bd 085a e0bd
00000140: ffee 2e3c 5d3a fe3d 78ad ba3d ff3c e9bc
00000150: a836 8a3c c8fe 4dbc fa67 d13c 4862 793d
00000160: 78bf b53d 4192 0f3d 5573 e83c b113 d63c
00000170: 6847 c9bd 5d5d 823c 8ce4 c0bd b608 a7bd
00000180: 8095 4bbd d026 a23d 7d75 cdbd 5e7d 47bd
00000190: c815 dcbc 5296 3fbc ded7 c43c 0a7b f8bd
000001a0: 42fd 6e3d 03df d13c 5905 aa3d f348 373d
000001b0: 01ce bb3d 7d78 b6bd d42b c1bd 331b 92bb
000001c0: c64a 31bd 6f70 cd3d 9af7 603d 15a1 bbbd
000001d0: 907d f7bd a225 e33d 3057 ed3d 47d8 863c
000001e0: a21f 023e 7f80 42bc ed06 b8bd 1939 843c
000001f0: 3fd1 ae3d e8d2 8ebd 7376 b43d a968 353c
00000200: e7ed a33c 0c85 26bd b6ad 513d 6ad0 a73d
00000210: 960f 4abd a30c 603d e313 b83d d778 c63b
00000220: dafc bf3d a385 9dbd 6d3c eabd 2709 103c
00000230: e114 cabd 032a 3ebd 0853 7ebd 0ee0 f5bd
00000240: e22b f83d 7b46 6cbc b10f 1cbc 851b aa3d
00000250: 196c 643d 4468 9abd c97b ccbd 4a22 d0bd
00000260: e6bb 98bd 5f79 d73d d6cc b23d e47b de3c
00000270: 5073 f63c 2b52 92bd 0985 543d 668f f0bd
00000280: 118d e73d 15d4 dcbd c3e2 e13d 6a85 213d
00000290: e2f2 8a3d d7a3 493d efd9 453d 153b 343d
000002a0: c66b 9f3d 4a38 773d c3c5 88bd 281f 5f3b
000002b0: 8e8b 083d 721b 3ebb 17b4 543c ea69 7a3d
000002c0: 92cf c33d 7356 81bd ba1d e93d 13d6 27bc
000002d0: 7a11 36bc 1481 3abd 1778 c83d eaaa f3bd
000002e0: 7a3a da3d 157f c53d 89b2 9d3d 6aef 8fbd
000002f0: 2836 453d 8eb8 c83c 3b13 67bd e8f0 87bd
00000300: b0db ac3d 105f 13bd 7b8b 98bc 5064 4dbc
00000310: 38d6 c7bd a79f 3f3d 6b1b 683d 6beb b23d
00000320: 666f 033d 7c3f 2d3d ebdb 12bd cb12 e4bd
00000330: 8cfc ddbd 121c 8f3d 09d7 6a3d 5117 723d
00000340: dd88 053e 3934 99bc 68c7 f13d ebac 57bd
00000350: c267 be3c 3a5f f53c 8d49 be3d 342e cabc
00000360: 2367 c53d 28db 913d ce44 dfbd e97b 4bbd
00000370: 0e91 3e3d efe5 9cbd f4b7 5abb 0656 603d
00000380: 75fc d5bd 2451 c2bd f570 ca3d 8670 8d3d
00000390: dbe8 d9bd 7e1a 5bbd 0f27 a43d 8b24 9cbd
000003a0: 14ae e0bd d063 623d dcc5 f7bd 1a4e 27bd
000003b0: 776d d33d d953 113d 9e3f 15bd 8351 91bd
000003c0: 93a7 24bd 03f3 ac3b 028c f8bd 69ab 02bd
000003d0: 7882 943d c9bc 03bb c394 d2bc 5e8a 4e3d
000003e0: 3a46 dd3d 049a 28bd fc49 06bd 6a9d e2bc
000003f0: 34b6 52bd 3da5 19bd 82a4 923b 3dff 85bd
0.117314644 0.09546287 -0.018821964 -0.011146342 -0.065724075 -0.04998096 -0.08676341 0.051488888
0.049671747 -0.10935384 0.059955314 0.060082257 -0.03633983 -0.10386285 -0.0041026725 0.035003163
0.08883474 -0.09369636 0.09758425 -0.11399375 -0.025790202 -0.08859271 0.039629035 -0.036279626
-0.05512041 -0.049335904 -0.0007581255 -0.13332473 0.049874756 -0.105374254 0.10617582 0.003980362
0.046729 0.0807609 0.003778218 0.05818876 -0.051618494 0.07211151 -0.012835994 0.012355086
0.03842783 -0.011096851 -0.10777298 0.09746756 0.10452746 -0.0423352 0.044043873 0.039268132
-0.05851832 0.08641208 -0.11395595 0.047642488 -0.127629 -0.0032116044 -0.08605627 0.12883912
0.09964255 0.08229187 -0.015507809 0.06371835 0.08862358 0.068291135 0.028787954 0.062289383
-0.08384463 -0.010922286 0.06539009 0.052053384 -0.013410041 -0.016116109 -0.09036166 -0.032639224
-0.12126844 0.089211546 -0.09987908 -0.12275976 0.09552124 0.092000924 -0.035457917 -0.10954672
0.010677098 0.12413476 0.09115118 -0.028471468 0.016871765 -0.012572952 0.025562275 0.060884744
0.088744104 0.035051588 0.028375307 0.026132436 -0.09828073 0.01591366 -0.09418592 -0.08155958
-0.04970312 0.07917559 -0.10032175 -0.048703544 -0.026865855 -0.011693554 0.024028715 -0.12132843
0.058346994 0.025619036 0.08301801 0.044747304 0.091701515 -0.089097 -0.09432188 -0.004458809
-0.0432842 0.10031211 0.05492363 -0.09161583 -0.12084496 0.11091162 0.11588895 0.016460551
0.1270738 -0.011871456 -0.08985696 0.016140508 0.08536004 -0.06973821 0.08811655 0.011072316
0.020010902 -0.040654227 0.051191054 0.08194049 -0.04933127 0.05469955 0.08988168 0.0060568857
0.093743995 -0.07691505 -0.114373066 0.008791245 -0.098672636 -0.046426784 -0.062090904 -0.12005626
0.12117745 -0.014421101 -0.0095252255 0.0830603 0.055767152 -0.07539418 -0.09984548 -0.1016279
-0.07457714 0.105211966 0.087304756 0.027158685 0.030084282 -0.071445785 0.051884685 -0.11746101
0.11306203 -0.10782639 0.110295795 0.039433874 0.067846075 0.049228515 0.04830354 0.044001658
0.07784228 0.060356416 -0.06678345 0.003404567 0.033336215 -0.0029008058 0.01298239 0.061136164
0.09561075 -0.06315317 0.11382623 -0.01024391 -0.011112565 -0.045533255 0.0978853 -0.11897834
0.10655685 0.096433796 0.077000685 -0.070280865 0.04814735 0.024502065 -0.056414824 -0.06637746
0.084403396 -0.03597933 -0.018621197 -0.012536123 -0.09757656 0.046783116 0.056666773 0.08736309
0.03208866 0.04229687 -0.03585426 -0.11136397 -0.10839185 0.06987776 0.05733398 0.059104268
0.1304049 -0.01870166 0.11805612 -0.05265514 0.023242835 0.029952634 0.092913724 -0.024680234
0.096388124 0.07121879 -0.10901795 -0.049678717 0.046525054 -0.07661044 -0.0033373805 0.05476954
-0.10448543 -0.094881326 0.09884826 0.06906228 -0.10640117 -0.05349206 0.08015262 -0.076241575
-0.10970703 0.05527097 -0.120982856 -0.040845968 0.10323613 0.035480354 -0.036437623 -0.07095625
-0.040198874 0.0052779927 -0.12136079 -0.03190175 0.072514474 -0.0020101538 -0.0257057 0.050424926
0.1080441 -0.041162506 -0.0327854 -0.027662951 -0.051443294 -0.0375111 0.0044751773 -0.065428235

l1.bias_hh_l0 f4 [256]
00000000: 13a8 e6bd a049 8dbd dbd0 a63c 44a9 f3bd
00000010: 2464 c0bd e290 bdbd b081 cbbd 1a12 90bd
00000020: a2d0 573d e1f2 e1bc 9c8e 133d cf06 423d
00000030: 05d9 403d 39a3 733d 6379 d63c 10b1 61bd
00000040: 5f08 bd3d e6ea 0fbc f28a 733d 10b4 d63d
00000050: 310c ab3d 20ea 2e3d a275 b43d 2513 b9bd
00000060: 90a1 603d 87ca d93d f4ce 9d3d 1657 2dbb
00000070: 3fbe 2fbd 5250 fcbc 8274 afbc ed04 63bd
00000080: a06d 1b3d 93e9 00bd 7e63 f3bc ccc5 d8bd
00000090: 2c9d f03c 1942 ff3d e2a3 3a3d 93f1 98bd
000000a0: 122a f3bd 240b 93bb 2512 363d baf9 53bd
000000b0: fee0 9d3d 27d8 ae3d d8c3 d1bd e83c a93d
000000c0: 7fd7 82bc fb00 773d c17a 04be bff5 b43c
000000d0: 680c e03c ca3e 2c3d 5f06 d1bd 638d 99bc
000000e0: 8bcc fc3d 224b b9bc 771d d13d 2263 a63d
000000f0: aaf4 aebd 7905 9dbd 26fc aebd 110d f6bd
00000100: 580d 2b3d e29d 033d d78d 92bc a352 073d
00000110: efb2 6abb 29ac c2bd 5230 973b e813 9cbb
00000120: b873 cdbd 7526 af3d 754d f63d 1def 11bd
00000130: 45dd 073c f967 423d 32e5 63bd 0461 d03d
00000140: d2bb b9bd aa08 053d bb2e febb 9f42 633d
00000150: c2b0 a0bd c675 673d 2ab6 a93d 5129 c0bd
00000160: aa83 aabd c856 afbd b314 7abd 464f bfbd
00000170: 5743 14bd 4621 c939 509a 8f3d 4729 24bd
00000180: 8a6e d5bd ac1e 923d c1ee 4c3d 3e6e 3c3d
00000190: 52bf ba3c 32ce 40bc abe3 6fbb 42bc 5a3d
000001a0: 9731 7e3c 98bc 9e3d 53a7 fabd a2f2 b0bd
000001b0: d9a2 cfbd e277 e23c bc45 4abd 70cb c8bd
000001c0: e432 21ba 124e 033d 2e51 6a3d 37f7 3c3d
000001d0: 50ac 593c 6a88 fa3d 0e0f a23d 0db2 66bd
000001e0: a9b7 083e 24b1 eabd 27a0 a6bd 093a a13d
000001f0: 1f6b a53d caf1 c83d 6f04 9e3d 4010 bdba
00000200: 0369 723d ed35 abbd c541 913d 3ebc c8bd
00000210: 1e9e 673d 8733 dabd 1d54 bb3d 27aa e83d
00000220: b984 883c fddf 813d 84b0 813d 7768 9f3d
00000230: 3e7f 79bd 2f2d a2bd f749 c8bd 7ef1 1abd
00000240: 727b 9abd 75c0 cb3d 463b 233d 1d0e 213d
00000250: f594 063d 1d4c 91bc 7511 4cbd ff03 bfbc
00000260: 6fc4 1339 33cf e0bd d8a0 a4bd a9a7 d23b
00000270: cdbc 903d c5a0 babd c761 90bd e38a 7e3d
00000280: 93e9 fcbc d142 ea3d a2a9 68bd 95e0 21bd
00000290: ec0a bd3d 850b eb3b 6c5e f33d 085d 83bd
000002a0: 545f 503d 66af adbd 2fd0 cabd aa25 96bc
000002b0: da8e 5e3d 0c07 c2bd 63bf 9c3d d0b0 9ebd
000002c0: fa85 c93d d28e 16bd e22c a0bd 6a48 4cbd
000002d0: c39a a9bc 0d2d bd3d 406f 883d e2be e73d
000002e0: 7874 ed3d 6253 22bc cfdc 70bd c1f4 533d
000002f0: 3fab 5abb 5739 58bc 8b6c f63d b062 a43d
00000300: fc16 203d f15c 7abd 7274 3b3d 009c 763d
00000310: 19a6 873d 12a4 f7bc 0cfe 04bd 81c0 6c3d
00000320: d94c 0fbd 3d89 ab3d a011 e13b 0b48 28bd
00000330: d7a9 71bc 2e6e d63d fb13 023e d968 b7bd
00000340: eb50 36bc 3e07 d63c ac1d d13c 10b8 7f3d
00000350: bfbc 853d 5b1e 373d 4ae0 3f3c 22d4 cdbd
00000360: a901 bfbd 68c6 d6bd 9cbb 8b3d 9387 c13d
00000370: dff0 d73d bf20 01be fb96 21bd 51f6 f6bd
00000380: 3f41 90bd b0fe abbd 1358 08bd 5615 8d3d
00000390: ba8e e8bc 05f5 8f3d a46b 043d 56a1 24bc
000003a0: 2dd3 4d3d 90ec 05be e052 df3d 66be ab3c
000003b0: 46ed ba3c 93f8 52bd bcae 733c 7905 e0bc
000003c0: 400d e2bc 275a c33c 0a9e c7bd f3af d2bd
000003d0: b018 213d efad 6fbc d0d0 e0bd 0a5e 64bd
000003e0: 272b 9cbc 3a03 bcbd 6a5b ff3d e3a4 04be
000003f0: 238b 92bd 3065 d53d 5a9e e23d ac62 653d
-0.11262526 -0.068988085 0.020363262 -0.11897519 -0.093941 -0.0925615 -0.09936845 -0.070347026
0.052689202 -0.027581634 0.036024675 0.047369774 0.047081966 0.059481833 0.026180929 -0.0551005
0.09230112 -0.0087840315 0.05945868 0.10483563 0.08351935 0.042703748 0.08811499 -0.09036855
0.054841578 0.10634332 0.07705489 -0.0026449612 -0.042906042 -0.030800018 -0.02141786 -0.05542462
0.037946343 -0.031472754 -0.029710528 -0.10584602 0.02937182 0.12463779 0.045566447 -0.074679516
-0.11873259 -0.004487412 0.044450898 -0.05175183 0.077089295 0.085373215 -0.10242432 0.0826357
-0.015971897 0.06030367 -0.12937452 0.022089837 0.027349666 0.042052068 -0.10206293 -0.018744176
0.12343701 -0.022618834 0.10210698 0.08124377 -0.0854276 -0.076670595 -0.08544187 -0.12014211
0.041760772 0.03213299 -0.0178899 0.033037793 -0.003581222 -0.09505493 0.0046139145 -0.004763115
-0.10031837 0.08552257 0.120264925 -0.035628427 0.008292501 0.047462437 -0.0556385 0.10174754
-0.09069027 0.032478966 -0.0077570355 0.055483457 -0.07846214 0.056508802 0.08286698 -0.093828805
-0.08325894 -0.08561474 -0.061054897 -0.09341292 -0.036197033 0.00038362498 0.07011855 -0.040078428
-0.10421474 0.071347564 0.05003238 0.046003573 0.022796307 -0.011767911 -0.0036604207 0.053402193
0.015514753 0.07750815 -0.12238946 -0.086400285 -0.101384826 0.027645055 -0.04938291 -0.098044276
-0.0006149246 0.032056876 0.057206325 0.0461342 0.013285711 0.1223305 0.07913028 -0.056322146
0.13351311 -0.11459568 -0.081360154 0.078723975 0.08077072 0.098117426 0.077156894 -0.0014424399
0.05918218 -0.08359895 0.07092623 -0.09801529 0.056547277 -0.10654359 0.09146903 0.11360579
0.01666485 0.063415505 0.06332496 0.07783597 -0.060912363 -0.07918774 -0.09779733 -0.03782796
-0.075430766 0.09948818 0.03985145 0.0393201 0.0328569 -0.017736489 -0.049821336 -0.023317335
0.0001409219 -0.1097702 -0.08038491 0.006428678 0.07067261 -0.091126956 -0.070498995 0.06214417
-0.030873096 0.114385255 -0.0568024 -0.03952082 0.09230599 0.007173004 0.11883244 -0.06414229
0.050872162 -0.0848072 -0.09902989 -0.018328506 0.054335453 -0.09474 0.076536916 -0.07748568
0.09840007 -0.036757298 -0.07821061 -0.049873747 -0.020703679 0.092371084 0.06661844 0.11315705
0.1159448 -0.009907575 -0.05880433 0.051747087 -0.003336623 -0.013197265 0.12032422 0.08026636
0.03908442 -0.061123792 0.045765348 0.060207367 0.066234775 -0.030229602 -0.03246884 0.057800774
-0.034985397 0.083757855 0.006868556 -0.04108433 -0.014749966 0.10470234 0.12702934 -0.08955545
-0.011127691 0.0261265 0.025526844 0.062431395 0.06530141 0.044706684 0.0117111895 -0.10050227
-0.093264885 -0.10487062 0.06822893 0.09449687 0.105439894 -0.12610148 -0.039450627 -0.120587
-0.07043695 -0.08398187 -0.03328712 0.06888835 -0.02838837 0.07029156 0.032329217 -0.010048231
0.05025022 -0.13078523 0.10904479 0.020964812 0.022818219 -0.05150659 0.014873203 -0.02734636
-0.027594209 0.023846699 -0.097469404 -0.10287466 0.039330184 -0.014628871 -0.10977328 -0.055753745
-0.019063545 -0.09180303 0.12468608 -0.12953524 -0.071554445 0.104196906 0.110653594 0.056002304

l1.weight_ih_l0_reverse f4 [256, 1]
00000000: 0c19 653d 3e17 293c fd8d 86bd fa78 86bd
00000010: 167c e53c 0e57 0e3d b762 adbd 6867 a3bd
00000020: cfe7 9b3d e835 bd3d 58cd 3bbd f525 e63d
00000030: d7e7 f1bd e074 053e eb23 d13c c291 66ba
00000040: 03f1 5d3c 7bf2 fabd d4ab d2bd 60d8 633c
00000050: 656c 94bd 6d1d 47bd 8202 373c 9708 fa3c
00000060: 5885 4b3b 6458 83bc 4434 533d e945 df3c
00000070: 071d 6e3d d710 b73c f479 993d e369 ea3d
00000080: 3b2d 5b3d 890d 5b3d 5f77 00be 96de c63b
00000090: de10 86bd 5b8a 0cbe 41a6 97bd f15a ffbd
000000a0: 64fb fbbd d728 d73c 2641 9a3a a836 053e
000000b0: 64d4 ef3d 2431 803d 45f7 203c 818e 83bc
000000c0: 4650 d43c a13d e5bd c242 a0bd 2bdb 11bd
000000d0: 9b6c ecbd c641 53bd 2113 af3d fd91 d43c
000000e0: 872d 6b3d 0c6b 03bc 4ab6 d93d 966f 1cbd
000000f0: d2bd c13d df00 6c3d f85f bfbc 44f2 c83d
00000100: 9fc8 eebd d7eb d43d c437 afbd d7e9 573c
00000110: 4eba acbc 29ec cebc 9e03 aa3d 7129 973d
00000120: d606 443d 002c 913a 79c7 58bd af7a edbc
00000130: 2a5a 933d fbbd 9e3d ba85 c1bd b605 12bd
00000140: d52a 903d 1228 cebd e3d0 853d 1ef8 233d
00000150: 8a24 a6bd 1b6e d43d c1e3 3f3d 7282 f0bd
00000160: 359d 873d fb4c b5bc 6756 acbd 7507 e8bd
00000170: 49ac b73d dada e13d 0cca 88bc e941 d63c
00000180: f582 c83d a57b 723d e19b f33c e452 353d
00000190: 67fa 833d bafb 183d c683 f5bc 7d3e f3bd
000001a0: 36ee 803c 228d b5bd 34ee 74bd ed3c 853a
000001b0: ec98 fb3b 050f 0d3d 686a 06bc 7509 f23b
000001c0: e4cd 71bd 1adf f03d 7513 19bc 59c1 d23d
000001d0: a03b af3d d9d5 963c c4c2 8e3d 4eb7 873c
000001e0: 8547 983d 0b92 923d e500 ee3c 01c2 803d
000001f0: 9b90 463d e564 c1bd e764 b63b a417 d03d
00000200: 409f a53d 674b 783d b62b 65bd 86c8 f4bd
00000210: 120d f23d a2db 47bc 384f c53d 56fc 39bd
00000220: 50dc 4b3c 44c4 07bd d2d6 efbd a4d6 883d
00000230: ebbd b8bd 850a f7bc 5aab ac3d 277a 003d
00000240: 8b84 0fbd 587f e73d f398 b13d 43df 703a
00000250: e0d4 ecbd 30df b63c 55a1 fdbd 10d7 51bd
00000260: 58be d5bb 6245 fbbc 383e 28bc c8b4 82bc
00000270: 7ee8 72bd b66f 32bd 27ae 2c3b 8660 c6bd
00000280: 6041 d5bd 38be 9f3c 073a a9bd 6225 eabb
00000290: a30d 30bd c0da a73d 9c85 81bd 7098 eebd
000002a0: fc03 913d 1ff4 eebd 148a 82bd 0c5c ddbb
000002b0: 05c4 f2bd b629 5a3d ae10 25bd cf16 eb3d
000002c0: 6c78 11bc 93a1 6abd cad2 c0bd 18e4 f4bc
000002d0: 6c05 f13d 6d66 d6bd 5346 80bd c652 e73c
000002e0: 454e f2bd 8d8a b1bd b346 ce3d 1a38 1aba
000002f0: 2ab3 a9bd 5b4e 133d 2ae6 c83d e980 d03d
00000300: bb3c 98bd f58e 47bd cb31 203d 9bad 403c
00000310: 4001 9e3d 920b de3d d570 01bc 8036 25bd
00000320: a951 ebbd 66ab b63c 39e2 debd 3815 b2bd
00000330: 80d6 c53d e267 6abd 9d53 a6bd 49d7 753d
00000340: 3a93 f83d 658c 223d b7eb 343c ca29 de3d
00000350: 5f0d 17bd 7277 253d c623 a83d fdf2 ec3d
00000360: 049f fb3d f157 f2bd ba65 c33d ae1b 013e
00000370: 3d29 cb3b b333 cc3d ffe5 79bc 107b 5abc
00000380: 661f 9d3c 4c9f d13b f10a 55bd 34cd 1bbc
00000390: 1db4 51bd 59c0 103d 4cff d9bc 53b3 38bd
000003a0: e2f3 333d 4af6 a73d f53c e0bc 862d 99bd
000003b0: 0988 efbc 4dfb aa3d 64af 4c3c 3679 683d
000003c0: 04f9 c33c d9a6 c83a 18d3 b6bc 8588 a63c
000003d0: 0b7a a3bd 7383 be3d f406 7f3d 429b 8b3c
000003e0: 8375 f83b b41a c7bd 4da6 dcbd 75bb 8dbd
000003f0: bafe cf3c ee61 0a3d 80f4 05bc 45d9 52bc
0.05593209 0.010320483 -0.06570051 -0.06566043 0.02801327 0.03475099 -0.08466094 -0.079787076
0.07612573 0.092387974 -0.045850128 0.112377085 -0.11811798 0.13032866 0.025529822 -0.00087955233
0.013546231 -0.12253281 -0.1028668 0.013906568 -0.07247237 -0.048612047 0.0111700315 0.030521674
0.003105482 -0.016033359 0.051563516 0.027255015 0.05813315 0.022346897 0.07493964 0.114459775
0.053509932 0.053479705 -0.12545536 0.006069015 -0.06546186 -0.13724653 -0.07404757 -0.124685176
-0.12303808 0.026264591 0.0011768683 0.13009131 0.11710432 0.06259373 0.009824579 -0.016059162
0.025917184 -0.111933954 -0.07825233 -0.035609405 -0.11544152 -0.0515764 0.085485704 0.025948519
0.057416465 -0.008021127 0.10630472 -0.038192354 0.094600335 0.05761802 -0.023361191 0.098118335
-0.11659359 0.103965454 -0.08555558 0.01317831 -0.02108493 -0.025259094 0.08301471 0.07380951
0.04785808 0.0011075735 -0.052924607 -0.028989164 0.07194932 0.0775108 -0.094493344 -0.035649978
0.070394196 -0.100662366 0.065339826 0.040031545 -0.08112438 0.103725635 0.046848062 -0.117436305
0.06621782 -0.022131434 -0.084149174 -0.11329547 0.08968408 0.11028071 -0.016697906 0.026154475
0.09790603 0.059199948 0.029737415 0.044268504 0.06444245 0.03734944 -0.029970061 -0.11877153
0.015738588 -0.088648096 -0.05979748 0.0010165252 0.007678142 0.034438152 -0.00820408 0.0073863813
-0.059034243 0.11761303 -0.009343018 0.102907844 0.085562944 0.018412517 0.06970742 0.016566899
0.07435516 0.07156762 0.02905316 0.06287003 0.04847775 -0.09443072 0.0055662277 0.10160759
0.08087015 0.060618784 -0.05594989 -0.11952309 0.11818899 -0.012198361 0.096342504 -0.045406662
0.012442663 -0.033146158 -0.117108956 0.066815645 -0.09020599 -0.030156383 0.0843112 0.031366494
-0.035038512 0.11303586 0.08671751 0.0009188542 -0.1156404 0.022323221 -0.12384287 -0.05123049
-0.006522935 -0.030672733 -0.01026874 -0.015955344 -0.059303753 -0.043563567 0.002634892 -0.09686379
-0.1041286 0.019499883 -0.08263021 -0.0071455697 -0.042981755 0.0819602 -0.06324312 -0.11650169
0.07080838 -0.11667656 -0.063739926 -0.0067553576 -0.11853794 0.053262435 -0.04029911 0.1147896
-0.0088788085 -0.057282995 -0.09415205 -0.02989392 0.11768612 -0.10468755 -0.06263413 0.028237712
-0.11831335 -0.086690046 0.100720786 -0.00058829936 -0.08286126 0.035963397 0.09809525 0.10180838
-0.074334584 -0.04872032 0.039109986 0.011760141 0.07715082 0.108420506 -0.007900436 -0.04033518
-0.11490185 0.022298526 -0.10882992 -0.086954534 0.09660053 -0.057227977 -0.08121417 0.060019765
0.12137456 0.039684672 0.011042527 0.108478144 -0.036877986 0.040397115 0.08209948 0.11569784
0.12286189 -0.1183318 0.09540887 0.12608215 0.0061999843 0.09970798 -0.015252589 -0.013335004
0.019180011 0.0063971635 -0.052012388 -0.009509373 -0.05119716 0.035339687 -0.026610993 -0.045092892
0.043933757 0.08201273 -0.027372817 -0.07479386 -0.029239671 0.08348713 0.012492988 0.05675622
0.02392245 0.0015308514 -0.022317454 0.02032877 -0.07982262 0.09302416 0.06226249 0.017041806
0.007582368 -0.0972189 -0.10773907 -0.0692052 0.025390018 0.0337848 -0.008175969 -0.012869184

l1.weight_hh_l0_reverse f4 [256, 64]
00000000: 0329 65bd 3639 eebd cf6d 7dbd 6d9a e5bd
00000010: e4ae cebd ef98 a73a f6e1 b93a b9d1 f43c
00000020: 17d1 d5bd f0a2 f33d 73af a83d ae93 9fbd
00000030: da8c e63d 088d af3b 5579 52bd ae50 f5bd
00000040: 6340 b4bd 14a3 4f3d 1a41 f0bd 7d05 dfbb
00000050: b5a5 bb3d 7c0b 983c 6ee8 e03d 717b 423c
00000060: 9933 b63d d2e1 333d ea40 adbd 222f e2bc
00000070: 7a78 513d 337e 403d 2c03 c8bd d867 94bd
00000080: 4ba6 a63d 58e0 eebc 97b0 043e 82d8 6c3d
00000090: dd33 c73d 464b b5bb 51b3 93bd 4e38 44bc
000000a0: 30cf d43d 024e 3d3d b72f 5d3d a826 b83d
000000b0: ec3d 833d 81bd fe3d 5de1 443d cd06 da3d
000000c0: 90f3 11bc 2170 09bd 8f7f dabb becc 81bd
000000d0: 8b01 db3d cba6 07bc 8e75 e23d 2eee adbd
000000e0: a57b f33d def5 debd 3388 bebc d3c9 eb3d
000000f0: 0346 febc ac4d b2bd cfbf ecbc 7659 03be
00000100: 28f9 80bd 14f0 c43b 703b b83d 2ad5 273d
00000110: 2be0 d5bd 5795 3fbc e1d8 c3bd c969 d03d
00000120: 1e92 b4bd d5d6 b53c 133d e7bd c075 adbc
00000130: 948d 473d 478b e8bd 1652 d33a 8da1 d5bd
00000140: 7542 bebd e30f 493d b944 a43c 86ed e3bd
00000150: 613c dabc 09de aa3d 3ad1 c83d 2f0d a9bc
00000160: 3929 97bd 8540 87bb d876 fc3d 3473 1e3d
00000170: 2fc9 be3d d1ca 30bd 0b27 9bbd 5f78 cd3d
00000180: 775e 72bd f00c e0bd 7123 efbd 73a1 243c
00000190: d839 d0bd d752 88bc 411d 3ebc b7c5 34bd
000001a0: 4c21 74bd 1dc2 c43d 2cd1 243c 0442 e43d
000001b0: bd04 58bc 7bde b2bd d125 d33d 10a1 5b3c
000001c0: 0098 e43d 9853 5f3d f613 8b3d af5f 5dbd
000001d0: 9162 a83d 5ab1 18bd 688d a43b aaff babd
000001e0: ce81 bbbd d0b3 c1bd b0be adbd a493 d6bd
000001f0: beec 993d d15d d0bb 7c97 3f3c 986c 0dbd
00000200: 0757 f2bd df31 873d 0642 873d 98f1 ce3c
00000210: 77ae acbd b056 0cbc bf22 803d b2cc 9a3d
00000220: 6be4 f03d 0155 163d b329 e03d cadb c63c
00000230: 8a9f d0bc 2c51 813d cd4e d73d 699f aebd
00000240: 8e33 12bd 42e7 403d a1de 45bd d9ba 123c
00000250: f550 16bd 7b09 81bd bd67 cd3d ab6b 9cbd
00000260: 5daf 85bd 2abe 97bd dde9 ddbd f185 c93c
00000270: ff59 ca3d 34e0 863c 17c8 84bd c8b2 f63d
00000280: b681 9d3d 0e40 873d 6c95 1fbd 559f c83d
00000290: 1276 c13d e653 39bd bcf8 2abd 0482 b2bd
000002a0: 565f 713d 9e03 a73d 64bd cd3d c118 14bd
000002b0: dc57 b6bd 0a45 c93c 2edb a23d a45e 4b3c
000002c0: d184 d5bd bf27 813d bfc2 f13d 2918 44bd
000002d0: 7a31 6e3d 1ecc 36bc da4e 883d dd84 843d
000002e0: fda5 0fbd c960 8d3d 6d76 d1bd 40ec 0dbd
000002f0: f7a2 8c3d 4fd7 69bd 4b9c e6bd 16b2 bfbd
00000300: c985 81bd 1181 d6bc d2e3 6e3c 9855 c2bd
00000310: 9908 8d3c bcef 87bd 4eac d93d 39d7 b03c
00000320: 2e98 8fbc 10c0 a2bd e8a2 59ba 9100 e73d
00000330: 2fd0 a3bd 7264 a83d 1fab 843d 98c2 be3c
00000340: 034e ef3d bd4b cdbd b44f 3abd f52a 63bd
00000350: 4c48 6d3c 8b8f 783d 6db4 473d acbc 4f3d
00000360: 3911 c6bd 8591 1fbb 662f d7bd 3819 403d
00000370: d12c c3bd 55a6 e9bd 36d6 303d 8154 993c
00000380: 416d 04bc 96f3 603d 7eb1 a53d 58f9 f33d
00000390: a7f0 31bc d9eb 5cbd 15e6 9a3c 7eb7 373d
000003a0: 2b4a 5c3c db52 e73d 30fc 893d fd40 293d
000003b0: c5c0 cc3d 47d0 d8bd 9620 fbbc c6cf 5dbc
000003c0: b2b3 bdbb d793 a6bd e7cd a2bd bde8 d6bd
000003d0: 6fe6 48bd 71af 36bd cb88 3bbc f2c2 063d
000003e0: a6ab ea3c 1598 73bd a9f3 e73c 79bb bbbd
000003f0: b22e 753d a542 803c 8a64 dcbd 8b01 c83c
-0.055947315 -0.11632006 -0.0618723 -0.11211095 -0.100919515 0.0012786667 0.0014181721 0.02988516
-0.10440271 0.11896312 0.08236589 -0.077918395 0.11257334 0.0053573884 -0.051385242 -0.11978279
-0.08801343 0.050692633 -0.11731167 -0.006806074 0.091624655 0.018560164 0.109818324 0.011870251
0.0889656 0.04391653 -0.08459647 -0.027610365 0.051140286 0.046995353 -0.0976623 -0.07246369
0.081371866 -0.02915971 0.12957989 0.057823665 0.09726689 -0.005532655 -0.07211936 -0.011976315
0.103910804 0.046216972 0.054000583 0.08991748 0.06408295 0.12438489 0.048066486 0.106458284
-0.0089081675 -0.0335542 -0.006668038 -0.063378796 0.10693654 -0.008279513 0.11057578 -0.08492695
0.11888818 -0.10886739 -0.023258304 0.11513104 -0.031039244 -0.08706221 -0.028900055 -0.12827095
-0.06297523 0.006010065 0.08995712 0.040974773 -0.10443147 -0.01169332 -0.09562851 0.10176427
-0.08816932 0.022197166 -0.11290946 -0.021174312 0.048719004 -0.1135469 0.0016122486 -0.10431204
-0.092900194 0.049087416 0.0200523 -0.111292884 -0.026640119 0.08343131 0.09805532 -0.02063617
-0.073809095 -0.0041275644 0.12327355 0.038684085 0.093157165 -0.04316217 -0.07575806 0.100327246
-0.05917212 -0.10939968 -0.11676682 0.010048258 -0.10167283 -0.016641064 -0.011603654 -0.044133868
-0.059602067 0.09607337 0.010059636 0.11145404 -0.013184723 -0.08733841 0.10309947 0.0134050995
0.11161804 0.05452308 0.067909166 -0.05404633 0.08221925 -0.03727851 0.0050217398 -0.09130795
-0.09155618 -0.09458125 -0.084836364 -0.10477379 0.07515858 -0.00635884 0.0116938315 -0.03452739
-0.118330054 0.06601309 0.0660439 0.025261685 -0.08431714 -0.00856559 0.06256627 0.07558574
0.11762317 0.03670216 0.109454535 0.024274725 -0.0254667 0.063143104 0.10513077 -0.08526499
-0.035693698 0.047095545 -0.04830802 0.008955681 -0.0366983 -0.063006364 0.10029552 -0.076377235
-0.065275885 -0.07409318 -0.108356215 0.024600001 0.09880447 0.01646433 -0.064834766 0.120458186
0.07690756 0.06604014 -0.03896086 0.09796015 0.09446348 -0.045246027 -0.041741118 -0.08716205
0.05892881 0.08154987 0.10045889 -0.03615642 -0.089034766 0.024569053 0.079519615 0.012412701
-0.10425723 0.06306409 0.11804723 -0.047874603 0.058152653 -0.011157064 0.06655665 0.06470654
-0.035070408 0.06903226 -0.10227666 -0.034649134 0.068670206 -0.0570901 -0.11260279 -0.09360139
-0.063243456 -0.02618459 0.014580684 -0.09488982 0.017216014 -0.066375226 0.10628568 0.021587001
-0.01752862 -0.07946789 -0.0008302168 0.11279405 -0.07998692 0.082222834 0.06477951 0.023286149
0.116848014 -0.100242116 -0.045486167 -0.05546089 0.014482569 0.06068377 0.04875605 0.05071704
-0.09671254 -0.002434821 -0.105070874 0.04689905 -0.095300324 -0.114086784 0.043173037 0.018717052
-0.008082689 0.0549198 0.080904946 0.11912793 -0.010860599 -0.05393586 0.01890854 0.044852726
0.013445417 0.112951 0.06737554 0.041321743 0.09997705 -0.10586601 -0.030655187 -0.013538307
-0.0057892436 -0.08133667 -0.07949429 -0.1049361 -0.049047884 -0.044600908 -0.011446188 0.032900758
0.028646301 -0.05947121 0.028314428 -0.09166617 0.059858985 0.015656779 -0.10761364 0.024414798

l1.bias_ih_l0_reverse f4 [256]
00000000: 9dd9 803d e5f5 9dbd 6d0a 06bd 1759 c23b
00000010: c3c1 d1bd e93a fb3d 45ec de3d 8fd4 fdbc
00000020: faf3 9fbd b069 a1bc d98f 88bc 4dac d73d
00000030: ff16 a2bd 77df a3bd 5b22 523d fa63 433d
00000040: d270 ccbb d8c0 bdbd 7ac4 623d f929 1e3c
00000050: 1300 983d 409f db3d ae93 bc3d 6bd2 aebd
00000060: 1aed 7a3d 8781 a73b b4a6 1ebd 7639 c1bc
00000070: fde9 d6bc ce3e c2bd 96c2 c4bd 6261 ea3d
00000080: 1bad bcbd c117 16bc db0f 123d 11de edbb
00000090: fcf4 d5bc 94ad 05bd ed3a b8bd aef2 623c
000000a0: 6311 9c3d f54f 96bd 1c36 bf3d 3f6b 5fbd
000000b0: 5f35 b33d 558d 2a3d 3f3a 4b3d d059 cdbd
000000c0: 133f 49bc 733e 633d 2739 443d 1dd9 0c3c
000000d0: 8501 743d 295e f8bd 85ca ce3d 370b d8bc
000000e0: ddc5 933d a226 a0bd 0b91 babd 2e21 1f3d
000000f0: b6ef f139 4319 f9bd a23a ecbb 56ec 633d
00000100: c82e 3fbd 5b43 dd3d 3f4f f33d d1c7 aabd
00000110: 5bf3 bbbd f788 cabd 36cb 15bd 40d7 b53d
00000120: a738 0ebd 333a 063e 4aff 3a3d dd29 31bd
00000130: e0d3 07bd 7597 ebbc b738 9fbd 5c61 84bd
00000140: c2cc e5bd caef 9dbd 0339 5d3d 531d b3bc
00000150: a52a 61bd cd80 d8bc f13e aa3d de2a 43bd
00000160: 8473 c73b a5bc 9cbd 62e2 b13d 113d 9ebd
00000170: 78b9 e2bd ee92 553b 904f c2bd ef40 8ebd
00000180: 101e aabd ff00 f1bd 8477 dabb 2c5f 613d
00000190: cf84 9ebc e414 303c 93fc c73d 51ad ef3c
000001a0: 9447 993d fcec f3bd 520c 593d cfe4 ff3d
000001b0: ab37 a9bc 9739 553d 93ab 083d e062 f4bd
000001c0: f58b c0bc 3082 153d 1dcd 7bbd 13f6 25bd
000001d0: 726b e1bd f96b a93d dc7b 003e 41b3 3dbc
000001e0: bc97 fa3d 39de 153d eadd e13d 404c 20bd
000001f0: c966 ae3c 48f3 423d 7a23 ca3d c092 c2b9
00000200: 3dd1 c3bd 3cce 94bb 2ecd a9bc e918 e73d
00000210: 1064 f4bc 41fc ebbd f5cd d63d ca38 943d
00000220: e242 90bd dd03 e3bd e68e af3a 66ae 6c3d
00000230: e4ef 023e e469 2a3d 0433 d7bd 114c 033d
00000240: 1ae7 81bd c598 b1bd 9632 ddbd 8816 c73d
00000250: 4817 1e3c e8a0 9fbd 7a8e cbbd 3535 863d
00000260: d5ac 42bd 895f 953d 3cdb d73d 329d d3bd
00000270: adcd 3c3d aaeb abbd b57a c7bc 5e2a 3cbc
00000280: 29d4 1dbd 8434 a9bd ec44 64bd 860d 173d
00000290: 8153 08bd e5bb d9bd 0d3e b03d 3a71 d5bd
000002a0: be94 86bd 7823 f53c 2160 fb3c 03cc cf3b
000002b0: fb60 b83c 9a5f afbd 64d9 d03d b818 ac3d
000002c0: f724 d9bd 4286 37bb b5b1 d2bd a22b dcbd
000002d0: 54a3 e43c e23b 993d 69ea 473c 530b 3c3d
000002e0: 6d94 92bd f8d1 a33d 6ff3 adbc d4cc 4bbd
000002f0: ac73 c73c 8f42 053d fabe 873d 6ca5 ea3d
00000300: 1e43 42bd 0728 c93d fa3b 11bd 7b8a 983d
00000310: 1838 263d 3d98 ba3d 050d f8bd 2971 e3bd
00000320: 70ef 943c 1e69 a73b 7ce2 cb3d 84ab 513c
00000330: 5d4b 8e3d 55fe 7e3d a425 4938 fac2 d7bd
00000340: 2e6b 9ebd 06ce f9bd c286 cb3c 0c5c debd
00000350: b7b4 983d f280 21bd d508 5b3d eb32 e23d
00000360: 8420 d13c aebc 8cbd 64cb eabd d8f4 813d
00000370: 267d cc3d 558d c5bd 8440 95bb 8835 9abd
00000380: 453f b8bd a7d3 7dbc 5dde cfbd 4a8a 82bd
00000390: 801d b3bd 4335 cd3d b5e8 c3bd adf4 b9bd
000003a0: 42c3 a3bd a3fd 23b9 2a3d 98bd 2ff4 033d
000003b0: 5f04 0dbd 324e a33d 5650 49bd 4ff0 f1bd
000003c0: f384 ac3c 4429 a3bd 3147 27bd e8ab f8bd
000003d0: ac11 1a3d 0b21 473d 5d21 18bd 0647 353b
000003e0: 7643 58bc 91a1 39bc 244c 793d de55 813d
000003f0: 09bf f3bd a1a5 ddbc 9831 9c3d 4f45 58bd
0.062915064 -0.07712916 -0.032724787 0.0059310305 -0.10242035 0.122670956 0.108849086 -0.030985145
-0.07810207 -0.019703716 -0.016670154 0.10530911 -0.079145424 -0.08001607 0.051302295 0.047702767
-0.006239035 -0.09265298 0.055363156 0.009653562 0.07421889 0.10723734 0.09207855 -0.08536228
0.061261274 0.0051118764 -0.0387332 -0.02358697 -0.026234621 -0.09484635 -0.09607427 0.114443555
-0.09212705 -0.009160937 0.035659652 -0.0072591384 -0.026117794 -0.03263624 -0.08995614 0.013851805
0.07620504 -0.07339469 0.093364924 -0.054545637 0.08750414 0.04163869 0.049616095 -0.10026896
-0.0122831045 0.055479478 0.047906067 0.008596686 0.05957176 -0.121273346 0.10097221 -0.026372535
0.07215474 -0.078198686 -0.09109696 0.038850002 0.000461457 -0.121630214 -0.007209138 0.05564531
-0.046675473 0.10803863 0.11880349 -0.08338893 -0.09177276 -0.09889405 -0.03657075 0.08878946
-0.034721997 0.13108139 0.04565362 -0.043252815 -0.033161044 -0.028758744 -0.077744894 -0.06463882
-0.11220695 -0.07711752 0.05400945 -0.021864569 -0.05497231 -0.026428604 0.08312786 -0.047648303
0.0060867686 -0.076531686 0.08685757 -0.07726491 -0.110705316 0.0032588798 -0.094878316 -0.06945979
-0.08306515 -0.11767768 -0.0066670794 0.055022404 -0.019350437 0.010747168 0.097649716 0.029257448
0.074843556 -0.119104356 0.052990265 0.12494814 -0.020656427 0.052056875 0.03336675 -0.119329214
-0.023504237 0.03650111 -0.06147491 -0.040517878 -0.11006822 0.08272547 0.12547249 -0.011578382
0.12235972 0.03658888 0.11028655 -0.039135218 0.021289246 0.047595292 0.09870048 -0.000371119
-0.095613934 -0.0045411866 -0.02072772 0.11284048 -0.02983287 -0.11522723 0.10488502 0.07237394
-0.07044007 -0.11084721 0.0013394027 0.057783507 0.12786824 0.04160489 -0.10507777 0.032054964
-0.06342907 -0.086717166 -0.10800664 0.09721094 0.009649105 -0.07794362 -0.099392846 0.06553117
-0.047528107 0.072936125 0.105398625 -0.10332717 0.046094585 -0.08394559 -0.024350503 -0.0114847105
-0.03853241 -0.0826197 -0.05572979 0.03687813 -0.03328276 -0.10631541 0.08605585 -0.10421987
-0.06571339 0.02992414 0.030685486 0.0063414588 0.022507181 -0.085631564 0.10197714 0.08403152
-0.106027536 -0.0028003608 -0.10287801 -0.1075051 0.027909912 0.07482125 0.012201884 0.045909237
-0.07157216 0.07999033 -0.021234242 -0.049755886 0.024347149 0.03253418 0.06628223 0.11457333
-0.04742729 0.09822088 -0.03545759 0.07448288 0.04058084 0.091110684 -0.12111858 -0.11105568
0.018180579 0.0051089665 0.09955308 0.01279724 0.06947968 0.06225427 4.795719e-05 -0.10535236
-0.07735287 -0.12197499 0.024844531 -0.108574 0.074563436 -0.039429612 0.05347522 0.11044868
0.0255282 -0.06871925 -0.11464575 0.06345528 0.09984808 -0.096460976 -0.00455481 -0.075297415
-0.08996443 -0.015492356 -0.10149834 -0.06374033 -0.08745861 0.100199245 -0.0956587 -0.09079871
-0.07996227 -0.00015639378 -0.07433541 0.032215293 -0.034427997 0.07973899 -0.04914888 -0.11813413
0.021059489 -0.07966855 -0.040839378 -0.121421635 0.03761451 0.048615497 -0.037141193 0.0027660741
-0.013199678 -0.011330024 0.06086363 0.06315206 -0.119016714 -0.027056517 0.07626647 -0.052800473
