Code/Archive/models/exo_conv_bigru_cluster.pt (torch, 171210 bytes, 16 tensors)

conv.0.weight f4 [8, 1, 9]
000000 1e 7a 92 3d 39 6b ef bd b8 09 90 3e 7b e8 94 be
       0.07152198 -0.11690373 0.28132415 -0.2908362
000010 79 8d 50 bd 61 7b 2b 3d 53 d5 08 3e 0c ae a2 be
       -0.05091617 0.04186571 0.13362627 -0.31773412
000020 ad d0 65 3d fe e5 ee bc 33 be 63 3d b0 21 f6 3d
       0.05610721 -0.029162403 0.05560131 0.12018144
000030 48 70 6d 3e e2 32 2e 3e 9e 43 22 be 0b 08 55 3e
       0.23187363 0.17011598 -0.15846106 0.2080385
000040 44 24 98 be f2 a2 0b 3e 7f b0 3a be 42 7a 34 3c
       -0.29715168 0.13636377 -0.1823139 0.011015477
000050 3f 8c 62 3e df 03 69 be 81 b7 26 3e 30 3d ac bd
       0.22123812 -0.22755383 0.16280939 -0.08410108
000060 e6 b6 8c 3e 4c ea 1d 3e e8 a2 9e 3e 19 7c a8 be
       0.2748329 0.15421408 0.30983663 -0.3290718
000070 e4 64 81 be ff a9 81 be e2 d2 6b 3e 57 50 96 3e
       -0.25272286 -0.2532501 0.23029664 0.2935817
000080 ed 93 e3 3b 4e 59 50 be 93 e9 8f be c7 6f 79 be
       0.0069451244 -0.20346567 -0.2810789 -0.24359046
000090 ce 44 89 3d bc 21 6e 3d 31 b6 8f 3e 0d 7a a4 3c
       0.067025766 0.05813764 0.2806869 0.02007773
0000a0 8f 3e 2c 3e a9 a8 9e be 24 ea 35 be 54 12 fe 3d
       0.16820739 -0.30988052 -0.17765099 0.124058396
0000b0 6b 82 4f bc 29 66 1a 3e 72 4e 09 be 8b 7d 21 3e
       -0.012665371 0.15078034 -0.13408831 0.15770547
0000c0 c6 4d 73 be ff 26 e3 bd a0 28 51 be 9b 18 c4 bc
       -0.23760137 -0.11091422 -0.20425653 -0.023937514
0000d0 de f1 1c be db da a7 be 41 42 5d 3e 93 36 32 bd
       -0.1532664 -0.3278416 0.21607305 -0.043509077
0000e0 1f 98 48 be 82 b3 3b be 35 21 76 bd 20 6f 8e be
       -0.1958928 -0.18330196 -0.060090262 -0.27819157
0000f0 7b c9 80 bc 2f 5e 8d be 80 1a 1e 3e f3 22 9f be
       -0.015721073 -0.2761092 0.15439796 -0.31081352
000100 48 49 13 bd 7e de 1b be 9c 4c 11 bc 7e 91 06 3e
       -0.03595856 -0.15221593 -0.008868363 0.13141438
000110 4a 80 7b 3e 38 da ff bd 02 e0 aa bc cb e4 78 be
       0.24560657 -0.12492794 -0.020858768 -0.24306028

conv.0.bias f4 [8]
000000 54 ee 87 3e fc 68 fd 3d 8b cf a0 be 09 a7 0e be
       0.26549017 0.1237354 -0.31408343 -0.13930906
000010 27 4e 9d bd 4c 2a 8d 3e f5 9f 5a be ce f8 00 3e
       -0.07680922 0.27571332 -0.21350081 0.12594911

conv.3.weight f4 [16, 8, 9]
000000 1a a3 c2 bd 7c 05 21 3d 57 d1 6c bc 1f d7 d1 3d
       -0.095037654 0.03931187 -0.014454207 0.10246109
000010 df 8a b5 bd 98 e7 9f 3c b9 1f 92 bd c9 9d 91 3d
       -0.08864378 0.019519612 -0.07134957 0.07110173
000020 34 33 53 bd fe c0 9a 3d c9 3d b3 bb 6f dd 7d 3d
       -0.051562503 0.075563416 -0.005470012 0.061978754
000030 db 0b be bd bf 0a 28 3d f3 ba 43 ba fe b6 c9 3d
       -0.09279605 0.041025873 -0.0007466517 0.09849356
000040 6b 17 b1 3d 26 22 9b bd f3 d8 c8 bd ea be 79 bd
       0.08647045 -0.07574873 -0.09807005 -0.060973085
000050 03 70 55 3d f6 d5 96 bc 00 72 17 3d cd 65 93 bd
       0.052108776 -0.018412571 0.036973953 -0.07197151
000060 af ec e9 bd 1e 1e 88 bd 0f 72 c0 3b bc af 9e 39
       -0.11422097 -0.066463694 0.005872972 0.0003026704
000070 35 94 a3 bd f6 25 a6 bd 64 2b e8 3d e9 f6 ec bc
       -0.079872526 -0.08112709 0.11336401 -0.02892633
000080 aa cb c8 bc 3b 83 73 bd 46 37 eb 3d 7d 6d 4b bc
       -0.024511177 -0.059451323 0.11485152 -0.012416241
000090 bd f3 f9 3c b5 28 93 3d 01 a6 f4 bd 0d 53 a8 3d
       0.030511731 0.071854986 -0.11945725 0.08218966
0000a0 e1 f8 20 bd 5f 8f ac bc d2 e8 d0 bd 3b f5 a5 3d
       -0.03929985 -0.021064458 -0.10200657 0.081034146
0000b0 2c fc c1 bd b0 91 bd 3d cd de c9 bd e8 33 9e bc
       -0.09471926 0.09256303 -0.09856949 -0.01931186
0000c0 c2 f9 02 3d 7e 6a b0 3d 68 13 9d bc a7 a3 de 3d
       0.03197647 0.08614062 -0.019174293 0.10871058
0000d0 34 51 03 bd 37 ae a6 bd 4c 0e 9b 3d 2b 16 f5 39
       -0.032059863 -0.081386976 0.07571086 0.00046746558
0000e0 24 d0 09 bd e5 a5 ac 3d d3 86 d6 bd 01 d0 1a bd
       -0.033645764 0.08430079 -0.104749344 -0.037796024
0000f0 94 71 63 3d fb 57 61 3c 0c 64 d9 bd 34 b7 b0 3c
       0.05552824 0.013753886 -0.106147856 0.021571733
000100 94 0c a8 3d cd 80 08 bb e1 25 3b 3c 0e 94 6e 3d
       0.08205524 -0.0020828724 0.011422605 0.058246665
000110 29 81 96 bd 8c e5 ba bd 2a ce e8 3d 61 ce 90 bd
       -0.07348854 -0.09125814 0.11367448 -0.07070614
000120 69 c6 84 bd 67 0d bb bd 80 41 db bd 33 8c eb 3c
       -0.06483156 -0.09133416 -0.107058525 0.028753376
000130 91 76 6f 3d 39 1b 2d bd b9 a8 1d 3c f5 c6 cf 3d
       0.058462683 -0.04226229 0.009622746 0.1014537
000140 9d bc 8d 3a 5b 95 dc bd e5 29 2a 3d 4f 5b 73 3d
       0.0010813657 -0.10770675 0.04154386 0.05941325
000150 ab eb 7f bd 0e a7 db bc 03 c9 d6 bd 3b e2 3a bc
       -0.06248061 -0.026813056 -0.10487559 -0.011406477
000160 ea 2d 52 bd ba ef 80 b9 22 74 c3 bd 51 33 13 bd
       -0.05131332 -0.00024592673 -0.09543635 -0.03593761
000170 9e 97 b3 3d b0 68 e2 3d 3f 98 d8 3d 60 4d bb 3d
       0.08769153 0.11055124 0.10575914 0.091456175
000180 61 e3 c8 3d 23 d9 88 bc ce ac e0 3c 8a 6f 18 bd
       0.09808994 -0.016705101 0.02742615 -0.037215747
000190 9e a0 4e 3d 4f 02 93 bd 86 f6 88 3d a7 d6 3b 3d
       0.050446145 -0.07178175 0.066876456 0.045859005
0001a0 3e 91 22 3d e4 c1 bc 3d 94 b9 61 3d 9b 1d d7 bd
       0.039689295 0.09216669 0.05510862 -0.10503694
0001b0 d0 aa ac 39 63 5c 47 3d 8c e4 c2 3d a7 16 d0 3d
       0.00032933662 0.04867209 0.09516248 0.101605706
0001c0 d7 11 6b bd 29 9d d5 bd 02 03 ef bd 19 f7 4e 3d
       -0.05739006 -0.104303665 -0.116704956 0.05052862
0001d0 b7 73 a9 bc b3 40 ba bd 26 55 9f 3c c3 81 ca 3b
       -0.02068506 -0.09094372 0.019449782 0.0061800196
0001e0 9d e3 e2 bd a9 65 d7 bd 6b de 9d bc 8e 71 d9 bd
       -0.1107857 -0.10517437 -0.019271096 -0.10617362
0001f0 76 c3 c2 3d d6 80 67 3d 5d 77 57 bc ef 85 c3 bd
       0.095099375 0.056519352 -0.013151017 -0.0954703
000200 f0 9d 39 3d fc ec 68 3d d0 a7 ed 3d cb 18 ba bc
       0.045316637 0.05686663 0.11604273 -0.0227169
000210 15 b9 82 3d d3 04 58 bd 37 60 80 3d fa d9 d6 bd
       0.06382958 -0.052738976 0.062683515 -0.104907945
000220 cd da a0 bd 45 cb c3 bd 16 1b d0 bc d8 82 22 3d
       -0.07854233 -0.09560255 -0.02540354 0.039675564
000230 24 35 14 3d f0 51 a6 3d 24 dd e0 bd 34 f2 fc 3a
       0.03618349 0.08121097 -0.10979679 0.0019298256
000240 52 e5 c2 3d e5 70 67 bd f9 1b d0 bd de 1d 3a bd
       0.09516396 -0.05650415 -0.10161585 -0.04543864
000250 7c a5 11 bd 92 25 21 bd ed b0 e8 3d 3b 1b a6 bd
       -0.03555821 -0.03934247 0.11361871 -0.081106625
000260 94 ee ae bd 18 db 34 3c 40 a5 a7 3d 0f 7f 5b bc
       -0.08541599 0.011038564 0.08185816 -0.013396992
000270 cd ec 33 bd 49 df c0 3d dd 5b c2 bd 9b 62 8a 3d
       -0.043927003 0.09417588 -0.09490178 0.06757089
000280 b9 06 d8 bd 73 87 9a bd e0 16 36 3d ee d4 95 3d
       -0.10548157 -0.07545366 0.04445541 0.07316004
000290 3b db 4e bc 64 c5 4d bd 96 ea 01 bd b4 cb 54 bd
       -0.012625511 -0.050237074 -0.03171786 -0.05195208
0002a0 3f 44 be bd 8a 79 3b bd 8e 6a 90 3d af 43 d7 3d
       -0.09290361 -0.045770206 0.07051574 0.105109565
0002b0 3a d8 0a bd a8 f0 6a bd 78 d6 af bd f0 e6 10 3d
       -0.033897616 -0.057358414 -0.085858285 0.03537649
0002c0 88 ce 29 3d 26 9a 77 3d 50 1c e2 bd 0e dc 85 bd
       0.04145673 0.06044974 -0.110405564 -0.06536113
0002d0 e0 58 13 3d f9 0c 32 bd ba 23 a7 bd 7e 03 ec bd
       0.03597343 -0.043469403 -0.08161111 -0.115241036
0002e0 da 5f 89 bd 5b d9 28 3b a0 66 01 bd 4b 9b c7 bd
       -0.06707735 0.002576432 -0.03159201 -0.09746417
0002f0 60 b4 be 3d fa 02 6a 3d b6 01 ec 3c 6b bb a4 bd
       0.093117476 0.057131745 0.02880941 -0.0804356
000300 0d c2 74 3d f2 79 70 bd 1a a3 c1 3d ae e9 94 bd
       0.059755374 -0.058710046 0.09454937 -0.07271133
000310 36 fd af 3c 51 7b d7 3d 8a 80 e2 3b c8 5f 2b bd
       0.021483045 0.105215676 0.0069122957 -0.04183939
000320 1e e6 ec bd d7 51 15 3d 02 ee 6f bb 93 82 a6 bd
       -0.11567329 0.036455 -0.003661037 -0.08130374
000330 b7 5b ce bc ab 34 da 3d 99 c8 9b bd bb 9b 1c 3b
       -0.025190217 0.10654577 -0.0760662 0.0023896534
000340 eb e4 88 bd 90 28 c4 bc 92 1e d4 3d ab 02 6b bd
       -0.06684288 -0.023945123 0.10357393 -0.05737559
000350 fb 63 99 bd 0d 74 ae bd 1b 85 53 bd f8 68 7f bd
       -0.07489773 -0.08518229 -0.05164061 -0.062355965
000360 d8 54 21 3b 8b 96 9e 3c c4 d8 2a 3c c9 5e 86 bc
       0.0024617221 0.019358894 0.0104276575 -0.016402619
000370 d4 5c e0 3d d8 ba f0 bd 03 f5 ac 3d da 59 ed bd
       0.109552056 -0.117543876 0.0844517 -0.115894035
000380 38 c2 d4 3c 5f c7 1a bd 70 8f 9e bd a1 aa ff bc
       0.025971517 -0.03778779 -0.07742202 -0.031209292
000390 ad ee de 3d 49 3d b4 bb 18 c6 87 3d 42 e7 63 3c
       0.108853675 -0.00550047 0.0662958 0.013910117
0003a0 fe 21 54 3b db b4 27 bd 74 b4 dd 3c a9 27 2c 3d
       0.0032368894 -0.04094396 0.027063586 0.04203001
0003b0 cf da 83 3c 44 6f 5c bd 6a 5c 40 3d 3b f3 2b bd
       0.016095547 -0.05381705 0.046963133 -0.04198001
0003c0 71 26 a1 bd 13 30 e1 bd c9 ae b0 bd 6c 5e a4 3d
       -0.0786866 -0.109954976 -0.086270876 0.08025822
0003d0 ed 83 be bd 8c f4 04 bd 55 77 ec bd 8e 34 9b bd
       -0.093025066 -0.03245978 -0.11546198 -0.075783834
0003e0 c7 41 63 3c cf 12 e1 3d 12 9e 86 bd 70 ec d2 3d
       0.013870663 0.109899156 -0.06573118 0.10299003
0003f0 7c 0e 89 bd 06 96 57 bd 4a e5 88 3c c2 cd fa 3c
       -0.06692216 -0.052633308 0.016710896 0.030615691

conv.3.bias f4 [16]
000000 4c f9 d3 3d 5a 8c 12 3d e7 39 59 3d 8b 88 11 bc
       0.10350284 0.03577838 0.053033736 -0.008882652
000010 ec 8c e3 3d d8 9d 42 bc 02 77 e0 bd d8 9b f1 3d
       0.11110863 -0.011878453 -0.10960199 0.11797303
000020 1c 42 1f bd 65 cc de 3d e8 dd ae 3d 34 fb b5 3d
       -0.038881406 0.10878829 0.08538419 0.08885804
000030 4d 6d 61 bd 73 fc 69 bd f9 63 77 bd f0 41 c1 3d
       -0.055035878 -0.05712552 -0.060398076 0.09436405

gru.weight_ih_l0 f4 [192, 16]
000000 3f 2d a3 3d 16 d0 a0 bd b3 f5 63 bd 09 fe 9d bd
       0.079676144 -0.07852189 -0.05565424 -0.07714469
000010 ec c8 98 3c 3c 88 c9 3d 35 1e e0 3c 20 11 81 bd
       0.018650495 0.09840438 0.027358154 -0.063020945
000020 7a e9 ae 3d 22 d9 eb bd 06 20 38 bd fe c4 51 bd
       0.08540626 -0.11516024 -0.044952415 -0.051213257
000030 b8 45 f5 3d 03 f6 e8 3d 57 7c 7f bb b3 5a 95 bd
       0.119761884 0.11375048 -0.0038984024 -0.0729269
000040 ba 14 a9 bd 97 22 68 bd 75 4a d0 bd 0b 9b e7 bd
       -0.082559064 -0.056673612 -0.101704516 -0.11308869
000050 23 ff cc bd ef 7a f3 3d fb 77 9c bd 96 d6 a7 3d
       -0.10009601 0.11888682 -0.07640072 0.08195226
000060 4c 4b 5e 3d 66 88 a4 3b 47 0e 0a bd 7a 9f a5 3d
       0.054271027 0.005021143 -0.033705022 0.08087058
000070 2e e9 f1 3b 17 2d 55 bd 76 5b e9 bd b5 df 0c bd
       0.0073825335 -0.052044954 -0.11394398 -0.03439303
000080 80 af a4 bc 18 54 3b bd 72 36 11 3d f4 9d 37 bd
       -0.020103216 -0.045734495 0.035452314 -0.04482837
000090 d7 c5 5b bd 50 b2 9e bd 39 e3 b8 3d 4c 8d a0 3d
       -0.05365547 -0.07748854 0.09027714 0.0783945
0000a0 a1 64 de bd 26 41 e6 b9 e7 1b 5b bd f6 48 d2 3d
       -0.10859037 -0.00043917558 -0.053493407 0.102678224
0000b0 e9 e4 80 3d 15 21 77 bc 27 06 23 bd ea 06 e7 bd
       0.06293661 -0.015083571 -0.03980079 -0.11280616
0000c0 58 ad 99 bd 71 17 ad 3d 4c a2 53 3d e8 90 93 bd
       -0.07503766 0.08451737 0.05166845 -0.07205373
0000d0 c6 ae bb 3d 90 cb 00 3e d8 0d 4a 3a 28 0e dd 3d
       0.09164195 0.12577653 0.00077077514 0.10793716
0000e0 bc 2f 2d bd 7c 5d 09 3d ce 9a fe bc 22 cf 12 3d
       -0.04228185 0.03353642 -0.031079676 0.03584207
0000f0 da 30 e0 bd c0 db 91 3d 88 98 f6 bd 22 7c e2 bd
       -0.10946818 0.07121992 -0.12040812 -0.11058833
000100 6e 75 f2 bd 47 ff 15 bd de 57 3e 3d e2 0d ba 3c
       -0.11838804 -0.036620405 0.046470515 0.022711698
000110 3c 29 6c bd b4 02 d2 bd 04 ce 9f 3d da cd a1 3d
       -0.05765651 -0.10254422 0.07802966 0.07900591
000120 77 41 ca bd a4 64 e7 bd 83 7d 32 3c 78 0f 8f 3d
       -0.09875768 -0.112984926 0.010894182 0.06985372
000130 dd 56 1d 3b f9 53 96 bd 6e 3f 51 bc b2 56 ce bc
       0.0024008073 -0.07340235 -0.0127714705 -0.025187824
000140 2b 1d 5a bd 28 c2 15 3d 36 3b d2 3b ec b0 94 bd
       -0.053250473 0.036562115 0.00641575 -0.07260308
000150 a6 bb d0 3d 0c c6 a1 3c a7 22 e8 3d 70 a6 96 bd
       0.10192041 0.019747756 0.113347344 -0.07355964
000160 4b c6 03 bd 4b 4e 12 bd f3 95 ae bb 7e 39 40 bd
       -0.03217153 -0.035719197 -0.005327934 -0.04692983
000170 28 40 e2 3d 80 5d a7 bd e7 16 06 bd 73 16 ad bd
       0.11047393 -0.081721306 -0.032736685 -0.084515475
000180 2e 3f aa 3d 8f 14 bc 3d 61 e7 e4 bd 44 45 68 3a
       0.08312832 0.09183609 -0.111769445 0.0008860419
000190 e7 68 8e bd 6d 6a 12 bd cd 8a 94 3d 15 7f fd bd
       -0.06953602 -0.035746027 0.07253037 -0.123777546
0001a0 08 46 e5 3d 2b 42 36 3d 54 8e 43 bc af f8 bb 3d
       0.11194998 0.044496696 -0.011935789 0.09178292
0001b0 11 f0 c0 3d 5a 8d 19 3d 94 f9 a7 3b 42 51 b9 3c
       0.09420789 0.03748832 0.0051261876 0.022621755
0001c0 24 e9 19 bb bf 88 90 3d 9d b0 93 bc fa 64 f9 bd
       -0.002348491 0.07057332 -0.018028552 -0.12177463
0001d0 8f ed d2 3d e9 aa 90 3d df 88 8b 3d a8 cc b3 3d
       0.10299217 0.070638485 0.068132155 0.087792695
0001e0 e4 cf ee bd 9b 60 45 3d cd a0 1b bd 2b f3 11 bd
       -0.11660746 0.048187833 -0.03799515 -0.035632294
0001f0 66 3d f3 bd 74 d5 c4 3d 7e 88 8e 3d a3 cb 65 bd
       -0.11876945 0.096110255 0.069596276 -0.056102406
000200 9a b1 c2 bc a8 1a 80 bd 84 fe 2e 3d 60 0b 1f 3d
       -0.023766328 -0.06255084 0.042723194 0.038829207
000210 8b 17 85 3d a5 0e ad bd ab 46 c2 bc ec 97 48 bd
       0.06498631 -0.08450059 -0.023715338 -0.04897301
000220 8d 5b f5 3d 8b 7c 2a bd 4d 5e a3 bd 98 ec d6 bc
       0.119803526 -0.04162268 -0.07976971 -0.026235864
000230 d5 d7 ab bd 50 23 22 bb b8 b3 f6 3d e4 03 73 3d
       -0.08390776 -0.0024740286 0.120459974 0.059329882
000240 1d 49 12 bd 3a 91 9e bd 2b df f6 3d ae 82 9b bb
       -0.035714258 -0.077425435 0.12054285 -0.004745803
000250 a4 b2 f1 3d 14 a7 5b bd 9a 19 c4 bd 10 00 b1 3d
       0.11801651 -0.053626135 -0.095751956 0.0864259
000260 29 a4 ab 3c c2 47 af bc ce a5 a4 3d bc ad bb 3a
       0.020952301 -0.021396521 0.08039437 0.0014318745
000270 c1 fe 10 3d 3a d0 d2 bc 8b f9 ef 3d 6c 86 6e bd
       0.035399202 -0.025734056 0.117175184 -0.058233663
000280 4c f1 d7 bd 86 14 07 3d 46 a6 d2 bd c1 3c b2 3d
       -0.105440706 0.032978557 -0.102856204 0.08702994
000290 ea 2c a9 3d 55 2c ad bd 96 a8 59 3d cd 83 84 bd
       0.0826052 -0.08455721 0.05313929 -0.064704515
0002a0 14 26 95 3c fb f4 b8 bb 21 5b b4 bd 09 dc 97 3d
       0.018206634 -0.0056444383 -0.08806444 0.07415015
0002b0 d3 97 a1 bc 70 07 c1 bd 9b fb e1 3d ac ca 35 bd
       -0.019725716 -0.09425247 0.11034318 -0.044382736
0002c0 2e bd e8 3c 75 79 fe 3c 1d 97 fb 3d 11 d8 d1 3d
       0.02841052 0.031063775 0.12284682 0.102462895
0002d0 db 1b 41 bd 3c 55 f2 bd 32 01 e0 bc b4 0c 12 bc
       -0.047145706 -0.118326634 -0.02734432 -0.0089141615
0002e0 b3 25 c7 bd d3 31 e8 bd 1d 14 18 bd 48 4c 5f bd
       -0.097239874 -0.11337628 -0.037128557 -0.054516107
0002f0 fa 5f 31 bd aa ca a5 bd e5 28 49 bd d0 96 58 bd
       -0.04330442 -0.08095296 -0.049111266 -0.0528782
000300 0b 5b 73 bd 62 4c ed bd 4a 3c e8 bd bb 87 2f 3d
       -0.059412997 -0.115868345 -0.11339624 0.042854052
000310 91 47 92 bd 98 3b be 3d bb 43 03 bd 14 c3 b9 bd
       -0.071425565 0.0928871 -0.032047015 -0.09070411
000320 51 ee f6 3d 7b 69 34 3d 55 9a f2 ba 11 2a e3 3d
       0.12057174 0.044045907 -0.0018509129 0.11092008
000330 cb 84 38 3d d7 6e 5e 3d 41 2f b1 bc 1b 1d aa bc
       0.045048516 0.054304924 -0.021628978 -0.020765832
000340 a6 54 00 bc 6f b7 97 3d a4 84 61 3d 7d e1 b6 bd
       -0.007832682 0.07408034 0.055058137 -0.08929727
000350 e6 ee 8e bd 4e ec 87 3c 28 4e a7 3d db 92 81 3c
       -0.0697916 0.016592171 0.08169204 0.015817096
000360 88 8c f3 bd 4b ad 9a 3d ac e9 53 bd 23 81 ab 3d
       -0.118920386 0.07552584 -0.05173652 0.0837424
000370 e9 d6 19 bc 49 5f d3 bd 64 7d f9 bd e5 a3 8c 3d
       -0.0093896175 -0.103209086 -0.121821195 0.06867198
000380 82 78 e5 3c 18 a8 b8 3d ce eb 01 be ff 14 36 3d
       0.028011564 0.09016436 -0.12687609 0.044453617
000390 dd 7d 66 3c 4f a6 ab bd 23 d4 a1 3d 7b 63 b4 3d
       0.014068094 -0.0838133 0.0790179 0.08808037
0003a0 9c a0 81 3d a0 ae 2e bd 3b eb 96 39 d7 af 5f bd
       0.06329462 -0.042647004 0.0002878549 -0.054611053
0003b0 d5 0c 8b bd ea 2f 8a 3c a3 79 12 3a 19 1e 01 be
       -0.06789557 0.01686855 0.00055875833 -0.12609138
0003c0 1d 00 1d 3d a3 4f 9c bb 31 79 f3 3b d9 b4 56 bd
       0.038330186 -0.0047702356 0.0074302186 -0.052418564
0003d0 9f a0 08 bd 08 d0 c4 bd 06 e0 68 3c 70 a8 15 3b
       -0.033356305 -0.09609991 0.014213568 0.0022835992
0003e0 ea 38 3a 3d 22 c6 ec 3c 59 23 1b 3d de b4 d3 bd
       0.045464434 0.02890307 0.037875507 -0.10337232
0003f0 c1 e6 6a 3b e1 62 97 bc d5 3d a2 3d b9 79 da 3d
       0.0035843106 -0.018479766 0.0792195 0.10667748

gru.weight_hh_l0 f4 [192, 64]
000000 f7 9d de bd d8 77 e8 bd d2 73 70 3d e6 3e fa 3d
       -0.10869973 -0.113509834 0.058704205 0.12219028
000010 eb 88 17 3d cf 09 a9 bd 3e c1 f2 bd ca f0 d4 3d
       0.03699581 -0.08253824 -0.11853264 0.10397489
000020 70 8b 5e bd 78 00 bc 3d ad 1f 1b 3c d0 a9 57 3c
       -0.054332197 0.09179777 0.009468001 0.013163045
000030 cf e0 e7 bb f1 0b 0c bd ee bc d6 bd cd 3a 67 bd
       -0.00707636 -0.034191076 -0.10485254 -0.05645256
000040 64 7f 8e 3d 1c e6 88 bc 73 2c 9f 3d 76 57 b4 3c
       0.069578916 -0.016711287 0.0777215 0.02201436
000050 9f 33 a2 bd af bc df 3d dd 64 1c bd 4b bf da 3d
       -0.07920002 0.109246604 -0.03818213 0.106810175
000060 d4 46 84 bd a6 d6 48 3d 23 d0 3f 3b 8a d4 b2 bc
       -0.06458822 0.04903283 0.0029268346 -0.021829862
000070 e5 f5 57 bd 42 e6 89 3c a9 d9 2c 3d 63 33 0d 3c
       -0.052724738 0.016833428 0.042199764 0.008618209
000080 0e c0 e1 3c b7 ef b6 bd 98 ba 7b bd 86 d5 4c 3d
       0.0275574 -0.08932441 -0.061457247 0.05000832
000090 31 78 6c bd 47 ab 9a 3d 86 4c 6c bd 48 90 c0 bd
       -0.05773181 0.075522 -0.057690166 -0.094025195
0000a0 97 91 df 3d 44 db e5 3c 5c ae a5 bd 60 03 e8 3d
       0.10916441 0.028058656 -0.08089897 0.11328769
0000b0 ec db 8f bd f3 0d 6d 3c 4c 17 c8 3d 77 ca d8 bd
       -0.07024369 0.014468658 0.097700685 -0.10585492
0000c0 77 b5 8a 3d f7 09 d7 3d 36 8e ec bb fb 41 82 3c
       0.06772893 0.104999475 -0.0072191013 0.015900603
0000d0 ff 41 85 bd 2e 78 9d bd 10 ed 84 bd d3 a1 a5 3d
       -0.065067284 -0.07688938 -0.064905286 0.08087506
0000e0 ca 75 ef bd 0a b3 f7 bd e2 5c da bd de 0c 9d bd
       -0.11692388 -0.12094696 -0.10662247 -0.0766847
0000f0 42 25 e4 3d 12 d1 82 3a f6 d5 9a bc 92 07 ee bd
       0.11139919 0.0009980521 -0.018900853 -0.11622538
000100 cd 7d bd bd ed da 92 3d a2 3d 6a bc d5 55 a0 3d
       -0.0925251 0.07170663 -0.014296921 0.07828871
000110 14 db 70 bd 9c f6 b6 b9 cd 27 b8 bd 87 7a 51 bd
       -0.05880268 -0.00034897483 -0.089919664 -0.05114224
000120 5e a7 2d bb d5 84 af bd 3c 60 d9 3d 8e 73 83 bd
       -0.0026497464 -0.085702576 0.106140584 -0.06418525
000130 54 ae c7 3d 4b 52 b8 bd a8 d9 80 3d bf fa 09 3d
       0.09750047 -0.09000071 0.06291515 0.033686396
000140 e9 08 03 3d 46 68 39 3d 59 07 dd bd 46 14 c9 bb
       0.03199092 0.04526546 -0.10792417 -0.00613645
000150 30 65 f9 bc 85 f2 b9 3c 47 a8 94 3d e1 3b 3a bc
       -0.030443758 0.02269865 0.07258659 -0.011366815
000160 a0 cd bb bd ec 52 ad 3c c6 8e c6 bd 48 c3 af bb
       -0.09170079 0.021157704 -0.096952006 -0.0053638555
000170 7a e8 6b bd dd c5 b4 3c 42 b2 04 bd 1f 80 88 3b
       -0.057594754 0.022067005 -0.032396562 0.004165664
000180 27 8a 26 3d b0 5c a8 3d e5 09 9c 3c 5b 25 21 bd
       0.040659096 0.08220804 0.019047687 -0.039342266
000190 8b 65 d5 bd e6 ce eb 3d cd 76 7d 3d af b2 b2 bd
       -0.104197584 0.11514072 0.061880875 -0.087254874
0001a0 fd bd d7 bd d3 c0 bd 3d c2 cf f5 bd c9 be 57 bd
       -0.10534284 0.09265294 -0.12002517 -0.05267218
0001b0 b8 26 d5 3d 06 c8 57 bd ff 98 b1 3d 30 5f b8 3c
       0.10407776 -0.05268099 0.0867176 0.022506326
0001c0 fd af f5 3d c5 c3 a7 bc 68 76 74 bd 55 2c 5b 3d
       0.11996458 -0.020479092 -0.059683233 0.053509075
0001d0 0a f6 13 bc d3 a0 ae 3c e9 9d 4b bd 18 45 b9 3c
       -0.009030828 0.021316921 -0.04971114 0.022615954
0001e0 fe 1c 9a 3d 3a df ca bc 14 bb 8a 3d 81 9b d3 bd
       0.07525061 -0.024764646 0.067739636 -0.103323944
0001f0 2e ad cb 39 af b0 92 bc da 4a 7f 3d c1 34 a2 3c
       0.00038848206 -0.017906515 0.062327243 0.019800546
000200 e6 75 0e bc 6c 12 e6 bd 38 6b d6 bc 4c a1 af bd
       -0.008695101 -0.112339824 -0.026174173 -0.08575687
000210 32 8b e2 3d 1f 22 0c 3c 24 d1 21 3c 70 84 56 3d
       0.11061706 0.008553057 0.009876523 0.052372396
000220 5c 50 69 bd 0b 9d b6 bd 30 04 80 bd 9f 68 c0 3d
       -0.056961402 -0.08916672 -0.06250799 0.09394955
000230 ff ac a1 bd 2a 64 25 bd 7a 41 bc bd 4d cb fa bb
       -0.078943245 -0.040378727 -0.09192176 -0.00765363
000240 7c 00 ca bd 4b dc ef 3d 63 f9 e0 bd 71 56 29 3d
       -0.09863374 0.117119394 -0.10985067 0.041342203
000250 82 c7 91 3d 26 5a 8c 3d 31 da e4 bd 26 68 65 bd
       0.07118131 0.06853132 -0.11174429 -0.056007527
000260 15 84 c8 3d 39 b4 9d 3d 37 c4 ad 3d 5a 4c 05 bd
       0.09790818 0.0770039 0.08484691 -0.032543518
000270 01 fc ed bd 95 e8 27 3d e0 b6 3a bd c3 ef b7 bd
       -0.116203316 0.040993292 -0.04558456 -0.08981278
000280 ed dd 9b bc 66 d9 c0 3c 3d 44 98 b9 3a bd 4b 3b
       -0.01902672 0.023541164 -0.0002904254 0.003108813
000290 c5 97 e2 3d 22 bc 62 bd b3 1e da bd 9d fa 94 bc
       0.11064104 -0.0553552 -0.10650387 -0.018185908
0002a0 15 2b 1e 3d 1e ba 8e bd bc c0 f9 3d 30 06 b3 3c
       0.038615305 -0.06969093 0.12194964 0.021853536
0002b0 da 00 87 3d 9c e4 eb bc b3 23 26 bd 69 e7 f9 3d
       0.06591959 -0.028795533 -0.04056139 0.12202341
0002c0 34 af 8b 3d 7b a3 5c 3c b6 a3 18 bc e4 bd e5 3d
       0.06820527 0.013466711 -0.0093163755 0.112178594
0002d0 d7 e5 b2 bd bb 5f d6 3d 93 2d 53 3d 6e 60 a8 bd
       -0.08735245 0.10467478 0.051557135 -0.082215175
0002e0 47 d8 4e bd 66 e8 e8 3b e4 d4 75 3d 77 0d 3d 3d
       -0.050499227 0.007107782 0.06001748 0.04615542
0002f0 80 47 a9 bc 43 bf 6a bc 0f 9f 5c 3d 2a 5f da 3b
       -0.020663977 -0.014327827 0.053862628 0.0066641765
000300 6f 1b 28 3d 11 f0 71 bd 61 40 bc 3d 4a 4c 8e bc
       0.041041788 -0.059066836 0.09191967 -0.017370362
000310 5c aa e6 3d 53 6c aa bd f5 39 99 3b 26 d3 73 bd
       0.11262962 -0.083214425 0.0046760985 -0.05952754
000320 16 b0 fb bd d8 e2 ba 3d 3c a2 3f bc 7f 0d 79 3d
       -0.12289445 0.09125298 -0.0116963945 0.060803887
000330 26 60 4c 3c cf d0 c5 ba f1 bb 9f bd 24 a6 ec 3d
       0.012474095 -0.0015092137 -0.07799519 0.11555126
000340 c0 2e 4f bd 7a f9 d0 bc fb 63 95 3d 82 cb 0a bd
       -0.050581694 -0.025509585 0.072944604 -0.033885486
000350 5a 5d 41 3d c5 ae 8b bd 43 70 8c bd 16 7b f3 3b
       0.047208168 -0.06820444 -0.0685735 0.0074304445
000360 8b 7c e5 bd 58 52 50 bd e2 84 c7 3d a2 e4 72 3d
       -0.11205395 -0.05085978 0.09742142 0.059300072
000370 e5 27 fc bd 12 5d 33 bd 27 b7 f4 bd f7 2b 8c 3d
       -0.12312297 -0.04378993 -0.11948996 0.06844323
000380 4c bb 09 3d 8c e7 b9 3d 6a 09 a0 3d 8e f9 82 bc
       0.033625886 0.09077367 0.078142956 -0.015988138
000390 42 bc 1c 3c 91 26 f5 3c f6 ee 9b 3d 5e 94 a8 bc
       0.009566369 0.029925616 0.076139376 -0.02057856
0003a0 94 29 f2 bd b9 db 15 3c 77 69 c8 bd 8e 60 0b 3d
       -0.11824337 0.009146624 -0.09785741 0.03402763
0003b0 dd 2d d4 bd 0d 6c db bd 34 c8 e9 bd 7b 4c 33 bb
       -0.1036031 -0.107139684 -0.11415139 -0.0027358818
0003c0 4c 30 f4 3d ba 7e cc bd 85 59 6e 3c 04 0a dc 3c
       0.119232744 -0.09985109 0.01454771 0.026860245
0003d0 0e f0 e2 3b 2e e1 00 3d 9f 38 9d bd 1a 0e 7c bd
       0.0069255894 0.031464748 -0.07676815 -0.061536886
0003e0 f5 f4 a3 bd b4 89 e0 3d 19 0b d9 bc 56 21 57 3d
       -0.08005706 0.10963765 -0.02649455 0.052522026
0003f0 67 8d fa 3b 87 68 22 3d 67 a8 3f 3d 9c fc 88 3d
       0.007646251 0.039650466 0.04679146 0.066888064

gru.bias_ih_l0 f4 [192]
000000 bc 58 dd bc 5d 98 86 3d 27 c0 c9 bc d4 87 48 3c
       -0.02701985 0.0657203 -0.024627758 0.012239415
000010 0f 51 90 3c 96 e2 0a bd 01 c4 0a bd 12 90 23 bc
       0.017616777 -0.033907495 -0.03387833 -0.0099830795
000020 2d 3b f3 3d cd cd 2c bc 98 2c bd 3c 98 10 10 ba
       0.11876521 -0.010547114 0.023092553 -0.0005495637
000030 19 dc eb 3d 8d 58 27 bd 44 08 31 3d 4a 65 cc 3d
       0.1151659 -0.040855933 0.043220773 0.09980257
000040 a0 08 8c bc 72 88 ee bd 35 65 3f bd e0 09 4c 3d
       -0.017093956 -0.11647119 -0.046727378 0.049814105
000050 66 f1 b0 3d 08 3d 61 bd 73 db cc 3d 68 43 f2 3d
       0.08639793 -0.054989845 0.10002794 0.11829263
000060 18 a7 94 bc 3c 5c d8 3d e3 ab 8c bd 41 0b d2 3d
       -0.018146083 0.10564467 -0.06868722 0.10256053
000070 c8 4f 50 3d 0f 3e 99 bc 55 e9 d3 bc 3c 0a ab 3d
       0.050857335 -0.01870635 -0.025868097 0.083515614
000080 51 9d ed bd 93 72 a2 3b 0d c0 ce bc 50 7d 34 3d
       -0.11602271 0.004957506 -0.025238061 0.04406482
000090 32 9b 62 3d 7e a1 5d bc c5 cc a8 3d bb 52 88 bc
       0.055323787 -0.013527272 0.08242182 -0.016641011
0000a0 21 d5 13 3d a2 88 a5 3d 38 82 c0 3c 59 5a 30 3b
       0.036091927 0.08082701 0.023499593 0.002690932
0000b0 80 ec 11 bd 32 8f 95 bd 0d cf 2c 3c 53 8c 37 bd
       -0.035625935 -0.07302703 0.010547412 -0.044811558
0000c0 70 32 03 3c d6 51 0d bc 3b 8d c5 3c ae 4a f8 3c
       0.008007631 -0.008625468 0.024115195 0.030309048
0000d0 28 4e f6 3c b6 5a 78 3c 2c 1f 26 bd 1c db 33 bd
       0.030066565 0.015158346 -0.04055707 -0.04391013
0000e0 68 c7 7e bd 35 ae 2c 3d 13 16 b5 bd ba f8 11 3c
       -0.062201887 0.042158324 -0.08842101 0.008909399
0000f0 99 44 3d bd 08 e0 93 3d 7c c3 c9 3d f2 78 c5 bd
       -0.046207998 0.07220465 0.09851739 -0.09642209
000100 14 53 f9 3d 5e e5 e0 3d 41 c8 86 3d b7 18 28 bd
       0.12174049 0.10981248 0.06581164 -0.041039195
000110 8a 6f ac 3d 86 ce fa 3d a4 f6 5a 3d 71 32 d3 bd
       0.08419712 0.122464225 0.05345787 -0.10312355
000120 6a d6 30 bd 2a aa e1 3d df 3f 23 3d f2 62 e1 3d
       -0.04317323 0.11018784 0.039855834 0.110052004
000130 80 21 31 bd c3 5e 38 bd 66 88 88 bd 2f 10 10 bd
       -0.04324484 -0.045012247 -0.06666641 -0.035171684
000140 dd e8 8f 3d 2f 23 95 bd 8d bf e0 bd f5 30 79 3b
       0.07026837 -0.07282101 -0.109740354 0.0038023565
000150 2d 95 8f 3d 34 72 96 3d 8a 57 8d bd f4 2d e9 3d
       0.07010875 0.07346001 -0.069014624 0.11385718
000160 25 6f cb bd ad c1 43 bd 47 e3 b8 3d 31 0d 0f 3d
       -0.099333085 -0.047792125 0.09027725 0.03492469
000170 aa b3 88 3c 3d 10 dd 3d 60 9a 5c bd e5 35 3d 3a
       0.016687233 0.10794113 -0.05385816 0.0007217809
000180 5a 7b 78 3b c7 78 da 3d 73 8f b9 bd 76 4f 34 bd
       0.003791532 0.10667568 -0.09060564 -0.044021092
000190 e5 a3 db 3d 39 50 d8 bc 58 00 d6 3d d6 83 ef bd
       0.1072462 -0.02640544 0.10449284 -0.116950676
0001a0 a0 b1 f6 bd 8f 6c f4 3c 8f af f5 bd 5e c1 2c bd
       -0.12045598 0.029836921 -0.11996376 -0.042176597
0001b0 e9 39 d5 3c 35 6a 48 3d 28 3e c4 3c 21 30 de bd
       0.02602859 0.048929412 0.02395542 -0.108490236
0001c0 55 21 ee bc 7f 49 ef 3d 70 47 e3 bd 68 d6 08 3b
       -0.029068628 0.1168394 -0.1109761 0.002087975
0001d0 ee 40 a4 3c 53 03 a3 bd 18 ac f6 3a 87 18 90 bd
       0.020050492 -0.079596184 0.0018819598 -0.07035928
0001e0 f1 aa 45 bc 19 bb 2a 3d 2c f3 83 bd 56 05 eb 3d
       -0.012064681 0.041682336 -0.06442866 0.11475627
0001f0 d3 c5 f8 bd 93 ca b3 bd 86 31 d8 bd ca 35 9a 3d
       -0.12147107 -0.08778872 -0.10556321 0.07529791
000200 0e a2 6e 3c 04 14 c8 bb 23 b6 dc bd 69 75 ef bc
       0.014565004 -0.0061059017 -0.10776927 -0.02923079
000210 4b 91 d2 3d 2d e1 03 3d 80 03 c8 3c 28 c3 94 bd
       0.10281619 0.032197166 0.024415731 -0.072637856
000220 7f fb 00 be 38 82 c3 3d b5 25 df 3c 49 96 9b bd
       -0.12595938 0.09546322 0.02723966 -0.07597024
000230 ff 9a ec bd c0 d8 8a bc 33 04 d7 3c 80 64 f9 bd
       -0.11553001 -0.016949058 0.02624712 -0.12177372
000240 f7 59 57 3d 20 8f a0 bd ed 7d 00 be 40 e1 56 bd
       0.05257603 -0.07839799 -0.12548037 -0.05246091
000250 94 34 c5 3d ae 33 32 bd 3a 62 51 bc 24 72 f8 bd
       0.09629169 -0.043506317 -0.012779767 -0.121311456
000260 fa c6 bc 3d 77 49 f4 3c 38 8e 0f bd c0 2c f9 bd
       0.09217639 0.029820187 -0.03504774 -0.121667385
000270 e3 bd dc 3b e3 c8 71 3d 7b 58 14 3c e1 1f 5b 3d
       0.0067365034 0.05902947 0.0090542985 0.0534972
000280 a7 74 96 bd c6 fa a6 3d f5 f8 29 bd 0b d9 9d bc
       -0.073464684 0.081533 -0.04149719 -0.019268533
000290 d4 4e 00 3e 5d ea c9 bc 1f 65 7c bc 6b 26 df 3d
       0.1253007 -0.024647886 -0.0154049685 0.108959995
0002a0 94 34 c7 bc 9b 2d e0 3d 25 76 d0 3d ad 0a a4 bd
       -0.024317063 0.109461986 0.10178784 -0.08009849
0002b0 6b 80 fc bd 5f 1d c2 bc 34 d3 f1 bd 9c 13 0f 3d
       -0.12329181 -0.023695646 -0.11807862 0.03493081
0002c0 43 c0 05 bd 2e 7c 14 3d 8e 71 ae 3c 22 f6 92 bc
       -0.03265406 0.03625124 0.021294381 -0.01793963
0002d0 e1 ad b2 b8 02 70 36 3d cc db b5 3c d2 b1 d9 3d
       -8.520089e-05 0.044540413 0.022199534 0.1062962
0002e0 e1 4d 5f 3c f5 f9 6d 3d 90 d5 db 3d e1 50 c5 bd
       0.013629408 0.058099706 0.10734093 -0.09634567
0002f0 86 82 b5 3d 60 b5 8e bd 0b 5b f0 3c 45 3c 59 3d
       0.08862786 -0.06968188 0.029340288 0.053035993

gru.bias_hh_l0 f4 [192]
000000 35 6d d4 3d a1 76 84 3d a2 50 b2 3d ac 13 35 bd
       0.10372392 0.06467939 0.08706786 -0.044208214
000010 41 31 88 bd a3 4d 99 bd fd 76 c3 3d 59 9f 66 3d
       -0.066500194 -0.07485511 0.095441796 0.05630431
000020 ad fc 8f bd 29 79 66 3d 8f 1c 3c bd 7f d8 e8 bd
       -0.07030616 0.05626789 -0.045925673 -0.11369418
000030 93 b3 95 bd b2 60 2a 3a 45 8c 51 3c a4 5d af 3d
       -0.07309642 0.0006499394 0.0127897905 0.085627824
000040 98 2d c6 bd 2a 0c f0 bd 6c 45 e6 bc 16 0d b3 bd
       -0.09676665 -0.1172107 -0.028109275 -0.0874273
000050 2c ec 86 3d 94 96 89 bd 84 2b a5 bb aa 09 dc bd
       0.06588015 -0.067181736 -0.005040588 -0.10744031
000060 c3 50 c8 bd c8 09 c6 3d da 51 7e 3d 11 57 1c bd
       -0.09781029 0.096698344 0.06208978 -0.03816897
000070 88 11 c5 3c 41 8e cd 3c c6 3e 3c 3d 44 fc da 3d
       0.024056211 0.025092246 0.045958303 0.10692647
000080 f4 ad ba bb ca c9 88 bd a1 33 66 3d 70 fd ee 3c
       -0.0056970064 -0.06679113 0.05620158 0.029173583
000090 5a fc 60 bd 50 be 61 bd af 64 0d bd 8e 76 c5 bd
       -0.05492816 -0.055113137 -0.034519847 -0.09641753
0000a0 33 e9 db bd c0 63 40 3d 98 b4 a2 3d b5 de 6f 3d
       -0.107378386 0.04697013 0.07944602 0.058562
0000b0 a1 df 61 bc 5a 1e 60 bd 6f 6e 01 3d 85 b1 80 3d
       -0.013786227 -0.054716446 0.03159946 0.06283859
0000c0 30 6f 1d bc e3 f9 a1 bd 13 7b a0 bd 5b 9e 4d bd
       -0.009609029 -0.0790899 -0.078359745 -0.050199848
0000d0 73 41 2f 3d 31 fc f7 bd 03 22 e9 3d 8d fe 1a bc
       0.042787027 -0.121086486 0.1138344 -0.009460104
0000e0 c7 3d c8 3d db 42 3e bd 78 4c 76 bd b5 96 47 bd
       0.09777408 -0.046450477 -0.06013152 -0.04872771
0000f0 ec 6f c1 bb 68 70 ae 3d fa a6 b0 bd 67 da 9d bc
       -0.0059032347 0.085175335 -0.08625598 -0.019269181
000100 1e f5 e7 bd 74 dc 5f bd 95 81 1d 3c 7b 98 61 bd
       -0.11326049 -0.0546536 0.009613414 -0.055077057
000110 3f 02 47 3b a8 8b 05 3d f7 0f 8a 3d ec 83 54 bd
       0.003036633 0.03260389 0.06741326 -0.051883623
000120 bf d2 f3 3d 00 4c d4 bd ad 04 99 3d 57 1b 04 3d
       0.11905431 -0.10366058 0.07471595 0.032252636
000130 cc ff 51 bd b2 76 c5 3c 9a 31 d9 3d d9 e2 8c 3d
       -0.051269338 0.02410445 0.10605164 0.06879205
000140 fb d8 90 bd 57 21 29 3d 07 a7 f7 3d bd ed bf 3d
       -0.07072636 0.04129156 0.12092405 0.09371517
000150 f3 26 bb 3d 7c 11 82 3d 46 ac ee 3d d9 f8 58 3c
       0.09138288 0.06350991 0.11653952 0.013242924
000160 94 2f 95 bc 27 13 b7 3d d2 19 6a bc a9 df ca 3b
       -0.018211164 0.089392 -0.014288383 0.006191213
000170 09 f9 ae 3d 5d 48 e0 bd 41 20 01 3e ba 52 80 bd
       0.085435934 -0.10951302 0.1260996 -0.06265779
000180 82 db 3c bd f7 74 df 3d 83 26 3d 3c 36 1a 39 3d
       -0.046107776 0.10910981 0.011544826 0.045191012
000190 b3 ca e2 bd 4b ef c2 bd 30 4d 7c 3d 6c 9e b7 bd
       -0.11073818 -0.09518298 0.06159705 -0.089657634
0001a0 62 a4 c1 bd d8 7b d5 bd 1d fe 91 bd 0b 37 d7 bb
       -0.09455182 -0.10424012 -0.071285464 -0.006567841
0001b0 7c b0 20 bd ee fb b1 bd 0c 95 ea bd bb a9 18 3d
       -0.03923081 -0.0869063 -0.1145421 0.037271243
0001c0 f6 d3 62 3d cf e5 cf 3d e1 a7 51 3d 76 cf 09 3d
       0.055377923 0.101512544 0.051185492 0.033645116
0001d0 53 0f f4 3d b1 6d 8b bc 86 b9 dd 3d bc 24 25 bd
       0.11916985 -0.017020078 0.108264014 -0.040318236
0001e0 25 72 94 3d af 6c 43 bd 89 20 0c bd 18 8f af bd
       0.07248334 -0.04771107 -0.034210715 -0.08572215
0001f0 93 9c 03 bd 2a 28 5e bd 56 b3 e4 3d 9e cd aa bd
       -0.032131743 -0.054237522 0.11167018 -0.083399996
000200 27 5e 9a 3d 21 1c c0 3d cb 9c d2 3d c5 03 d6 3d
       0.075374894 0.09380365 0.10283812 0.10449938
000210 0a a3 df 3d 73 d3 09 bd 30 85 51 3c 65 6c 43 bd
       0.10919769 -0.03364892 0.012788102 -0.047710795
000220 30 ec a6 bd a4 96 92 3d 07 63 7b bd e8 23 b3 3d
       -0.08150518 0.07157639 -0.061373737 0.08747083
000230 84 35 5d 3c db f5 33 bd bf 21 4d bd 98 78 7f bd
       0.013501529 -0.043935638 -0.05008101 -0.062370867
000240 58 ec 18 bd 3c a3 04 bd 60 09 80 3d 9c 49 15 3d
       -0.03733477 -0.032382235 0.06251788 0.036447152
000250 9b 2d fb bc c7 2a a7 bd 5a c8 00 be 02 60 9a 3b
       -0.030661395 -0.08162456 -0.12576428 0.004711152
000260 34 86 63 bd 69 2b cf bd 13 30 26 bd ab 30 e2 bd
       -0.055547908 -0.10115702 -0.04057319 -0.11044439
000270 7e 5b fe bc 28 bd ce bc 79 4b d9 bd a8 b6 9d 3c
       -0.031049486 -0.025236681 -0.106100984 0.019252136
000280 4d e8 ea bd 3a 06 17 3d b8 c0 4e bd 68 39 d1 3d
       -0.11470089 0.036871172 -0.05047676 0.102160275
000290 2f b8 bb 3d 2a f7 f8 3d ae 43 e7 bb 77 c5 51 3d
       0.091659896 0.12156518 -0.0070576286 0.051213708
0002a0 a2 30 a1 3d d3 58 c3 bc a9 e7 e6 bd 83 cc a2 3c
       0.07870604 -0.023846066 -0.112746544 0.01987291
0002b0 43 ac 60 3d 7d 7c e2 bc bc 0b 8a bd f5 47 c1 bc
       0.05485178 -0.027647251 -0.067405194 -0.023593882
0002c0 14 5b 66 3d 2e f1 db 3d f2 88 14 3d 6d ce 97 bd
       0.056239203 0.10739361 0.036263414 -0.074124195
0002d0 ab 8e dc bd 47 ad c3 bd 18 48 e7 bd fb 01 c7 3d
       -0.10769399 -0.095545344 -0.11293048 0.097171746
0002e0 9f 3a 80 bd 7a e5 a5 3d f3 42 51 bc be ca ec bd
       -0.06261181 0.0810041 -0.01277231 -0.115621075
0002f0 66 99 1a bd 90 07 f3 bc 93 79 8c bd 8d cf d8 3d
       -0.03774395 -0.029666692 -0.06859126 0.10586462

gru.weight_ih_l0_reverse f4 [192, 16]
000000 d3 ae 42 bc 92 6e 42 3d b2 d2 e9 bd 09 68 44 3b
       -0.011882502 0.04746873 -0.1141714 0.0029969236
000010 d9 86 9f 3d 70 de 5d 3d 88 46 e3 bc 40 e5 f3 bd
       0.07789392 0.05416721 -0.027743593 -0.1190896
000020 9f 15 de bd 38 4f d5 3d 9e c3 87 bd 81 5b e4 3d
       -0.10843968 0.104155004 -0.06629108 0.111502655
000030 64 e6 b9 bc d5 a2 fb 3c 6b 1a 96 3d 4d 16 eb bd
       -0.022692867 0.030717293 0.073292576 -0.11478863
000040 2d 1a 5b 3d 61 78 7e 3c ef fd ba bd d3 7a a7 bd
       0.05349176 0.01553163 -0.09130465 -0.08177724
000050 68 b0 cf bd cc b3 75 bd d2 42 34 bb 89 c7 56 3d
       -0.10141069 -0.05998592 -0.0027505648 0.052436385
000060 39 4d f5 3c fd 67 02 bc df 6c 12 3d 0e 9e c6 3d
       0.02994405 -0.007959363 0.03574836 0.09698115
000070 ea 32 e2 bd db 3f 3d bd 88 82 28 bc 72 da c9 3c
       -0.11044867 -0.046203475 -0.010285027 0.024640296
000080 74 af 83 bd 80 e3 e3 3d 8f 72 be bd 3b 65 d7 bd
       -0.064299494 0.111273766 -0.09299194 -0.10517355
000090 f7 9e b9 bc 36 07 ed bd d3 b1 85 bd 34 25 0a 3d
       -0.022658808 -0.11573641 -0.06528058 0.033726886
0000a0 7e b0 e3 bd 49 99 d2 bc 78 b1 7a 3d 92 14 e1 bd
       -0.111176476 -0.025707858 0.061204404 -0.109902516
0000b0 bf a9 2e bd 1c b0 e5 bc cb 92 87 3d ff c3 99 3d
       -0.04264235 -0.028038077 0.066197954 0.075080864
0000c0 45 02 86 3d 47 ae 89 bd 20 64 de bd 71 3f ce bc
       0.06543402 -0.06722694 -0.10858941 -0.025176736
0000d0 16 c1 83 3d 8c e2 17 3d 2b 7a 77 bb 72 3e 36 bd
       0.064333126 0.037081286 -0.0037762027 -0.044493146
0000e0 30 94 ea 3d 0e 0b 54 3d fa 88 e1 bd 1e 67 90 3d
       0.11454046 0.051768355 -0.11012454 0.07050918
0000f0 4b ab 3e bc cb fc a1 bd 01 1c 79 bd 5f f6 47 3c
       -0.011637519 -0.079095446 -0.060817722 0.012204736
000100 33 99 0e bc f8 ff e0 3d 1d 69 db 3d 73 c5 df 3d
       -0.008703518 0.10986322 0.10713408 0.10926332
000110 53 52 51 bd ec 15 44 bd ff 7c 00 bd 5c 53 82 3d
       -0.0511039 -0.04787247 -0.031369206 0.06363556
000120 8c 45 6a bd 5f 08 0b 3c 42 ff 8f 3b 1f 21 ed bd
       -0.05719523 0.008485883 0.004394443 -0.11578583
000130 1b bb ab ba f4 60 b7 bc 18 04 39 bd eb 1e ed bb
       -0.0013102026 -0.022385098 -0.04516992 -0.0072363517
000140 3b 05 dc bc c2 31 ef bc 17 a6 d0 3d ac 98 8e bd
       -0.026857963 -0.029198531 0.10187929 -0.069627136
000150 8c 4a ec 3c 70 9d 5f 3c bd ec 8d 3c 1a 5b d1 bd
       0.02884414 0.013648376 0.0173248 -0.10222454
000160 0b 54 9f bd f8 a8 46 3d fd d5 e2 3d 88 64 1a bd
       -0.07779702 0.048500985 0.11075971 -0.03769353
000170 64 09 b2 bd ab 5d 04 bd 3e 59 26 3d c8 ed 50 bd
       -0.08693197 -0.03231589 0.04061245 -0.051008016
000180 fb 59 f8 bc 55 1b a1 bd ec 22 e4 bd d2 bb a2 bd
       -0.030316344 -0.07866541 -0.11139473 -0.0794598
000190 5c 41 fa 3d e0 cf ce 3d 74 c1 e8 bc d4 e5 ea 3c
       0.122194976 0.10098243 -0.028412558 0.028674044
0001a0 ee 1c dc 3d 83 1e 9c bd 67 56 b2 bd 56 4e 37 3b
       0.107477054 -0.07623007 -0.08707886 0.0027970276
0001b0 92 33 f1 bc 7d fb b5 3d e4 95 8e bd c8 2f d0 3d
       -0.029443536 0.08885858 -0.06962183 0.101653636
0001c0 5d 5a 71 3d 95 cb 8a 3d 29 0b 94 bd da f9 dd bc
       0.058924068 0.067771114 -0.07228691 -0.027096678
0001d0 08 81 a3 3c 70 51 20 3d 69 6d 9a 3d 04 68 20 3d
       0.019958988 0.039140165 0.075403996 0.039161697
0001e0 6f 1b a2 3d ad 47 a7 bb 64 73 61 3d 5f 5e dc bd
       0.07915389 -0.00510498 0.055041686 -0.10760187
0001f0 6a 5b d3 bb 9b fb 94 3d 9b 69 9d 3d e1 d8 d2 3d
       -0.0064501064 0.072745524 0.07686158 0.102952726
000200 b0 76 df bd d6 f3 a5 bd 25 0f 29 3d 71 14 2e bc
       -0.1091131 -0.08103149 0.04127421 -0.010624991
000210 a8 7f 7b 3d 5a 9c f6 bd 96 d1 e5 bd 8b 88 85 3d
       0.06140104 -0.120415404 -0.11221616 0.06520184
000220 01 1b 13 3d b3 d6 56 bd b3 df e0 3d 51 60 e9 3d
       0.035914425 -0.052450847 0.10980167 0.11395324
000230 41 34 b4 ba 78 2b fa 3c 79 37 47 bd 48 a0 90 3a
       -0.0013748483 0.030538306 -0.048636887 0.0011034096
000240 65 91 cd bd f1 14 f3 bd c9 71 c1 3c 90 e7 a0 bd
       -0.100374974 -0.11869229 0.023613827 -0.07856667
000250 58 37 83 3d 18 6d 49 bd 24 21 ef bd 8f ac f8 3d
       0.0640704 -0.049176306 -0.11676243 0.12142288
000260 9f dd 52 3d c0 5c 06 3d a7 b0 bd 3d 50 4b ce 3d
       0.051480886 0.032803297 0.092622094 0.100729585
000270 b0 36 50 3d da bd 7d bd d2 ce 83 bd 18 75 85 3c
       0.050833404 -0.061948635 -0.06435932 0.016291186
000280 de a8 70 3d 43 5d c0 bc b3 95 e5 3c b0 c8 c9 bd
       0.058754794 -0.02348197 0.028025484 -0.09852731
000290 27 06 a5 3d 00 fb 64 3d 00 3d dd 3d f0 ad e3 3d
       0.08057814 0.055903435 0.108026505 0.1111716
0002a0 db 6d 43 3d 92 2c f7 3d 66 fe 88 bb dc 51 f9 3d
       0.04771219 0.12069048 -0.0041807173 0.121738166
0002b0 01 69 63 bd 65 d0 eb 3d 60 fc aa bc ef c4 0f bd
       -0.05552006 0.115143575 -0.020872295 -0.03509992
0002c0 d2 c7 6f bd 4a 3d 37 3c 9c 80 a2 3d 09 71 78 bd
       -0.058540173 0.011184046 0.079346865 -0.060654674
0002d0 83 e1 23 bd 44 3c 4e 3d 39 90 f2 3d b8 6d a5 3d
       -0.040009987 0.050350443 0.118439145 0.08077568
0002e0 dd 9d f1 3d d6 46 59 3d 26 0a f8 bd f2 c6 16 3c
       0.11797688 0.05304607 -0.12111311 0.009202706
0002f0 9b 38 3e bd fb eb 6c 3d f7 55 b3 bd 14 13 e6 bd
       -0.046440702 0.057842236 -0.08756631 -0.112341076
000300 4e ef c0 bc 18 2d fe 3c 46 27 ac 3d 65 b2 a1 bd
       -0.02355161 0.031027362 0.08405928 -0.07895354
000310 d8 26 1e 3c ec 5c a4 3d 2e b6 3a 3d 50 ef d1 bd
       0.009652816 0.08025536 0.045583896 -0.10250723
000320 00 2d 50 3d cf db ca bd 39 7a 64 bd 58 6d d7 bd
       0.050824165 -0.099052064 -0.055780623 -0.105189025
000330 d3 e6 eb 3c fe 71 a5 bd c8 75 41 3d 0a e5 7a 3c
       0.028796589 -0.08078383 0.047231466 0.015313396
000340 64 96 b4 bd 2a 19 f5 3d 14 af 74 3c 31 54 c8 3d
       -0.08817747 0.1196769 0.01493432 0.09781683
000350 41 5f 42 3d 9e 32 d6 3d a9 ff e3 bd a7 3f 3d bd
       0.047454122 0.10458873 -0.11132748 -0.04620328
000360 bf 6f 61 3b f0 e3 76 3d 34 f3 73 3d 47 a5 30 bd
       0.0034398881 0.060275972 0.05955811 -0.04312637
000370 cf 19 c4 bd 46 84 94 bc 96 95 eb 3d ed f9 db 3d
       -0.09575235 -0.01812948 0.11503141 0.10741029
000380 7b 3d 67 bd d5 60 47 bc 13 b6 c6 bd 87 76 90 bc
       -0.056455117 -0.012169083 -0.09702697 -0.017634643
000390 6a da 10 3d ba 9d ed 3d 22 8b b2 3d ba 96 cc bd
       0.035364546 0.116023496 0.08717944 -0.09989686
0003a0 15 8d 7f 3d 5e 9a 93 bd 1a 8a 2a 3d a8 c7 24 3d
       0.062390406 -0.072071776 0.04163561 0.04022947
0003b0 83 46 e3 3d 35 16 a0 3d 39 ad ae bd 1a 32 ee bd
       0.110974334 0.07816736 -0.08529133 -0.1163065
0003c0 f4 75 f9 bd c3 8a ba bc 34 b2 75 bd f1 8e ce bd
       -0.12180701 -0.022771245 -0.0599844 -0.10085858
0003d0 88 2e 23 3d 64 29 d7 3d 5f 44 e3 3d 2e 2d 93 bd
       0.039839298 0.105059415 0.11097025 -0.07186352
0003e0 90 b6 bf 3c 91 03 64 bd 3c e2 57 bd 25 d0 0f 3d
       0.023402482 -0.055667464 -0.05270599 0.03511061
0003f0 c6 b7 8d 3c bf 2a 5f bd 69 0e d2 bc 5f bd ea 3d
       0.017299544 -0.054484125 -0.025641637 0.11461901

gru.weight_hh_l0_reverse f4 [192, 64]
000000 00 aa f5 bb dc 6e 35 bd d8 bf 15 bd c8 9b b8 3d
       -0.007497072 -0.044295177 -0.03655991 0.09014088
000010 32 f5 f1 3d 00 b4 9b bd 1e 70 b1 3d 02 1c eb bd
       0.118143454 -0.07602692 0.08663963 -0.114799514
000020 66 5c 81 bd 5c 5b 2b 3d 50 e5 b1 3d 66 64 8d 3d
       -0.06316452 0.041835174 0.08686316 0.06903915
000030 a8 55 42 3d 18 64 98 3c 36 eb ba 3d 68 5b 09 bd
       0.04744497 0.018602416 0.09126894 -0.033534437
000040 34 b8 b5 3d 00 2c 59 3d 80 20 e0 bd 50 91 30 3d
       0.088730246 0.053020477 -0.10943699 0.04310733
000050 30 86 67 3d 8c d6 69 bd dc 9c 49 bd c4 2b de 3d
       0.056524456 -0.057089373 -0.04922186 0.108481914
000060 94 62 e4 bd 20 d8 49 3c 00 3c 56 ba 08 81 d9 bc
       -0.11151615 0.012319595 -0.0008172393 -0.026550785
000070 9a d8 c7 3d c0 65 28 3d da 43 cc bd a6 69 be 3d
       0.0975811 0.04111266 -0.09973879 0.092974946
000080 e4 8d a3 3d 72 17 8f 3d f4 de 1a 3d 70 1a 5f 3d
       0.07986048 0.06986894 0.03781028 0.054468572
000090 f0 11 e6 bd f6 22 a4 bd f4 99 e5 bd 48 87 2a 3d
       -0.1123389 -0.08014481 -0.11211005 0.04163292
0000a0 88 15 a2 bd 98 c2 9a 3d 00 5f de 3d 38 20 30 3d
       -0.07914263 0.07556647 0.108579636 0.042999476
0000b0 78 d7 51 3d 38 e9 b0 bd 00 e3 78 ba c8 99 15 bd
       0.051230878 -0.08638233 -0.0009494275 -0.03652361
0000c0 c2 23 94 3d 62 58 c1 bd 68 10 a5 bc d8 35 98 bd
       0.07233383 -0.09440686 -0.020149425 -0.07432145
0000d0 ac b3 8a bd 20 f3 0f 3d 40 1e 05 bc f0 f6 52 3c
       -0.06772551 0.03514397 -0.008124888 0.012876257
0000e0 36 62 a1 bd f0 a5 b0 bc 80 e4 21 bb c0 72 e0 bb
       -0.078800604 -0.0215635 -0.0024702847 -0.0068496168
0000f0 a8 e4 0e 3d f0 65 1b bd fe 62 88 3d e0 2f 28 3d
       0.034886032 -0.037939012 0.06659506 0.041061282
000100 a0 d0 c0 3d a6 94 d5 bd 88 63 0e 3d 90 0d 39 3d
       0.09414792 -0.10428743 0.03476289 0.04517895
000110 08 09 f1 bc 02 e3 e3 bd 44 e0 51 3d fc b5 71 bd
       -0.029423252 -0.11127283 0.051239267 -0.059011444
000120 80 10 8f ba 50 40 ec bc 88 28 9a bd e0 d9 20 bd
       -0.0010914952 -0.02883926 -0.07527262 -0.03927028
000130 da 35 80 3d c0 70 3e bb b4 50 d5 bd 3a a6 9a 3d
       0.06260271 -0.0029058903 -0.104157835 0.075512365
000140 40 64 1c bd a0 07 b8 bc 04 11 b0 3d 78 a1 ea bd
       -0.038181543 -0.022464573 0.085969955 -0.11456579
000150 ea ad f8 3d 72 9f ad bd bc 73 29 bd 88 0f 2c 3d
       0.121425465 -0.084776774 -0.04137014 0.042007
000160 10 a1 81 3c de 67 d2 3d c8 3a ed bd d8 6b 27 bd
       0.01582387 0.10273717 -0.11583477 -0.040874332
000170 8a 56 d3 bd 20 ea ab 3c 34 ac 04 bd 8c 78 1b 3d
       -0.103192404 0.020985663 -0.03239079 0.03795676
000180 34 a4 53 3d 06 ed fc bd 10 37 a1 bc 5a ba 9a bd
       0.05167027 -0.12349896 -0.019679576 -0.07555075
000190 86 04 fb 3d f0 de 0a 3c 10 a8 e2 3c 10 fa e8 3d
       0.12256722 0.008476004 0.02766803 0.11375821
0001a0 30 bd a0 bc 40 50 ee 3d 80 49 0c bd 8e 6e a6 bd
       -0.019621462 0.116364 -0.034249783 -0.081265554
0001b0 28 bc b4 3d 38 9a bd 3d 24 fd 19 bd 12 90 c1 bd
       0.088249505 0.092579305 -0.03759493 -0.09451307
0001c0 d4 bf 30 bd fa 6d c7 3d 00 3b 52 ba d4 ce 25 3d
       -0.04315169 0.09737773 -0.0008019656 0.04048045
0001d0 2a 62 a7 3d 9a 67 db bd 70 ac 20 3c a8 54 fa 3d
       0.0817302 -0.1071312 0.009806737 0.12223178
0001e0 30 57 98 3d ec 8d 91 bd 92 3e e6 bd d8 eb 2a bd
       0.07438505 -0.071071476 -0.11242403 -0.041728824
0001f0 36 7c df 3d ee df ce bd f8 fb 1d 3d 76 11 83 3d
       0.10912363 -0.10101305 0.038570374 0.06399815
000200 98 da fc 3d 00 a9 8b bc b4 34 15 bd ac 17 8d bd
       0.12346381 -0.017048359 -0.036427215 -0.06889281
000210 3e 10 fd bd b8 60 d3 bd e0 35 a9 3c c0 53 7a 3d
       -0.123566136 -0.10321182 0.020655572 0.061115026
000220 0e a7 86 3d d0 87 f5 bc 00 18 5b bb 64 b2 ec 3d
       0.06574832 -0.029971987 -0.0033431053 0.11557463
000230 42 89 8a bd d8 09 ad bc b0 46 00 3c da b2 f8 bd
       -0.06764461 -0.021122858 0.007829353 -0.12143488
000240 66 94 d7 3d f8 05 12 bd ac 3d 99 3d 28 36 67 bd
       0.10526352 -0.035650223 0.07482466 -0.05644813
000250 1c b2 32 bd b0 c0 f0 bd 0a 1e b2 3d 70 52 1e bc
       -0.04362689 -0.11755502 0.08697136 -0.009663209
000260 8e fb 9f 3d c0 d3 42 3c 78 e8 d1 bd 40 38 76 3b
       0.07811652 0.011891305 -0.10249418 0.0037570149
000270 76 43 e0 3d 40 d5 64 3d e0 af c0 3c 44 57 54 3d
       0.10950367 0.055867434 0.023521364 0.051841035
000280 38 47 e1 3d 60 60 fd 3b b6 21 8c 3d 08 8a aa 3c
       0.10999912 0.007732436 0.06842367 0.020817772
000290 ee ee b8 bd f4 24 49 3d be d3 ce 3d e4 ef 38 3d
       -0.09029947 0.049107507 0.1009898 0.045150653
0002a0 e8 e6 df bd 50 8f f9 bc 48 a5 23 bd ac cd 06 bd
       -0.10932714 -0.030463845 -0.039952546 -0.032910988
0002b0 de 99 90 3d 08 4a e7 bd f8 6b ca 3d 98 ed c0 3c
       0.07060598 -0.11293417 0.09883875 0.023550794
0002c0 56 c7 aa 3d 48 e0 87 3c 58 21 88 3d d0 36 94 bd
       0.083388016 0.016586438 0.06646985 -0.07237017
0002d0 c0 77 5a 3b 28 61 49 bd a0 35 97 bc 1c d1 7b bd
       0.0033335537 -0.04916492 -0.018458188 -0.06147872
0002e0 8c 88 b9 3d ee f2 df bd a0 ee 39 3c d4 a9 f4 3d
       0.090592474 -0.10935007 0.011348397 0.11946455
0002f0 d0 62 96 bc 3c 02 9f 3d 70 1c e0 bc f4 09 20 bd
       -0.018357664 0.07764098 -0.02735731 -0.039071992
000300 e4 b3 28 3d c6 c1 97 3d fa bc 98 bd ea f0 b9 bd
       0.041187182 0.07410006 -0.074579194 -0.09079154
000310 00 1f 30 3c 06 b4 ef bd d8 b0 94 3d d8 b2 2e 3d
       0.0107495785 -0.117042586 0.07260293 0.042651027
000320 d8 b3 53 bd 60 22 3e 3c a8 be 90 bc 80 b9 78 3b
       -0.051685184 0.011604875 -0.017669037 0.0037952363
000330 4c 65 e6 3d a4 f4 71 3d 30 92 3f 3c 96 6e 8d bd
       0.112497896 0.059071198 0.011692569 -0.06905858
000340 60 e0 2f 3d 5c cb d4 bd ba ce df 3d c0 1f de bc
       0.04293859 -0.1039035 0.10928102 -0.027114749
000350 80 7d dc bb 6c 7a bc 3d 10 1c 07 3c 32 bf ce bd
       -0.006728828 0.092030376 0.008246437 -0.10095061
000360 18 76 c6 bd f4 bb 04 3d ac c5 9c 3d 70 40 70 bc
       -0.09690493 0.03240581 0.076548904 -0.014663801
000370 60 ec 9f bc e4 b1 16 bd 48 e9 98 3c 40 5f f8 3b
       -0.019521892 -0.036790743 0.018665925 0.007579714
000380 0c 7c e4 3d 96 fc aa 3d b6 13 8d bd ec 60 20 3d
       0.111564726 0.08348958 -0.06888525 0.039154932
000390 00 ef b2 ba 9c 00 87 bd 70 69 f2 bc a4 73 aa 3d
       -0.001365155 -0.06591913 -0.029591292 0.08322838
0003a0 62 2c cc bd bc 44 b4 bd cc dd ee 3d 4a d5 b1 bd
       -0.09969403 -0.088021725 0.11663398 -0.0868326
0003b0 ec 2b b7 bd 6c 77 1e 3d 10 58 67 bd b8 23 ba bd
       -0.08943924 0.03868811 -0.056480467 -0.09088844
0003c0 08 86 91 bc 20 fb dd 3b 04 a7 16 bd 24 15 26 3d
       -0.017764106 0.006774321 -0.036780372 0.040547505
0003d0 04 1b da bd c0 b0 96 bd f8 0f df bc ca cc 9f bd
       -0.10649684 -0.07357931 -0.027229294 -0.07802732
0003e0 c8 e6 59 bd 8a 99 f0 bd b6 99 ed 3d b8 e4 40 3d
       -0.053198606 -0.11748035 0.11601584 0.047093123
0003f0 20 24 81 bc f0 95 fa 3c b0 f3 8f bd ae f7 cf 3d
       -0.015764296 0.030589074 -0.070289016 0.10154663
