Code/Archive/models/exo_conv_bigru_v2b.pt (torch, 168587 bytes, 15 tensors)

conv.0.weight f4 [8, 1, 9]
00000000: 48bf f23d 62eb 14be d550 7b3e 8a07 4cbe
00000010: 4f54 52bd b1ad a53e bad0 943e 6e8b acbe
00000020: d146 933d e3fb 83be bdce 773e 7e02 2f3e
00000030: 1f1a a9be d7ee 1b3e 4e2e 963e 321f 7cbe
00000040: fdcc 243e 2027 a2be 3344 8abe 470a 083e
00000050: 0546 59bd 0dbf a0be fca7 8fbe 6088 883e
00000060: 3578 bebc ddb4 8a3e 50ff ef3d d36e 1e3e
00000070: 507d 8fbe 89c6 6b3e e667 8fbe dabd 483e
00000080: 26f8 853d 2ede 0dbe a16a 0abe b592 28bd
00000090: 6711 56be 9d29 3abe 00f8 6bbe b1f8 a23e
000000a0: 6144 ccbd e589 82be d6f4 81be 7545 a3be
000000b0: 3d5f a43e 2fd5 1ebd ed4f a7be 83f2 233e
000000c0: fe5c 57be f865 313e b505 883e 430e 80be
000000d0: 090e a03d e4a6 533e e0dc b3bd 3040 8c3e
000000e0: 30bf 283e d94d 7cbd 1734 523d c3ed 773e
000000f0: 4cbe 9cbe 517d a43e ced7 28be 1ddb 48bd
00000100: 4dd8 db3c 274c 973c fd68 71be f887 343c
00000110: f5ca 7fbe a5f3 0a3e 546e 513e a9e9 cbbd
0.1185289 -0.14542916 0.24542554 -0.19924751 -0.051349934 0.3235908 0.29065496 -0.33700126
0.071912415 -0.25778112 0.24199958 0.17090794 -0.3302774 0.15227829 0.29332203 -0.24621275
0.16093822 -0.31670475 -0.27005157 0.1328517 -0.05304529 -0.3139576 -0.2805785 0.26666546
-0.023250679 0.27091113 0.11718619 0.15471964 -0.28025293 0.23024954 -0.28008956 0.19603673
0.06541471 -0.13854286 -0.13517238 -0.041155536 -0.20905076 -0.18179937 -0.23043823 0.3183036
-0.0997398 -0.2549583 -0.25382107 -0.3188893 0.3210391 -0.038777526 -0.32678166 0.1601048
-0.21031567 0.17324054 0.26566854 -0.2501088 0.07815177 0.20669132 -0.08782363 0.2739272
0.16479182 -0.06159768 0.051319208 0.24211793 -0.30613935 0.3212686 -0.16488573 -0.049037088
0.026836539 0.01846893 -0.23575206 0.011018746 -0.24979766 0.13569506 0.20452243 -0.099566765

conv.0.bias f4 [8]
00000000: 9a21 45be 0280 14be 0781 373d 0156 15be
00000010: 4a41 913e fd83 51be 4437 493e 51ca a3be
-0.19251099 -0.14501956 0.044800784 -0.14583589 0.28370124 -0.20460506 0.19649988 -0.31990293

conv.3.weight f4 [16, 8, 9]
00000000: add6 53bd 69a1 c23d 5d4b 25bd 7014 983d
00000010: 02a9 7a3c 01b8 a63a b017 6b3d 3db4 46bd
00000020: 4d09 513d 5059 903c 5a29 bbbc 19e9 a4bd
00000030: 72fe 3ebd 15d6 b2bd daf1 eabb 6d39 7d3d
00000040: 375a aa3d c8b6 8c3d fe56 783d 0e8a 30bd
00000050: 8cb7 74bd 5fe2 c83d ecab 5bbd b216 003b
00000060: 4dc1 b0bd ec58 1dbd 679d 663d c0ed 9ebd
00000070: 8361 863d f1de 8f3d 75f3 81bd 0b4a cdbd
00000080: cfb6 d1bd f9b5 603d e4d6 91bd ec7a b3bb
00000090: 8f99 a93d 9831 d13d 6175 013d e9e1 7cbd
000000a0: 225e 0c3d 1cf0 cebd a0fc c23d 2986 29bd
000000b0: f7a4 65bd 554a a1bc 4973 873d 28c4 cc3d
000000c0: 0020 553d 78d7 9f3d ee16 df3d 8df6 cd3d
000000d0: 1892 563c 99de b43d 20e2 993d 4886 9a3d
000000e0: dabe 16bd 13c8 bbbd b137 f63d ed72 343d
000000f0: 91ca cebc 0e3c 5c3c f516 c03d 507c 96bd
00000100: 7223 4f3d 5425 fa3d 1eb2 a53d 277c a9bb
00000110: 3169 d73d 1033 c83b 4ae7 7ebd 0b7b cf3d
00000120: 0077 e6bd 6ca3 95bd e8cf d23d 3c3a 86bd
00000130: 1b8a a8bd a91d c4bd 5bc6 7fbd b949 a83c
00000140: dfc2 87bd 2190 8ebd 4a63 a0bd 4060 e8bb
00000150: 5f44 9c3d 1d84 ca3d 7bc7 b33d 99cc fbbd
00000160: a6ae 66bd 32fb a13d a8a3 113d 0fee 473c
00000170: 54f8 3e3d 5f36 f4bc 0139 6d3d 7801 16bd
00000180: 7632 c83d 01b4 58bd 9644 b9bd b783 df3d
00000190: d859 8bbc f7f3 d43d 33ea de3c ce6a f7bc
000001a0: ca75 513b 840b b13d 596d 683d f06c cb3d
000001b0: 9347 92bd d9d2 9e3d c9ef 4abb 0813 0cbd
000001c0: 198a b7bc c22c b8bd 1181 fabd 1a6a 26bd
000001d0: 8fe3 91bd 0f04 713b c570 29bd 727c 12bd
000001e0: de90 06bd c84c 073d 2092 0bbd 37b4 95bd
000001f0: 6674 68bd a3b6 1c3b 6a3f 033c 552f 9a3c
00000200: ba55 da3d 8d19 cebd 18c6 b2bd ab5e 99bb
00000210: 82fd 9abd f8d9 e03c c1be 0a3d 6f35 bdbd
00000220: 2870 a6bd 7b1f d6bd 535d adbd f12e c1bd
00000230: f3ef 5b3d 368f 8f3d 5889 91bd a3bf edbd
00000240: 959e 48bc 7e21 84bc 50d7 76bc 0b4e 12bd
00000250: 52e0 53bd 62dd f23b 7099 f13c 3bd1 113d
00000260: cfc1 a03d d84e fa3c d646 cebd 6a7e 093d
00000270: 90d0 693d 3a35 41bc 4066 c23d 8636 8dbc
00000280: 26b9 643c a589 78bd 2a3b 88bc 08c5 8b3d
00000290: 5af5 a7bd 5ed6 6fbc 3188 f9bd 33f9 c03d
000002a0: 930e 18bd 37b9 de3b 5baa 63bd e82c 0fbd
000002b0: 343c e23c 2495 983d 7b88 86bd c1a8 a5bd
000002c0: 32b0 d33c a6bc 153d 9f99 96bd 46d6 e53c
000002d0: f476 09bd 9100 d8bd 8f29 a83c 2008 06bd
000002e0: f12c 12bd 9f0e 823c 30c3 9abd d0f6 64bc
000002f0: cc62 383c 17a4 b5ba dc3a 7fbb 350c 8c3d
00000300: be28 58bd 7058 abbd f528 1d3b 6e7d 37bd
00000310: 21c1 59ba 46a4 c1bd 7634 b43d a707 25bc
00000320: ce1b b93d 8c75 e83d cf71 93bd 6b83 d03d
00000330: 80ba 03bd 4928 eabd 51b0 c7bd 1a40 c93d
00000340: 0a62 a53d 817f b2bd c76a b33c cc6d 183c
00000350: 1699 dfbd cd21 b73d c13a c53d 81f5 44bd
00000360: cb0f aa3d 35cf 493d 85d6 f03c 8a8d ebbd
00000370: 7323 dabd 5506 1fbb 8a46 26bd f872 203d
00000380: a48a cebd ca3e 6d3d 54ff 93bd d178 5dbd
00000390: a39d c3bd 1e28 e9bd 2cd9 ff3c 6e02 a23d
000003a0: 434d b83d debf eabd c041 263c 527f cbbc
000003b0: 6c12 463c 19a0 e3bd dfd8 e13b b5c8 46bd
000003c0: cfb4 31bd b610 a13d f43a bf3d 1c68 1e3b
000003d0: f514 73bd 8856 23bd 4cb2 2d3d a535 c83d
000003e0: daa9 cfbd e160 b1bd 09e3 abbd a7cf b73d
000003f0: 807c b2bd cc94 c5bc d800 dd3d 6d5b 4cbd
-0.051718403 0.09503443 -0.040355075 0.07425773 0.015299084 0.0012719632 0.057395637 -0.048511732
0.05103426 0.017620713 -0.022846866 -0.08052272 -0.046629377 -0.08732239 -0.0071699442 0.061822344
0.08317988 0.068708 0.060629837 -0.04310041 -0.059745356 0.09808802 -0.053630754 0.0019544777
-0.08630619 -0.03841488 0.056302454 -0.07760191 0.06561568 0.070249446 -0.06345264 -0.10023888
-0.10239946 0.054861043 -0.07121065 -0.0054773 0.08281242 0.102145374 0.031606082 -0.061738882
0.03426946 -0.10104391 0.09520841 -0.04138771 -0.056065526 -0.019688765 0.06613786 0.09998351
0.05203247 0.07804769 0.10893045 0.100567915 0.013096355 0.0883152 0.07513833 0.07545143
-0.036803104 -0.091690205 0.12022341 0.044054914 -0.025243076 0.0134420525 0.09379379 -0.073479295
0.050570913 0.12214151 0.08090614 -0.005172271 0.105181105 0.0061096027 -0.062232293 0.101308905
-0.11253166 -0.07306561 0.10293561 -0.06554076 -0.082294665 -0.0957597 -0.062445026 0.020542966
-0.066289656 -0.06961084 -0.07831438 -0.007091552 0.07630228 0.0988848 0.08778282 -0.12294883
-0.0563189 0.0790924 0.035556465 0.012202754 0.046623543 -0.029811082 0.05791569 -0.036622494
0.0977525 -0.05290604 -0.09046285 0.109137945 -0.017010614 0.10398095 0.027211284 -0.030202296
0.0031961077 0.086447746 0.056744907 0.099328876 -0.07142558 0.0775506 -0.0030965677 -0.034197837
-0.022404717 -0.08992912 -0.12231649 -0.04062853 -0.071234815 0.00367761 -0.04136731 -0.03576321
-0.032853 0.03303221 -0.034074903 -0.07309764 -0.05675163 0.002391257 0.008010725 0.018821398
0.10660882 -0.10063467 -0.0872919 -0.0046804748 -0.07567884 0.027447686 0.033873323 -0.09238707
-0.08126861 -0.10455223 -0.08465066 -0.094327815 0.05369563 0.07009737 -0.07106274 -0.116088174
-0.01224484 -0.016129252 -0.015065983 -0.03571896 -0.0517276 0.007411645 0.02949211 0.03559993
0.07849466 0.030555174 -0.10072105 0.033567823 0.057083666 -0.011792475 0.09492159 -0.017237913
0.013960158 -0.060678143 -0.016629774 0.0682469 -0.08201094 -0.014638511 -0.121841796 0.09422531
-0.037123274 0.0067969817 -0.055582386 -0.034954935 0.027616598 0.07450321 -0.06569 -0.08088828
0.025840852 0.036556862 -0.0735352 0.028056275 -0.03356071 -0.10546983 0.02052763 -0.032722592
-0.03568739 0.015876113 -0.0755676 -0.01397486 0.011254024 -0.0013858107 -0.0038944995 0.06838266
-0.05277323 -0.083664775 0.002398071 -0.044797353 -0.00083066715 -0.09455161 0.08799069 -0.010072625
0.090385064 0.11350545 -0.07199442 0.10181316 -0.032160282 -0.11433465 -0.097504266 0.098266795
0.0807534 -0.08715726 0.021901501 0.009303521 -0.10917871 0.08941994 0.09630347 -0.048085693
0.083037935 0.049269874 0.029399166 -0.11501606 -0.10651293 -0.0024265249 -0.040594615 0.039172143
-0.10085037 0.05792121 -0.07226434 -0.054070298 -0.09551551 -0.11384605 0.031231485 0.0791062
0.089991115 -0.11462377 0.010147512 -0.024840984 0.012089353 -0.111145206 0.006892308 -0.048531253
-0.043385323 0.078645155 0.09337416 0.002417094 -0.059346158 -0.039877445 0.042406365 0.09775857
-0.101398185 -0.08661056 -0.08392913 0.089751534 -0.08715153 -0.024118803 0.107911766 -0.049891878

conv.3.bias f4 [16]
00000000: afee 9cbd e736 c1bd 288d 72bd ff3b 4e3d
00000010: ba13 953d bd49 34bd e5e1 cebd aac4 773d
00000020: a406 ad3d 0d20 05bd ca4d d5bd 692d ea3b
00000030: d331 d8bd e619 9d3c 09d6 413c ec47 c9bd
-0.07662713 -0.094343 -0.05921665 0.050350185 0.07279153 -0.044015635 -0.1010168 0.060490288
0.08448532 -0.03250127 -0.10415228 0.0071465266 -0.10556378 0.019177388 0.011830815 -0.09828171

gru.weight_ih_l0 f4 [192, 16]
00000000: 5d10 b03d 25c4 e23d 8393 76bd fa0d 633d
00000010: b6c0 a0bd 79f2 24bc c698 883d fc80 493c
00000020: 469d 55bd c3f0 f1bc 7c4c da3c 57a3 633c
00000030: 0aaa 9a3b 3c2b b4bd a427 0b3b 81fb b73d
00000040: 003f 723d 8c35 bebd fe82 333d 3fd4 483d
00000050: da21 ac3d 6247 a73c 526e 723d d516 b0bc
00000060: 7e0c 7dbd 4c6a e33d 3243 983d 192f b8bd
00000070: 6294 ed3d 5239 2fbd c1b8 b3bd f07d 86bd
00000080: 0e58 36bd c1b6 9e3d 57e6 df3d ba68 6cbd
00000090: ca43 50bd 9ff7 2c3d ace3 3fbc 5868 b83b
000000a0: e7a6 8d3d 3256 8bbc 267e c13d ab7a 863d
000000b0: f4bf 0bbd 1b45 dcbd 6a40 71bd da0e f33d
000000c0: 8f06 a3bd 0d47 033e 8822 823b 1180 b03c
000000d0: 7bc4 bcbd 0431 723d 9bed f43c c305 48bb
000000e0: f8f2 613c 776e d7bd 06c1 593d 45eb e6bd
000000f0: b056 dcbc 73f6 d13d 7bbb b8bc 47d6 f73c
00000100: 6fc3 b2bc 8b00 2e3d 326c c23d 8548 473d
00000110: 5d77 9d3d 4304 023e 3d95 903d 2617 b43c
00000120: 2b9e e93d 81c2 98bd deee 60bd 80a9 a33d
00000130: a7af 693c 93d9 c3bd 3430 82bc 305b 02bd
00000140: 17cb b43a 63ca 68bd a310 2c3d 80a0 d83d
00000150: d6c7 bb3c 20e7 893d d546 f6bd b6f4 22bc
00000160: 1615 e4bc 6c3b 073e f8ec 09bd 881c 91bd
00000170: c590 dbbd 3b0d fc3c 366b bcbd df4b 84bd
00000180: 6306 793d 6faa debd 41e7 01bd 48ef f3bd
00000190: a236 723d 80f1 59bd 084a 993d ce70 4e3d
000001a0: 80be 5c3c 0139 e53d 6901 013e e601 b13d
000001b0: 17e7 f93d e9f4 3f3d 8176 4dbc 3caa 8abc
000001c0: fe9c bc3c 3ae1 403d 4bf1 bdbb b707 f93c
000001d0: 7cfb 8c3d 3f16 98bd 24b8 b13c f2b3 4cbd
000001e0: 476e c53c cb00 02bd 3ce3 5c3d 87f4 b43d
000001f0: e385 a6bc 9f15 243d 002a 23bd 7e25 7f3d
00000200: fa9c b0bc 4686 93bd 8daf d53d 94f1 a33d
00000210: 66e8 143d 05d2 da3d 7ae8 30bd 477f aebd
00000220: 21dc c63d 2f10 a6bd 2795 43bd e396 713d
00000230: cf35 87bd c7a2 42bb c6b5 d5bc 0db5 0a3d
00000240: 27b0 8fbd 3412 1abd 57f6 be3b 9705 043d
00000250: d25e 083d 5a75 cb3d 0957 a7bc e589 683d
00000260: 2978 9bbd 04a1 a3bd 0efb d0bd 1964 f6bc
00000270: 8abc a7bd 60db ec3d 1263 fd3d 79ec b0bd
00000280: 218f e13c f724 043d 54db b13d 9b27 e23c
00000290: b152 59bd 76ed be3d a59b d73c 085b c3bd
000002a0: 8cc8 c53d 551f c1bd 1a01 863d ba85 f1bb
000002b0: bf49 cfbd 60a3 433d f813 b4bd f29c a33d
000002c0: 5dce ac3d e798 9ebd a5e1 ddbd 9f8d 593b
000002d0: f955 34bb acd9 15bd 181f 82bb 6cb1 93bd
000002e0: 25f2 54bb a52a 8e3c c44c ed3d e7ef 7b3c
000002f0: 9724 653d 4596 ea3d 154a 163d 933d c3bd
00000300: eb3c 0bbd 3b50 ac3c 3193 d33d 12d3 f6bb
00000310: 217a a3bc cade 12bd 769b 5a3c 5fe7 62bd
00000320: 6955 bdbd 1519 2d3d 88b3 b13c d82d 91bc
00000330: 247b c2bc 82e7 813b 3680 f53d fa96 1e3d
00000340: 99c8 3e3d c662 d0bd 6fbc cdbd c3c8 a6bd
00000350: 78f7 013d e3fa 91bd 3163 d33a 876c 613d
00000360: 19cf 4bbc d482 2e3d 8c0b cfbc cf0d d7bd
00000370: 7c45 57bd f93b b23d feb7 f23d 6f87 60bd
00000380: e746 a93c 5214 e03d dba5 66bd d456 8dbd
00000390: 4af9 f83d 2ce5 c8bd c0a3 a1bd 6eab dfbd
000003a0: 35d7 713d 5d2b 75bc efbb 8d3d d77c c53c
000003b0: d059 dfbd 2f0a aa3c f328 efbd 3d25 5c3d
000003c0: 0c7b 41bd 847b c2bd 2538 bbbb fc08 debd
000003d0: 2cfb eabc b17a c1bd f096 97bd 8ac9 9e3d
000003e0: aa5e eb3d 24f7 0f3d e4a7 b0bd 1a9e e1bd
000003f0: de44 9cbd b8fe a23d 1755 af3d c529 cebd
0.08596871 0.11072568 -0.060199272 0.05543325 -0.07849257 -0.010067576 0.06669764 0.012298819
-0.05215194 -0.02953375 0.026647799 0.013893924 0.0047199773 -0.08797309 0.0021233344 0.089835174
0.059142113 -0.09287557 0.043826096 0.04903054 0.08404894 0.02041978 0.05918724 -0.021495262
-0.06177949 0.11104259 0.074346915 -0.08993358 0.116005674 -0.042779274 -0.087754734 -0.065669894
-0.04451757 0.07749701 0.10932606 -0.057717063 -0.0508459 0.042228337 -0.011711996 0.005627673
0.069166 -0.017008875 0.09447889 0.06566366 -0.034118608 -0.10755368 -0.05889932 0.11868067
-0.07960235 0.12820072 0.0039714016 0.021545442 -0.09217163 0.059128776 0.029898455 -0.0030521012
0.013790838 -0.10519116 0.053162597 -0.11275343 -0.026896805 0.102520846 -0.022550335 0.030253543
-0.021821706 0.042480987 0.09493293 0.048653144 0.07688782 0.12696938 0.07059715 0.021983694
0.11407121 -0.07458974 -0.0549153 0.07991314 0.01426307 -0.09562983 -0.015892126 -0.031825244
0.0013793436 -0.056833636 0.042008054 0.10577488 0.022922438 0.06733537 -0.12025229 -0.009946039
-0.027842086 0.13206261 -0.033673257 -0.0708552 -0.10720972 0.030768028 -0.09200136 -0.06459784
0.060797106 -0.108723514 -0.03171468 -0.11910874 0.059134133 -0.053208828 0.074848235 0.050400548
0.013473153 0.11192513 0.12598194 0.0864294 0.1220228 0.046864424 -0.012540461 -0.016926877
0.023024078 0.047089793 -0.0057965866 0.030399187 0.06883904 -0.07426118 0.02169425 -0.049976297
0.024100436 -0.031739037 0.053927645 0.088357024 -0.020327514 0.040059682 -0.039834976 0.062291615
-0.021559227 -0.07203345 0.10433874 0.08005062 0.036354445 0.10684589 -0.043190457 -0.0852037
0.09709955 -0.081085555 -0.047749665 0.058981787 -0.0660206 -0.0029699074 -0.026087653 0.03386407
-0.0701602 -0.037615016 0.005827706 0.032231893 0.033293553 0.099344924 -0.020427244 0.05677213
-0.07591278 -0.07989696 -0.10204135 -0.030077027 -0.08190258 0.1156528 0.12372412 -0.086388536
0.02753407 0.032261815 0.08684412 0.027606776 -0.053057376 0.09322636 0.026319334 -0.09538847
0.09657392 -0.09429804 0.06543179 -0.007370678 -0.10121488 0.04776323 -0.08792871 0.07988919
0.08437798 -0.077440076 -0.10834054 0.0033195985 -0.0027517064 -0.03658454 -0.003970992 -0.07211575
-0.0032492962 0.017354319 0.115869075 0.015377021 0.055943098 0.11454443 0.036691744 -0.09533229
-0.033993643 0.02103435 0.10330809 -0.0075324858 -0.019955697 -0.035857 0.013342729 -0.055396434
-0.09244806 0.04226025 0.021692052 -0.017722055 -0.023740359 0.0039643655 0.11987345 0.0387182
0.046578024 -0.101750895 -0.100457065 -0.08143761 0.031730145 -0.07127931 0.0016127584 0.05503514
-0.012439513 0.042605236 -0.02527406 -0.10500681 -0.0525565 0.08702845 0.118515 -0.05481666
0.020663692 0.10941376 -0.056310516 -0.06901327 0.12156923 -0.09809336 -0.07892561 -0.109213695
0.059043128 -0.014963952 0.06920611 0.02410738 -0.10905802 0.020756809 -0.11677732 0.05374645
-0.047236487 -0.09496215 -0.00571348 -0.108415574 -0.028684221 -0.0944723 -0.07401836 0.07753284
0.11492665 0.0351478 -0.086257726 -0.110164836 -0.07630323 0.0795874 0.085611515 -0.10066561

gru.weight_hh_l0 f4 [192, 64]
00000000: 9d8b dc3d 6f03 8b3d b485 edbd b056 b93d
00000010: 4689 f6bd 01d3 10bd 6e8f f6bd 40c0 e6bc
00000020: 9a52 30bd 2410 aabd b242 6d3d 93d5 e83c
00000030: 1e61 9d3d c237 90bd c707 b0bc acf2 e3bc
00000040: ae5a 95bc bd5b fe3d 9fad eabd 8e4f 013d
00000050: 9e16 e63d bb0a 3c3c b32b 12bc 7b36 b7bc
00000060: 2cd0 3dbd f65f 95bd 2021 d9bd 59af ee3d
00000070: b182 ff3c a31d abbd 6142 7a3d 08d8 ccbd
00000080: 2bb4 283d 8f18 f83d cda3 acbd 219e 95bd
00000090: 5a7d a1bd 9ef3 123c d38d 4b3d 4f9e 8e3b
000000a0: 581b 6a3d 02e0 b2bc a304 ccbc 9cdd b8bd
000000b0: 1ea7 a7bd 12e8 c9bd 0980 823d e411 8d3d
000000c0: ad98 a93d f965 c8bc e3a9 843d cfa6 bb3d
000000d0: 0be5 563d 0a10 2dbd 6c64 c03d bc1e c3bd
000000e0: 38cf 8e3d 3f4c 2b3d 504e 083d 3c97 833d
000000f0: ccb8 d9bd 3169 013d cfd5 68bd b4ff e73d
00000100: 32ae 78bc 0093 b53d 910e 39bd 69ac a73d
00000110: 4d40 d83d ac4c 18bd 85a5 3cbd 99de e9bd
00000120: 2136 95bd 6dcd 56bd 8dc4 473c 89ed 12bc
00000130: 9f4d 563d 3812 0b3d c300 6cbd eb23 903d
00000140: ff07 02bb b4c6 18bd 5f27 ddbd eb43 f13b
00000150: ee30 23bd e86c 4f3c 9865 943d 8d7a 1c3d
00000160: b175 e03d 7590 803d d982 a2bc d886 dc3d
00000170: 7dc8 c03d a9a5 8a3d 002d d83d 77c0 05bc
00000180: 5714 f93c 2b14 083d 0a78 ce3c 1e88 c63d
00000190: 967d 963c f8de 063b e110 b43d baac 79bd
000001a0: 01d2 263d 9429 8fbd 38b5 d8bc 3f33 d3bd
000001b0: ecf3 1d3d 0d17 9b3d bdf3 d13d 5c3e 2d3d
000001c0: 5357 90bd 6005 043e 8a41 04be 1983 ea3d
000001d0: b729 b6bc b2ea a73d d703 01bd f50a 9f3d
000001e0: 51b6 e53d dd05 ffbd a7f7 ff3d 5623 ac3d
000001f0: 7b4e 9b3d a077 bbbd 2ada 89bd 23ca fbbd
00000200: 074d 313d 7764 7c3c 8197 1fbc 4dd2 c2bc
00000210: acbb 1a3d f0a1 dcbd 185c bcbd 15f7 ff3d
00000220: a18b 8ebd 83f4 f9bd 7a79 7f3c 0d4b b83d
00000230: af4e ecbc a6b5 c5bd 4d00 8ebd d15f c2bc
00000240: 0a02 c93d f8cb a3bd f666 debd 2fc6 30bd
00000250: ea39 d7bd a4e7 193d 2eb0 b9bd 61a1 b6bd
00000260: 554f c43d 60d7 ad3d e436 b9bc 5e86 9b3d
00000270: 7b13 37bb 0a8f 3ebc df55 b23d becf 8f3c
00000280: ff62 9fbd ac2d 1b3d 1dab f53d 6189 493c
00000290: 44a6 863d a43b a83d 9b00 b0bd a2d2 cdbd
000002a0: 296e c0bd 44e8 253d 3342 f0bd 3416 bd3d
000002b0: 5cbe c2bd 6c24 513d d521 d6bd 50ef a1bd
000002c0: 3814 a33d c1cd 46bd d0d8 a4bd 6532 4cbd
000002d0: eab1 f1bd db18 873d 606d 8cbd 5621 59bd
000002e0: 4978 acbd 8357 c4bc 01b9 d23d 44e6 8abd
000002f0: a5d0 e1bd 7bc3 aebd a587 cfbd f426 c1bd
00000300: 341d 4bbd 1078 d4bc f66e e23d 5a3d 89bc
00000310: 6ec4 b83c 3e6d 7fbd 9be6 d13c c85c b63d
00000320: 1027 d3bd c086 2c3d d21a 5bbd b597 9e3d
00000330: abca 21bd dd24 3abc 8f2b c93d d4fa 773d
00000340: 8a1a cd3d f642 353d 23b7 ce3d fce7 e03d
00000350: 24c1 da3d 9562 ffbc 25ea e1bd ea29 debd
00000360: e475 053e d7ef aabd df11 7fbb 5003 903d
00000370: 79c1 b7bc c928 e13d d60b 023e 3baa c33d
00000380: 66eb ee3d 0ab7 38bd eecc ca3d 238b a4bc
00000390: 2359 993d 15a2 00bd 2231 e73d 5ed2 963d
000003a0: 231a a23b 25c4 833d 9098 32bd 7240 bebb
000003b0: 4d1b 633c 9e05 bdbd 4117 293c fb91 913d
000003c0: 47f9 38bd 4d19 bfbc 44ce 90bd ff1e e4bd
000003d0: c32d e7bb 16a9 ce3d f79a dbbd f4db 5fbd
000003e0: 3038 c5bb 30b8 90bd 9b22 ca3d 8ed2 e73d
000003f0: 5dd6 ed3d 4759 a83d 86f0 033d 4235 c53d
0.107688166 0.06787764 -0.115977675 0.090497375 -0.120379016 -0.03535748 -0.12039076 -0.028167844
-0.043047525 -0.0830386 0.057924934 0.028422153 0.07684539 -0.07041885 -0.021488084 -0.027825676
-0.018231716 0.124198414 -0.11458897 0.03157001 0.11234783 0.011477168 -0.0089215515 -0.022364845
-0.046341106 -0.07293694 -0.10602021 0.11654539 0.031190248 -0.08355262 0.06109846 -0.10002142
0.041187447 0.12114059 -0.0842968 -0.07305551 -0.07885237 0.008969216 0.0496958 0.004352368
0.057154983 -0.02183533 -0.024904555 -0.09026644 -0.08186172 -0.09858717 0.06372077 0.06888178
0.08281074 -0.024462687 0.06477716 0.091626756 0.052464526 -0.042251624 0.09394154 -0.095273465
0.069731176 0.04182076 0.03327781 0.0642533 -0.1063095 0.03159446 -0.05684453 0.113280684
-0.01517825 0.08865929 -0.045179907 0.081871815 0.105591394 -0.037182495 -0.04605629 -0.1141941
-0.07285715 -0.052442003 0.012192857 -0.008967766 0.05232012 0.03395292 -0.057617914 0.07038101
-0.0019841192 -0.037298873 -0.10798525 0.007362833 -0.039841585 0.012660243 0.0724594 0.03820281
0.10959948 0.06277553 -0.019837784 0.10767907 0.0941324 0.067698784 0.10555458 -0.008163563
0.030405207 0.03322236 0.025203723 0.09693931 0.01837043 0.0020579677 0.08792282 -0.06095574
0.04072762 -0.06990352 -0.0264536 -0.10312509 0.0385627 0.07572756 0.102515675 0.0422958
-0.07047906 0.12892675 -0.12915626 0.11450786 -0.022236688 0.081990615 -0.031497803 0.07765762
0.11216415 -0.1245229 0.12498408 0.08405177 0.07583328 -0.09153676 -0.067310646 -0.12294414
0.04328635 0.015404812 -0.009740711 -0.02378192 0.037776634 -0.107730746 -0.09197253 0.12498299
-0.06960226 -0.1220484 0.015592927 0.0899869 -0.028846113 -0.09653787 -0.06933651 -0.02372733
0.09814842 -0.07997888 -0.10859482 -0.043157753 -0.10509093 0.037574425 -0.09066807 -0.08917499
0.09585444 0.08488345 -0.022609182 0.07593988 -0.0027935195 -0.011630783 0.08707785 0.017555114
-0.07782554 0.037885353 0.11995528 0.01230082 0.065746814 0.082145005 -0.085938655 -0.10049941
-0.093960114 0.04050471 -0.117313765 0.092327505 -0.095089644 0.051060125 -0.10455672 -0.07906973
0.07962841 -0.048536066 -0.08049166 -0.049852747 -0.118015125 0.06596538 -0.06856799 -0.053010307
-0.0842138 -0.02396751 0.10289193 -0.06782201 -0.11026124 -0.08533379 -0.10133294 -0.09431258
-0.049588397 -0.025936157 0.1105632 -0.016752888 0.022554602 -0.06236004 0.025622657 0.08904415
-0.10310185 0.042120695 -0.053492375 0.077437796 -0.03949992 -0.011361328 0.09822761 0.060541943
0.100148275 0.044253312 0.10093524 0.109817475 0.1068137 -0.031174937 -0.11030988 -0.10847838
0.13033253 -0.08346527 -0.0038920564 0.07031882 -0.022431122 0.10994107 0.12699828 0.09553953
0.116659924 -0.045096435 0.099023685 -0.020085877 0.074877046 -0.031404573 0.11288668 0.07364343
0.0049469634 0.06433896 -0.043602526 -0.0058060223 0.0138614895 -0.09229587 0.010320486 0.07107922
-0.045159604 -0.023327494 -0.07070592 -0.111387245 -0.007055016 0.10090844 -0.107229166 -0.054653123
-0.006018661 -0.07066381 0.09869882 0.11319457 0.11613152 0.08220153 0.032211803 0.09629299

gru.bias_ih_l0 f4 [192]
00000000: d166 423c 4bbe abbd afde 3a3d 60dc c53d
00000010: 606d d13d eb23 15bd 6e58 d5bd 5a9e 89bc
00000020: 7e36 febd cc28 b13d 44a0 d2bd ab09 493d
00000030: 147b 593d 93be 653d b9fc 03bd 55af ea3d
00000040: 55e4 b9bd 685e b53d 72c7 8abc fb35 953d
00000050: ea12 eabd 6a6e 973d 6d0d 123c 3b8c 37bb
00000060: c4f0 f3bd ac45 b23d f213 d7bd 82cb aebc
00000070: 5836 eb3d 10cc cdbd 3eea c4bd 3370 a23d
00000080: 3c07 ea3d 1371 eabb ca8c ecbd a3a0 33bd
00000090: 24ea 82bd a0c5 f7bc 0902 a8bc df52 5b3d
000000a0: 0712 89bd f0ba c8bd 7467 c2bd 6fcd cd3d
000000b0: 3763 363d 3fe0 d7bc 6f80 ce3d 40fb cd3c
000000c0: ec07 173d 92f7 ca3d eb57 fcbd caf7 a3bd
000000d0: 3c9b a2bd 8b65 dd3b 915f a9bd 81f3 bbbd
000000e0: 2957 d23d fb42 b1bd f479 b63d 0e9a 8d39
000000f0: ec81 85bd 5339 f1bc 462d ebbd 339c d3bd
00000100: a234 943c ea49 393d 8279 ab3d bf1a cc3d
00000110: d1ad 0a3d a918 4bbc 084e 52bd 0c8f 923d
00000120: 4022 863c 4a2b aebd 63e7 8a3b 7e4e b1bd
00000130: 8388 673d 62e3 e7bd 894f 09be 7022 4e3c
00000140: 061d d13d bc95 8f3d ff2e 633d 19b6 cb3b
00000150: 8601 e1bd 28b6 b6bd f118 db3c 746f 903d
00000160: 3d04 21bc 90b4 cc3d 6f46 453d 19c4 c43c
00000170: 3337 d4bd a215 61bc f831 26bd 2036 de3d
00000180: 5343 71bd b958 a43d 1c42 5d3d d2ef 943d
00000190: 97d9 26bd 13ef 96bb 1003 09bd ac80 cdbd
000001a0: c2fe ec3c 7338 5f3d aab3 c2bd f70a fd3d
000001b0: 0427 c539 e7a5 a5bd 1057 c7bd 1fd9 d7bb
000001c0: 73a6 b8bb 0de7 7cbd 4107 e13d 77ec 913b
000001d0: 051c b9bd f132 b4bd 2a15 54bc b8e6 dabd
000001e0: 8db7 0b3e 8e9c ddbc f64f 2abd c012 a4bd
000001f0: 539f 513d 7728 17bd 960e a3bd 2857 c03d
00000200: 3b08 7b3c 8ac8 0c3d 1d86 f53d 89f3 e13d
00000210: 863e f13d 38f3 c83d 6979 d8bd 153b d6bd
00000220: 3014 c93d 430f 193d ec52 71bd 40dc bebd
00000230: 21d8 263d 3b7e eabd f98c b8bd 1abe 5d3d
00000240: d854 f03d 0de3 38bd f49d 46bd 2011 e2bd
00000250: 4902 bc3d e77c 0a3d 55c8 773d fe09 863d
00000260: 7b81 14bd d57b f43d 4401 80bd 4c43 003d
00000270: b0a3 cdbd 0c46 1b3d 9234 413d 2fe7 b3bd
00000280: 71df 1ebd 15fc a43d 4450 8abd db6d ef3d
00000290: 1ff3 a2bd f9db f4bd da59 a63d d335 e33d
000002a0: 8803 d1bd 98da d43c f186 13bc a1da fe3d
000002b0: 68e1 51bd 3cca 6f3d ec8f 56bd 2eff b0bd
000002c0: 70fe 95bd f950 2e3d 8b4a c4bc e84f dbbd
000002d0: c640 f43c 80f2 153d 5d17 e83d f1f2 093d
000002e0: b03a cd3c 7830 09bc 10d3 a23d 765d 883d
000002f0: 4232 f83d 50a1 ab3d 95ed f9bd b934 63bc
0.011865334 -0.08385905 0.045622524 0.09661174 0.1022594 -0.036411207 -0.10417257 -0.01679914
-0.12412737 0.086503595 -0.102844745 0.049081486 0.053095892 0.05608995 -0.032223437 0.11459223
-0.09076754 0.08855897 -0.016940806 0.072856866 -0.11429389 0.07394107 0.008914334 -0.0028007168
-0.11911157 0.08704695 -0.10501851 -0.021337274 0.114849746 -0.100486875 -0.09614991 0.079315566
0.11427161 -0.007154593 -0.11550291 -0.043854367 -0.06392315 -0.030245602 -0.020508783 0.05354583
-0.066928916 -0.098012805 -0.09492388 0.10048949 0.044528212 -0.026352046 0.100830905 0.02514422
0.03687279 0.099105015 -0.123214565 -0.080062464 -0.07939765 0.0067564896 -0.08270181 -0.09177304
0.10270531 -0.08655354 0.089099795 0.00027008395 -0.06518921 -0.02944628 -0.114832446 -0.10332527
0.018091504 0.045236506 0.08372785 0.09966039 0.03385717 -0.012396016 -0.051343948 0.0715619
0.016373754 -0.085043505 0.004239009 -0.08657549 0.056526672 -0.11322667 -0.13409247 0.012581453
0.10210614 0.070109814 0.05546474 0.006216776 -0.10986619 -0.08921462 0.026745291 0.07052508
-0.009827671 0.09995377 0.048162874 0.024019288 -0.10362091 -0.013738068 -0.040574998 0.10850167
-0.058902096 0.08024735 0.054018125 0.072723046 -0.040734854 -0.0046061366 -0.033450186 -0.10034308
0.028930072 0.054497194 -0.095069245 0.12355607 0.00037603837 -0.08088284 -0.09733403 -0.006587162
-0.0056350767 -0.061743785 0.10987712 0.0044532376 -0.090385474 -0.08798779 -0.012944499 -0.10688537
0.13644238 -0.02705219 -0.041580163 -0.08011389 0.051177334 -0.036903825 -0.079617664 0.09391624
0.0153217865 0.034370936 0.11988471 0.11032779 0.117795035 0.09812015 -0.10570032 -0.10460488
0.098183036 0.03736807 -0.05891697 -0.09319353 0.04073346 -0.11449858 -0.090112634 0.054136373
0.11734933 -0.045138407 -0.04849048 -0.110384226 0.09180123 0.033810522 0.060493786 0.065448746
-0.036256295 0.119376816 -0.062502414 0.03131418 -0.100409865 0.0379086 0.047169276 -0.08784329
-0.03878731 0.08055893 -0.06753591 0.11690875 -0.07956528 -0.11956019 0.081226066 0.110942505
-0.10205752 0.02598314 -0.0090043405 0.12444044 -0.051240355 0.058542475 -0.05238335 -0.08642422
-0.07323921 0.04255769 -0.023961326 -0.107086 0.029816043 0.03660822 0.11332581 0.033678953
0.025052398 -0.008373372 0.07950413 0.06658451 0.12118961 0.08380377 -0.12203518 -0.0138675505

gru.bias_hh_l0 f4 [192]
00000000: 5ead d3bd dae0 ff3d 8efc 863d df12 4a3d
00000010: d586 993d bcf6 7cbd 91c8 8c3d 2da5 aebc
00000020: c25e a6ba 1cd3 60bd 07ad 0c3d ccec 813d
00000030: 82c4 d33d ed2b 6e3d f3d6 5ebd 8c40 35bd
00000040: 1f99 02bd 11d1 af3d 5918 e0bd 0d6b 223d
00000050: 3ac5 b33d 3a95 2a3d 3242 b43d 540a 75bd
00000060: 376b 22bd aa56 eebc bf57 f93d 4946 d9bd
00000070: e015 97bd e4e4 4abc 1b09 53bc ad02 3e3d
00000080: 8e80 663d d192 f13d 404e f53d 8d25 0a3d
00000090: ce41 eebc 777b 48bc 91d4 2d3d ebdd 8c3d
000000a0: 700d adbd b866 5cbc c60b abbd 5b10 e33d
000000b0: 9032 88bc 1947 94bd 75e3 663d 6fc9 dfbd
000000c0: 95f7 cb3d 76cc 283c 60ac ee3d b6f8 15bd
000000d0: daa1 a9bd a924 cd3d 2544 aa3d a343 de3d
000000e0: aca5 f4bd cb58 d83d bf0d b43d dd29 d23d
000000f0: c346 1ebd 2df2 2d3d 974d f63b 6517 e9bd
00000100: 4b43 8e3d 86ef 533d 7261 fb3d 6dd9 8fbb
00000110: ef2e e53d 22f4 c93d 2e52 c13c 7e87 cbbd
00000120: 3e2d a63d 3ae7 95bd 1979 cc3b b2c0 e93d
00000130: 74c4 4abc 2f32 073d fe7f 5bbd 37fe 533c
00000140: b875 01bd e563 c4bd c57e bcbd 3014 cbbd
00000150: c1c7 00be a7a4 013d 7ff6 963d b0e9 f8bd
00000160: 074a f83b 8afa 313c b1c3 813d 726c ff3d
00000170: d3e1 dc3c f3ef 06be 7ae2 babd 9097 a3bd
00000180: 819f 9d3d a192 a4bd 4226 d0bd 8d9f 4cbd
00000190: 48de ab3d f48d 433d dded 8a3d 1ccc 903d
000001a0: e15a d53d 934a a9bd a375 d4bd 9741 bdbd
000001b0: d657 d33d 6f47 b23d 10a0 68bd 4dc9 27bc
000001c0: 704b 98bd 9c6e 8abd fd28 bdbd f788 a0bd
000001d0: 05b9 8ebd d845 033b 7978 05bd 6818 cebc
000001e0: 94e7 29bd 0c6c dabd 87cd b53d 6881 20bd
000001f0: ec81 403c 55df d13d fd0f 0ebc 5429 dc3d
00000200: 0bca f3bd 28a7 6d3d 1d04 8a3a 5f9f 0b3d
00000210: a7e9 153d 84d1 e2bd 4741 95bd ad57 ca3c
00000220: e523 bebd 8b5f e7bd 616f a53d 7b75 d03c
00000230: 6a95 983d 402e 423d 540e 9ebc ff06 1c3c
00000240: 56d4 93bd bfc5 013d 41ee 2b3d 9b0b 90bb
00000250: 839b 0bbc 8384 a13c 3846 0e3d f15f 9abd
00000260: d2ff d43d 5bf9 1cbc 4b16 de3d aa58 cc3d
00000270: 04e1 4ebb b527 97bd a363 0f3d 76e4 aabd
00000280: 15fd 5b3c e8b1 2f3d d9c6 d63d d0e8 b33d
00000290: 7b7d e2bc b3eb f63b 7839 34bd bba6 503d
000002a0: 3690 edbd 1249 18bd 4e6e a2bd faa8 bdbd
000002b0: 359c b73d edad 713d 7c0f c53a ae1e ad3d
000002c0: 2ba3 babb 339a ccbc fac2 5bbd 65e1 cdbb
000002d0: 5bec cc3d 13c7 70bd 6e95 dc3d adf4 01be
000002e0: 5428 253d b7ba be3d f808 f2bd 5cda 033c
000002f0: a945 c7bd 033a d6bd be54 ce3d e435 ca3d
-0.103358015 0.12494059 0.0659114 0.049334403 0.0749642 -0.06175874 0.068741925 -0.021318996
-0.0012693035 -0.05488883 0.0343447 0.063439935 0.10340215 0.05814736 -0.05440421 -0.04425101
-0.03188431 0.08584798 -0.10942144 0.039652873 0.08777852 0.04164622 0.08801688 -0.059824303
-0.03965303 -0.029094059 0.12174939 -0.10609109 -0.07377219 -0.012383673 -0.012880589 0.04638927
0.056274943 0.11795581 0.11977816 0.033727217 -0.029084112 -0.012236468 0.042439047 0.06878265
-0.084498286 -0.013452224 -0.08351855 0.11087104 -0.016625673 -0.07240123 0.056369264 -0.10927092
0.09959332 0.010302654 0.11653972 -0.036614142 -0.08282824 0.10016758 0.08313779 0.108527444
-0.11945662 0.10563811 0.08791684 0.10261891 -0.038641702 0.042467285 0.0075165736 -0.11381415
0.06946429 0.0517421 0.122744456 -0.004389933 0.111905925 0.09861018 0.023598757 -0.099379525
0.08114098 -0.073194936 0.006240022 0.11413707 -0.01237594 0.033006843 -0.05358886 0.0129390275
-0.031606406 -0.09589366 -0.09203867 -0.0991596 -0.125762 0.031651165 0.07371234 -0.12153947
0.007577184 0.010862956 0.06336153 0.12471856 0.02696315 -0.13177471 -0.09125228 -0.07987893
0.076964386 -0.0803578 -0.10163547 -0.049956847 0.08392006 0.0477428 0.0678365 0.07070181
0.104177244 -0.08266177 -0.10374 -0.09241026 0.10319488 0.08705031 -0.056793272 -0.010240865
-0.074362636 -0.06759378 -0.092363335 -0.07838624 -0.069688834 0.0020030644 -0.032585595 -0.025158122
-0.041480616 -0.106651396 0.08877092 -0.03918591 0.011749726 0.10247675 -0.008670804 0.1075007
-0.11903771 0.05802074 0.001052979 0.034087535 0.03659978 -0.11075118 -0.07287841 0.02470001
-0.0928419 -0.1129752 0.080778845 0.025446644 0.074503735 0.04740739 -0.019293942 0.009523152
-0.07218234 0.031682726 0.041975264 -0.0043959147 -0.008520964 0.019716507 0.034734935 -0.075378306
0.10400356 -0.009580935 0.10844096 0.09977849 -0.0031567225 -0.073806204 0.03500713 -0.08344357
0.013427039 0.042894274 0.10487146 0.0878464 -0.027647724 0.0075354218 -0.04400012 0.050940257
-0.11599772 -0.03717906 -0.07931195 -0.09260745 0.08965341 0.05900376 0.0015034522 0.08453117
-0.0056957207 -0.024975872 -0.05365274 -0.0062829726 0.10006019 -0.058783602 0.10770689 -0.12690993
0.040321663 0.09312957 -0.11818117 0.008047666 -0.097300835 -0.104602836 0.10074757 0.0987356

gru.weight_ih_l0_reverse f4 [192, 16]
00000000: 6a93 253c ef78 823b 8bf3 ec3c 79ee 77bc
00000010: 66ca d83d 3fad 923d 5d17 813d ba35 b9bd
00000020: f785 43bd b701 6fbc 683a 4ebd a4f6 eebd
00000030: 6c6c 933d 7488 db3d ad08 6d3d 8385 cfbb
00000040: 60b8 afbd 51ef 7abd 470a c53c 34ed d6bd
00000050: d4b6 a73d c416 9a3c 0f97 aebc d1c6 f13b
00000060: d444 353b 8562 103c 6b9f c43d 4aa5 0fbc
00000070: 641c 353d 36d3 86bc bcbc 05be 3619 913d
00000080: 58fc 243d 733e f5bc 1ec8 af3c 76be adbc
00000090: a74b b5bd 3908 b63c 9262 00be b5c5 17bd
000000a0: 25fa 143d 9d39 05bd a1e6 583c 67b2 a33d
000000b0: b279 af3d 7242 a63d 7ba4 163d 649c a23d
000000c0: 78b2 92bd db99 02be b1f2 b83d 4832 8abd
000000d0: a2d2 01be c495 33bc ff0a 19bd aa07 8cbc
000000e0: b5dc 923a 721b 4e3d 1003 81bd fcbb cfbd
000000f0: 726c 473d 06be 01be 828d 013e 920c f7bd
00000100: 860d b4bc 75e1 dcbd fb01 db3d 80c3 89bd
00000110: 21f6 adbd ac2d 1d3d dfd0 a83c 0393 aa3d
00000120: d88b d3bc 655d c93b 64f1 8cbd 3a23 a6bd
00000130: 5af5 52bd 9e64 63bd 4f9f bbbd 4434 60bd
00000140: bcdd 66bd e0c2 673d d207 723d fa7d e63d
00000150: d00e f63d ad75 db3c 205f dc3d 613b 63b9
00000160: dd62 eabd 7e8c 473d 80ff b53d a999 9f3d
00000170: 884c 943d 7710 aa3d 4892 e33d fefc b43d
00000180: 6fd6 c9bc 48a8 bcbd 7cf6 7b3d 1752 bbbd
00000190: 62a7 d1bc 6970 a6bd de7b 17bb 9385 003d
000001a0: 89a3 dd3d 116c c2bd 32e1 46bd cdb4 653d
000001b0: 3be9 913d a81b adbd dd5c aebc c741 bd3c
000001c0: 38db ca3c b09a 0bbc 948d acbd 2d8d a5bd
000001d0: ef12 b0bb 84e6 f7bc e02a 413d 4fbd b1bd
000001e0: 97bd 4cbd 72f6 cfbd b43f 8f3d 4acc 5f3d
000001f0: 6716 ef3d 764a a03c 9e68 20bd ac94 c83d
00000200: 8397 febd ba19 0b3d 44b5 ed3c cc78 9a3d
00000210: 65c2 8f3d 161c 8cbd f636 bbbd 7516 f6bd
00000220: 2ffe c43d 79f9 e8bd c76e dc3c 6def 9ebd
00000230: a567 b33d 0d3a 843d d447 7a3b 6bf3 e83d
00000240: 131d 8f3d 1695 9c3d 415b 9ebb 171a 4dbd
00000250: 6d20 f73c dfcb cfbd 8e4c 4fbd a42a d9bd
00000260: 167d b93d d8da 103d 75a9 acbd d83e 6dbd
00000270: 8053 8c3d 026a 213d f53f d0ba 1fb0 3e3d
00000280: 7158 be3d 876f df3d 3b6f 4f3d f167 c3bd
00000290: 03bc 893d 8e34 f1bc 8695 a23b ce8f fa3d
000002a0: 94eb b6bc 3544 a63d abc2 f43d 8cad 26bd
000002b0: 93d3 ae3d 3fdc 79bd 9489 753d 6636 03bc
000002c0: 7938 14bd ea41 fa3b fb85 d8bc e430 4e3d
000002d0: 6550 b63d 23e0 fabd 80bf 97bd 75b6 e2bd
000002e0: a1d4 463d fb27 8abc 8546 9a3d 8668 933d
000002f0: 55e3 2bbd 337a 013e a355 e63d f23b c93d
00000300: 200b 063d d278 bf3d c89b b4bd f51f 243d
00000310: d4d8 cebd 928a b4bd 419b 4bbd 594d bc3d
00000320: d1cc af3d 1b24 05be cf44 c73d b6a0 4f3d
00000330: 6198 ca3d 0198 0a3a debc e6bc 0666 b6bd
00000340: d6c6 ee3d 3fc8 6abc 5a22 573d b30b f3bd
00000350: 50ad a2bd a6a4 d8bd d657 f43d 015a f13c
00000360: e303 86bd 96f8 593d 084f 3ebc 1b3e f23d
00000370: a7bf ac3d a868 b43d 7c85 753d 9083 6f3d
00000380: 15bf b33d 95f5 89bd ceab 803d bfdb 98bd
00000390: 6271 363d 57b3 a63c e832 8dbd 2154 d7bd
000003a0: 1377 a6bd 045f 6dbd 4f32 1ebd 43dc 913d
000003b0: e5f4 e13d 6109 18bd 89a9 c03c a5a0 d6bc
000003c0: 3bcf cf3c 52c6 a9bd 55c5 d7bd 30d6 4abd
000003d0: 064d fe3d ef16 e2bc 6517 d2bd 6364 a83d
000003e0: 16cb ec3d 79f8 f4bc 0069 133d bc48 cf3c
000003f0: 9ece ddbd 2228 c0bd 9860 8e3d 61c8 533d
0.010105947 0.0039817016 0.028924724 -0.01513254 0.105854794 0.0716195 0.06303284 -0.09043451
-0.04773518 -0.014587811 -0.05034867 -0.11668137 0.07198414 0.10719386 0.057869602 -0.0063330545
-0.085800886 -0.061263386 0.024052752 -0.10494462 0.081891686 0.018809684 -0.021312265 0.007378437
0.0027659433 0.008812551 0.09600719 -0.008767435 0.04421653 -0.016458135 -0.13060278 0.07084887
0.040279716 -0.029937005 0.021457728 -0.021208983 -0.0885232 0.022220718 -0.12537602 -0.037053782
0.03637137 -0.032525647 0.01323858 0.07993012 0.085681334 0.08118142 0.036777955 0.079399854
-0.071629465 -0.12754004 0.09030665 -0.06747872 -0.12678006 -0.010961 -0.037364002 -0.017093498
0.0011204692 0.050319143 -0.06299412 -0.10143277 0.048687406 -0.12670144 0.12651637 -0.120629445
-0.021979105 -0.1078519 0.10693737 -0.06726742 -0.08494211 0.038373634 0.02060741 0.083288215
-0.025823519 0.0061451667 -0.06881979 -0.08112188 -0.051503517 -0.055515878 -0.09161245 -0.054737344
-0.056363806 0.05658233 0.05908949 0.11254497 0.12014544 0.02678951 0.10760331 -0.00021670527
-0.11444638 0.04871797 0.088866234 0.0779298 0.0724116 0.08303922 0.11111885 0.08837317
-0.024638383 -0.092117846 0.061514363 -0.09146517 -0.02559251 -0.08126909 -0.0023114602 0.031377386
0.108222075 -0.09493268 -0.048554607 0.05608063 0.07124563 -0.08452541 -0.021284515 0.023102654
0.024762735 -0.008520767 -0.084254414 -0.08083568 -0.005373351 -0.030261286 0.04716003 -0.08678686
-0.049985494 -0.101544276 0.06994572 0.054638185 0.11674195 0.019566756 -0.03916227 0.09793982
-0.12431242 0.03396008 0.029017098 0.075425714 0.070195 -0.068412945 -0.09141342 -0.12016002
0.09618794 -0.11375708 0.026908292 -0.077605106 0.08760003 0.06456385 0.0038189786 0.11374553
0.06987967 0.076456234 -0.0048326557 -0.05007371 0.030166829 -0.10146307 -0.050610118 -0.10603836
0.090570614 0.035364956 -0.08430759 -0.05792126 0.06851864 0.039407738 -0.0015888201 0.04655468
0.092942126 0.10909944 0.050643187 -0.095413096 0.067253135 -0.029444005 0.0049616722 0.1223446
-0.02232913 0.08118478 0.119511925 -0.04069285 0.08536448 -0.06100106 0.059945658 -0.008008575
-0.03618667 0.007637252 -0.026431074 0.050339594 0.08902053 -0.12249782 -0.074095726 -0.11069957
0.048542622 -0.016864767 0.07532982 0.07197671 -0.041964848 0.12644272 0.11246803 0.09825887
0.032725453 0.093492165 -0.088187754 0.04006954 -0.100999504 -0.08815493 -0.04970861 0.091944404
0.085839875 -0.13002054 0.09729921 0.050690375 0.09892345 0.00052869326 -0.02816623 -0.08906178
0.11659019 -0.014329969 0.052522995 -0.11867466 -0.07943213 -0.10578279 0.11930816 0.029461863
-0.0654371 0.053215586 -0.011615522 0.11828252 0.08434992 0.08809024 0.059941754 0.058475077
0.087766804 -0.06736294 0.06282769 -0.07463788 0.044541724 0.020349188 -0.06894475 -0.10514093
-0.0812818 -0.057951942 -0.038622197 0.0712209 0.11033038 -0.03711832 0.02351834 -0.026199648
0.02536737 -0.0828978 -0.10535685 -0.04952067 0.12417035 -0.027598826 -0.102583684 0.08222272
0.11562173 -0.029903637 0.035988808 0.025303237 -0.10830425 -0.09382655 0.069520175 0.051704768

gru.weight_hh_l0_reverse f4 [192, 64]
00000000: c2cc 5f3d 3c09 463b 864e f5bd c2cb 21bd
00000010: fa2c bb3d 9e24 86bd ee60 dfbc f844 e5bd
00000020: b8ef c93d 800a 8ebc e0a6 cbbd 9817 86bd
00000030: 2e4a 6d3d 6648 b2bd 1ee7 e83d 20be 0e3d
00000040: 4a79 d9bd ba8b 653d e2d5 a13c 08cc 0a3d
00000050: 1ae7 ed3d 866d 8cbd dc24 3bbd 14a3 463d
00000060: 60b0 ca3d 66c4 d23d 8ce8 3abc d697 d0bd
00000070: 7216 a63a 42d7 ccbd a88f 09bd c4a2 923d
00000080: 2e94 61bd 3a0c a13d 90c2 f03d bc95 463a
00000090: 0c66 71bd c050 fb3d ba94 a83d 4238 293c
000000a0: 2aa8 9d3d 4241 c63d ee08 e93c 963e fd3d
000000b0: 0cc8 91bd 3851 08bc f0cf 0cbd 484b a13d
000000c0: a21c 2d3c 3020 aa3d 7a79 ea3d 1cd2 853d
000000d0: 90d6 903d a8d3 033c 06a8 e3ba ea64 cb3d
000000e0: bc3d c03d 1a43 d3bd 8a43 b3bd 1ea6 533d
000000f0: 28af 86b9 76f0 f0bd 201a 82bc a682 ec3b
00000100: 4e10 52bd be85 29bd 429f a33d d692 5b3c
00000110: 766c fb3d 8c20 cdbc dc0c b2bd 2a54 d2bd
00000120: b6de 9c3d 760b 84bd 942d 793d a611 5e3d
00000130: 0e8a 123d 3a0c 8b3d 38e1 fd3c 96ab 623c
00000140: 0240 85bd 9cca 983d bcdc 33bb 2695 183d
00000150: 70c6 74bc 6c2b 393d b4b8 383d aed7 13bd
00000160: e4bb 90bd 7a0a 18bd 5ad9 fa3d 56c1 2c3d
00000170: 3636 813d 9cb7 40bd 74b7 89bd 72b3 a33d
00000180: f6e9 5a3d 0c6d 9c3d 5809 babd c402 903d
00000190: e6be bfbd fad1 a13d f2e1 bfbd 441b efbd
000001a0: 5203 2bbd 524a 933b b863 ae3d 7a29 c4bd
000001b0: e6b8 abbd 400e fa3d be2b b33d de3c 2bbd
000001c0: 9e70 11bd 567e 5cbd ac66 e0bd 70ad ba3d
000001d0: 3e26 803d b657 903d 8c53 b1bd a622 e4bb
000001e0: b041 773c 3cce ae3d a61f c8bd 94e8 8dbd
000001f0: 720d 27bc 64af e43d 0023 413d 84a5 a0bd
00000200: 42b0 68bd 18e1 fa3d c0ad 93bd 16fc e63d
00000210: a640 e7bc 96ca fa3d 0a9f b6bd fa13 a33c
00000220: 3284 1c3b 56ea d43d c8cd f7bd da66 9cbc
00000230: 5463 72bd ce6e a9bd 42b3 293d 2e72 683d
00000240: 2683 d53d 902f f6bd 1280 95bb 5665 8ebd
00000250: 6070 83bc b08c 76bd b680 cebd f4a8 ef3d
00000260: 6ce4 c43c 6211 d7bd 9090 373d 1c5c 3dbc
00000270: 68e7 703d aae0 6d3d ae34 a8bd 484e 9bbd
00000280: 9207 2e3d 14e0 0a3d e62b de3c c09e f33c
00000290: d0cc fdbb 4202 9cbd f48b 073d 2eac a43d
000002a0: 524a 97bd b60c 8fbd ba6d df3d 766b 64bd
000002b0: 4035 713d 38c7 0bbd 40ff 86bd ecbd ad3d
000002c0: a285 9e3d decd d33c 9063 d93d 7459 09bd
000002d0: 8e4b 883d 2c0b ccbc aaa4 8ebd 68a3 87bc
000002e0: 2aaa 1fbd 9a8c dabd 809e febc 62ff c13d
000002f0: 0413 05bd 86a5 edbd 8e2c be3d 2c55 b0bc
00000300: 6c18 343d 34de 0e3d ea9d a63d 7c9e 373b
00000310: b08d fb3b 1c90 d53d ac27 953d 70ff 8bbc
00000320: b622 143d 468c ef3c 5672 f3bd 5e9a d03c
00000330: f63b 5dbc 1c9e cfbb 0e60 603d e424 85bd
00000340: 9e70 eb3d 8ab5 1d3d a465 d73d 7cc1 3fbb
00000350: 2cf9 33bd 867c efbc 4ca7 3ebc 481b 003c
00000360: 3810 813c 3eef 183d a8a9 7c3d bc33 49bb
00000370: ca6d bfbd 323a 96bb d6a9 ae3d fe20 db3d
00000380: 7ac1 253d 4c35 873d 8608 ec3b b6e5 e2bd
00000390: 722d b63d fefe 1abd 2adb d23d f6f9 123d
000003a0: 86b1 e43d 5667 69bc 8032 8c3d 6461 9c3d
000003b0: b02f bf3d 105b 86bd 46e4 5d3c 1c4b 313d
000003c0: 6693 d4bb 9628 5bbd ea44 69bd 084a adbd
000003d0: 18ca 43bd 9ece db3c 0e99 d2bd 5cd1 fc3d
000003e0: c67d e03c 84ae 933d 0cda b73c 86f9 233d
000003f0: 6423 a93d c2e9 febd ce47 22bd 8244 63bd
0.05463863 0.0030217906 -0.11977868 -0.03950096 0.09139438 -0.06549953 -0.0272679 -0.11194795
0.09860176 -0.017338991 -0.09943938 -0.06547469 0.05793207 -0.08705215 0.11372207 0.034849286
-0.10618837 0.056041457 0.019755308 0.033885986 0.11616345 -0.068568274 -0.04568945 0.048495367
0.09896922 0.10291366 -0.011407983 -0.101852104 0.0012671484 -0.10001995 -0.033584267 0.07159951
-0.055072956 0.0786366 0.1175586 0.0007575413 -0.05893521 0.12271261 0.08231492 0.010328354
0.076980904 0.09680416 0.02844664 0.12365453 -0.07118234 -0.008320145 -0.034377992 0.07875687
0.010565909 0.083069205 0.11448951 0.06534216 0.070721745 0.008046068 -0.00173688 0.09931357
0.09386775 -0.10315533 -0.087531164 0.051672094 -0.00025688973 -0.11764614 -0.015881598 0.007217723
-0.05128508 -0.041387312 0.079893604 0.013401708 0.12276547 -0.025039934 -0.08693859 -0.10269959
0.07659666 -0.064474985 0.060834482 0.05421605 0.03577619 0.067894414 0.030991182 0.013834855
-0.06506349 0.0746052 -0.00274448 0.037251614 -0.014939889 0.045207426 0.04509802 -0.03609436
-0.07067087 -0.037119366 0.12248488 0.042176567 0.06309168 -0.047050104 -0.06724444 0.07993211
0.05344578 0.076379865 -0.090838134 0.070317775 -0.09362583 0.07901378 -0.093692675 -0.116751224
-0.041751213 0.0044949437 0.085151136 -0.095782235 -0.08384876 0.12209749 0.087485775 -0.041806094
-0.03550779 -0.05383142 -0.10957083 0.09115112 0.06257294 0.070479795 -0.086585134 -0.006962138
0.015091345 0.0853543 -0.097716615 -0.069291264 -0.010196077 0.111662656 0.04715252 -0.078440696
-0.056808718 0.122499645 -0.072108746 0.1127855 -0.028229069 0.122456715 -0.08917053 0.019906987
0.0023882505 0.103962585 -0.120997965 -0.019092012 -0.059176758 -0.082730874 0.04143072 0.056749515
0.10425405 -0.120207906 -0.0045623863 -0.06952922 -0.016044796 -0.060192764 -0.100831434 0.11702147
0.024034701 -0.105013624 0.0448156 -0.011557605 0.058814436 0.058075584 -0.08213173 -0.0758329
0.04248769 0.033905104 0.027120542 0.029738784 -0.007745363 -0.07617618 0.033092454 0.08040653
-0.07387222 -0.06984846 0.109096006 -0.055766545 0.058888674 -0.034125537 -0.06591654 0.0848349
0.07740332 0.025855001 0.10614693 -0.033532575 0.06655036 -0.02490767 -0.06965001 -0.01655741
-0.03898064 -0.10671349 -0.031081438 0.094725385 -0.032488838 -0.11603837 0.09285842 -0.021524988
0.043968603 0.03487988 0.081355885 0.0028018048 0.0076768026 0.10427877 0.072829574 -0.017089576
0.036165915 0.029241692 -0.11887042 0.025464233 -0.013503065 -0.006335987 0.054779105 -0.06501177
0.114960894 0.038503207 0.10517433 -0.0029259613 -0.0439388 -0.029234182 -0.011636566 0.007819004
0.015754804 0.037337534 0.061685234 -0.0030701002 -0.093471125 -0.004584574 0.085284874 0.10699652
0.040467717 0.066019624 0.0072031645 -0.1107897 0.08895387 -0.037840836 0.102957085 0.035882913
0.111666724 -0.014245829 0.068455696 0.07635763 0.093352675 -0.065603375 0.013543194 0.04328452
-0.006487298 -0.053505503 -0.056950487 -0.08461386 -0.047800153 0.026831921 -0.10283099 0.1234462
0.027403723 0.072110206 0.02244284 0.040032886 0.08258703 -0.124469295 -0.03961926 -0.055485256

gru.bias_ih_l0_reverse f4 [192]
00000000: 348a acbd 21fe f03d 45ef 8e3d ee87 673d
00000010: 699a a93c 172d 64bd d07e 863d 5c80 d4bd
00000020: a634 9cbd db2a fabb 5c1a dc3d a434 d2bd
00000030: e98c 50bd 9f0c 683d 451f 8fbc e882 c63d
00000040: 793e 5fbc 6875 74bd b60f 09bd e39b 783d
00000050: bac5 d33d 8c80 b53c 9413 d0bc 3147 a83d
00000060: e3c8 ab3d 619f 95bd 80f8 1b3d f780 6f3a
00000070: eee9 eabd c647 d73d 19b2 683d ca24 9cbc
00000080: 8aea 95bd 3a4c 55bd 9e94 923d 3d42 c73d
00000090: a176 bb3d 15dc c63d 1c79 a03d 6297 6fbd
000000a0: 5b48 13bd eadd ddbc 6107 bf3d ff7e 8f3c
000000b0: b09f 98b9 f96c 34bd 06bf 1c3d f600 d03d
000000c0: a4c8 003d da33 d63b f1af 453c 1e4b 01be
000000d0: d373 ddbd 296c 703c 6975 c0bc 2d12 40bd
000000e0: 86c0 19bb 9a30 863d 12bb 1fbd de88 fe3d
000000f0: 16c8 a63d a94d 31bd 922e f23d e439 863d
00000100: 9e56 6b3c a579 01be 0a70 dbbd edde c23d
00000110: 122c f4bd 34ba 8d3d 9f10 dcbd e179 d43c
00000120: 6e0c fc3c c291 01bd f5a0 c1bc 9b04 82bd
00000130: 5317 f83d ae5f 8a3d 8a46 b43d dec7 9bbc
00000140: 2254 233d 3eb5 0abd 038e 873d e7ae b6bd
00000150: e0d4 bc3d 19dd 01be 4e6d 4a3d eccf c0bc
00000160: f66f 363d 4814 fabd f01a 5bbd 2352 af3d
00000170: 4292 cbbd 7eb9 2c3d 7f7f ebbd 89b8 b1bd
00000180: ccb4 a8bd b9ed 21bd 57b5 f4bd 871c d03d
00000190: 8837 1fbd cdd3 573c 74ce 923d 8ac8 b23d
000001a0: 3017 08bb cca5 91bd 5aa0 a3bd a961 b93d
000001b0: 9da6 1dbc 3f1d 943d 622d ad3d 7b44 423d
000001c0: 4152 d8bb 26fb 16bc 85eb 1f3d 6c92 f63a
000001d0: 2beb ff3d 0455 89bc c337 ef3d 71bd e53d
000001e0: 6af6 55bd 037d dabd 802c b4bd 45d0 ebbd
000001f0: 4e29 48bd efd3 9cbd 92c5 83bd 3a18 6cbd
00000200: 913e c3bd bab8 75bd 9773 363d 372e 9bbb
00000210: 3016 803c 6652 fe3d fa44 833d a5f1 b0bd
00000220: 131d 0f3d 3882 b13d 9b95 fbbc db29 c13d
00000230: b519 5f3d ea54 cd3d d932 f1bd fb75 693d
00000240: 89a8 9dbd cfb6 363b 6447 76bd fc83 d23c
00000250: 9782 f73d 33d0 a43d 79dc bdbd b56a 403d
00000260: 7c12 d63d 7837 a63d 2116 d23d 2002 683c
00000270: 4ede 96bd edb7 c9bd e603 2fbd ac62 c43d
00000280: 1024 9bbd fbd2 be3d 3c95 47bb 5fbb 9f3d
00000290: 8068 223d 855d 9c3d 3dfa 8b3d eaa4 193d
000002a0: 0d57 e73d 173e afbc 9a23 493d 29bf 89bd
000002b0: 58e5 d13d be91 3b3d bde4 3ebd 8b01 683d
000002c0: 6686 2b3b caef 88bd ff4c 333c 04e2 98bd
000002d0: 5224 5d3d eb06 b4bc a593 f3bd e4b3 d23d
000002e0: fbf1 fc3c 91c4 a23d 7998 34bd 8baf 3abd
000002f0: 0f22 3f3d c36a a83d ca5d a6bc 8cb3 84bd
-0.08424798 0.11767221 0.06979231 0.056526117 0.020703511 -0.055707064 0.06567156 -0.10376045
-0.076272294 -0.0076345033 0.10747215 -0.10263947 -0.050915632 0.05665266 -0.017470965 0.09692937
-0.0136257345 -0.05968228 -0.03346225 0.06069554 0.10340448 0.022156022 -0.02539996 0.08216704
0.083879255 -0.0730579 0.038078785 0.0009136344 -0.114704 0.105117366 0.056810472 -0.019060511
-0.073201254 -0.05207465 0.07157253 0.09729431 0.09153486 0.09709946 0.078356 -0.05849398
-0.035957675 -0.027083356 0.09327579 0.017516611 -0.00029110676 -0.044049237 0.03826811 0.10156433
0.031441346 0.006536943 0.0120658735 -0.12626311 -0.10813107 0.014674225 -0.023493486 -0.046892334
-0.00234607 0.06552239 -0.038996764 0.12428449 0.08143632 -0.043286953 0.11825289 0.065540105
0.014363913 -0.1264406 -0.10714729 0.09515176 -0.11922468 0.06920281 -0.10745358 0.025937023
0.030767646 -0.031633146 -0.02363632 -0.06348535 0.12113824 0.06756531 0.08802517 -0.019016203
0.039875157 -0.033864252 0.066188835 -0.08920079 0.0922029 -0.12681998 0.049420647 -0.023536645
0.044540368 -0.122108996 -0.053492486 0.08560588 -0.09940006 0.042169087 -0.11498927 -0.086777754
-0.08237609 -0.03953335 -0.1194865 0.10161691 -0.038871318 0.013173056 0.07168284 0.08729656
-0.0020765774 -0.07111701 -0.07989569 0.0905183 -0.009622243 0.07232141 0.08455922 0.04742859
-0.0066016023 -0.009215152 0.03904297 0.0018811948 0.124960266 -0.016764171 0.116805576 0.11217774
-0.052236952 -0.10668375 -0.0879755 -0.11514334 -0.048867516 -0.076576106 -0.06434168 -0.05764029
-0.09533418 -0.059990622 0.04454383 -0.004735734 0.01563558 0.1241806 0.064096406 -0.0863984
0.034939837 0.086674154 -0.030710986 0.094318114 0.054467876 0.10025962 -0.117772765 0.05699728
-0.07698161 0.0027879959 -0.060126677 0.0256977 0.12085455 0.08047523 -0.092705674 0.046976764
0.10452744 0.081160486 0.10258127 0.014160663 -0.0736662 -0.09849534 -0.042728327 0.09589133
-0.07575238 0.09317585 -0.003045394 0.0779941 0.03965044 0.07635025 0.068348385 0.03751079
0.112959005 -0.021391911 0.049106218 -0.06725914 0.10248822 0.045793287 -0.04660486 0.056642096
0.0026172637 -0.06686361 0.01094365 -0.07464984 0.053989716 -0.021975955 -0.11893395 0.10288218
0.030877104 0.07947648 -0.04409072 -0.045577567 0.04666334 0.08223488 -0.020308394 -0.06479558
