Code/Archive/models/exo_conv_bigru.pt (torch, 168535 bytes, 15 tensors)

conv.0.weight f4 [8, 1, 9]
00000000: f35e 9ebe c2c9 a13d 026e a1be c1b5 8e3b
00000010: 3741 0abb 65ba 513d 4ba9 f83b b9cf a23e
00000020: ed99 0abe 7b60 50be c130 7ebe 057c d7bd
00000030: f176 11bd 1279 3fbd 36e1 8fbc 34b4 113e
00000040: fda4 d7bd b11c 9ebe e2f3 c73d 4a31 8d3e
00000050: b51f 14be 4074 8cbd 2df8 83be 3a91 953e
00000060: 16e7 e13c edb0 5dbe e299 973e 36bf a5be
00000070: 09be 9c3e 1d9f 85be fee8 583e 7ef6 4a3d
00000080: acb3 9ebe 4a6f e03d 8619 86bd 372c e3bd
00000090: ccae 32be 7745 f3bd 1e26 9ebc a5cb 9f3e
000000a0: 7758 79be ff3c 6dbe ee14 58be 7e0c 403e
000000b0: 33b0 3fbe b81f a13e 4a8b 6bbe ee88 073e
000000c0: 16e5 833e 3355 3e3e 54a6 0fbe dd54 13bd
000000d0: 4c62 063e eda0 98be 46b5 91be cb75 42be
000000e0: 45e2 70be 76e7 a8be a60d 80be 87e5 84be
000000f0: 90f7 523d a33d 2b3d 2adb babd 29aa 04be
00000100: f3e2 d8bc f233 21bc b987 f63d 80b8 2c3e
00000110: 2e53 a63e d284 a43e 06f5 c6bc 268f da3d
-0.30931816 0.078998104 -0.31529242 0.004355163 -0.0021096 0.05120315 0.0075885407 0.31799105
-0.1353528 -0.20349304 -0.24823286 -0.10521702 -0.035513822 -0.04674632 -0.017563444 0.14228898
-0.10529516 -0.30881265 0.09763314 0.27576667 -0.1446522 -0.068581104 -0.2577528 0.29212362
0.02757601 -0.21649523 0.2960959 -0.32372445 0.30613735 -0.26097956 0.2118263 0.04955148
-0.30996454 0.10958727 -0.06547837 -0.11092418 -0.17449492 -0.11878484 -0.019305285 0.31210056
-0.24350153 -0.231678 -0.21101734 0.18754765 -0.18719558 0.31469512 -0.23002353 0.13235828
0.25760716 0.18587188 -0.14028293 -0.035969604 0.13123435 -0.29810277 -0.28458613 -0.18990247
-0.23523815 -0.3298909 -0.25010413 -0.25956365 0.051505625 0.04180683 -0.091238335 -0.12955536
-0.026475405 -0.009839045 0.12037606 0.16867256 0.32485336 0.32132584 -0.024286758 0.10671835

conv.0.bias f4 [8]
00000000: cd19 593e 4156 753d 979a 64be 7539 823e
00000010: b81f 0cbe c504 483e cdd6 583e ab7e 7d3d
0.21201248 0.05989671 -0.22324596 0.2543446 -0.13683975 0.1953307 0.2117569 0.061888378

conv.3.weight f4 [16, 8, 9]
00000000: c58f 26bc 1de9 023d 5c2d 9a3d 50e0 dd3d
00000010: 54f0 debd 4a5e a8bd e853 e23c c7bf 283d
00000020: a790 4bbd 7749 2c3d 7a95 7cbd d48e 0fbd
00000030: eb6e 33bd 8b00 c33d 7c63 9ebc 6160 bcbd
00000040: e15a 953d e80c 4aba 14be b43d 92e7 1f3d
00000050: 9008 e8bd 9b3a 4c3d 58f4 d2bd 3db5 f2bd
00000060: 55d1 a43d 6d2b e73d a203 50bd cbec 15bd
00000070: 0461 d93d 8a61 b13d ae9e 9a3d 9343 ce3d
00000080: a927 e2bd 683e a5bd 57a5 a53d 9aa6 853c
00000090: b6c3 4c3d 2391 af3d f92d efbb ad22 bb3c
000000a0: 32de c93d f0eb 87bd 48f8 d93d f88c 9f3d
000000b0: 73e1 d3bd 9894 93bd d961 5f3d c822 8d3d
000000c0: 8fbe 9239 ea1e e73b e1e8 3dbb d7d6 9bbd
000000d0: 117c a8bd cbbc 41bd 6ab6 a3bd 5d02 7e3d
000000e0: 5fc2 a33c f08b c0bd 4032 e83d 19ea d4bd
000000f0: dd95 2e3d f528 7a3d 36c5 46bd 75fd ba3d
00000100: f037 cebd 90a4 6abd c3d1 ad3d 6b56 ea3d
00000110: 8dc4 e53d 545f bebc 2deb 4abd d79c 4e3b
00000120: 521a bebd d2fa c6bc 565c 28bd 4163 c33d
00000130: e49a c63d b5c5 e13d 77aa 94bd d3aa 203d
00000140: 6ec2 553d 0116 103d 4f68 96bd 326c 03bc
00000150: b189 c9bd e228 45bd 65b0 b13d c51a e6bd
00000160: 15a3 bb3d b363 cebd 906a 99bb 69db a9bd
00000170: 51df adbd 65c3 d53c 6ae0 f73c 467c 993b
00000180: 58d3 a23d 4d79 6dbd b270 823d 75f4 27bd
00000190: c5be 0a3d 9039 a73b 94cf 9cbd a013 373d
000001a0: 4a59 e1bd ad6f 803d f816 babc f86a e1bd
000001b0: 54d6 763d 6cc2 193d 76ff c43c 2ffe f8bc
000001c0: 9b55 7d3d c6e9 cd3d 95ba a6bb 24ab 963d
000001d0: 50f2 91bc 7ecb 16bd f0e3 eebc 945d e33d
000001e0: 13a3 2cbd f55a c7bd bdc6 35bd 1895 63bd
000001f0: 808d dc3d 180a 82bd b8f0 e2bd 129d a2bd
00000200: 26c8 ed3d b915 363d 62e1 7f3d f433 e23d
00000210: 614d fabc deca da3d 28c4 893d 376d e93d
00000220: c653 dcbd 536c 083d 9257 5bbd 301c cebd
00000230: 4537 2ebd 56e9 b0bc 0673 acbd ef5f a13d
00000240: 613f d5bd 7f64 f3bd 3174 bebd de77 e2bd
00000250: 744b ba3c 1ec5 c23c 54a6 6bbc 6da0 32bc
00000260: ea5b d33d 3f26 6b3c 3194 87bc 4213 473d
00000270: 7347 eabb de4c 83bd fe54 62bd dd61 b23c
00000280: ef21 28bd a182 40bd 970b f73b 79ac 533d
00000290: 0e02 91bd 772c 73bd ccb8 36bd 8a93 52bd
000002a0: 9a18 74bd 108e aa3d be49 d1bc 0e97 9d3b
000002b0: 6d41 c03b a3f7 863d 3af7 6fbd f014 a03d
000002c0: ddc4 c8bd 4171 d03d 33b6 54bc b803 8abd
000002d0: fcec d03d 59ec 753d 4f71 5fbc bdd0 153c
000002e0: 7fce b3bd 1f91 383d 0767 bf3d 69e7 163d
000002f0: 9761 1dbd 646f bb3d b8ed 8dbd 70fa b53d
00000300: 1937 a4bd c91e d5bd 3ab1 d8bd 988f 94ba
00000310: 6d21 893d 1d2b 44bc cc86 413d 70f5 7abd
00000320: 296e cebd d52e c4bd 7978 bdbd aef9 923c
00000330: d691 b1ba 1d69 2abd e866 2fbd 856a ea3d
00000340: b09a afbd bdd9 a83d 930e 87bd a70f a4bd
00000350: e5e5 8f3d e94c 74bc 0f20 973c 2fb4 b6bd
00000360: 8544 60bd 969c dfbd bf9d eb3d 4457 53bb
00000370: cca0 8b3d 0341 ae3d 6808 c4bd 1314 da3d
00000380: fc42 11bd a048 a7bd 1938 bb3d 623d 13bd
00000390: 3a2f 563c b27b 2c3d 823d dd3d f924 3d3d
000003a0: dbed b6bb b511 ce3d 2677 133c 367e 4e3d
000003b0: 6e07 d83d 5d27 c73d 6e78 babd a09d 2d3d
000003c0: 3f25 43bd 8251 5abc 6a8a d63d 2d0f bc3b
000003d0: 0870 c63d 98d1 82bd c53f abbd eaad 22bd
000003e0: 6e60 8f3d 5110 983d b207 833d b4f7 78bd
000003f0: 5058 e1bd 07bd af3d b568 b0bd 68e7 df3d
-0.010166113 0.031960595 0.07528183 0.108338 -0.10885683 -0.08221109 0.0276279 0.041198518
-0.049698498 0.04206225 -0.06166599 -0.03504832 -0.04380695 0.09521588 -0.019334547 -0.0919807
0.072927244 -0.00077076117 0.08825317 0.039039202 -0.11329758 0.049860578 -0.10300511 -0.11850975
0.080477394 0.1128758 -0.050784715 -0.036602776 0.106142074 0.08661182 0.07549797 0.100714825
-0.11042721 -0.08068544 0.08088177 0.016314793 0.049991332 0.085726045 -0.0072991815 0.022843683
0.098568335 -0.066367984 0.10643059 0.077905595 -0.103457354 -0.072060764 0.054536674 0.068913996
0.00027989267 0.007053246 -0.0028977918 -0.07609337 -0.08226789 -0.047299188 -0.07993777 0.062013973
0.019990144 -0.09401691 0.113377094 -0.10396213 0.04262339 0.061074216 -0.04852792 0.09130374
-0.10069263 -0.057285845 0.084872745 0.11442264 0.1121913 -0.023238815 -0.049540687 0.003152659
-0.09282364 -0.024289522 -0.041103683 0.095404156 0.09697512 0.11024038 -0.07259076 0.03922541
0.052187376 0.035177235 -0.07344114 -0.008021401 -0.09840716 -0.048134692 0.08676223 -0.11235575
0.09161965 -0.1007761 -0.0046818927 -0.08293802 -0.0848986 0.026094148 0.030258376 0.004684004
0.07950467 -0.05797701 0.06369151 -0.041004617 0.03387334 0.0051032975 -0.0765678 0.04469645
-0.11003359 0.062713005 -0.02271603 -0.11006731 0.060262993 0.03753893 0.024047595 -0.030394642
0.061849218 0.10054354 -0.0050881603 0.07356861 -0.017815739 -0.03681516 -0.029161423 0.11101833
-0.042147707 -0.097341456 -0.044378985 -0.05556211 0.107691765 -0.063495815 -0.1108107 -0.07940115
0.11610441 0.04445431 0.0624708 0.110450655 -0.030554475 0.10683225 0.06726867 0.11397784
-0.10758166 0.03330643 -0.05355031 -0.1006397 -0.042533178 -0.021595638 -0.084203765 0.07879626
-0.10412479 -0.118844025 -0.092995055 -0.11058019 0.022741057 0.023775633 -0.014382917 -0.010902506
0.103202656 0.01435238 -0.016550155 0.04860235 -0.0071496307 -0.06411146 -0.055256836 0.02177518
-0.041047987 -0.046999577 0.0075392234 0.051678155 -0.0708047 -0.059368577 -0.04460983 -0.051410235
-0.059593774 0.083278775 -0.025547858 0.004809267 0.0058671744 0.06590202 -0.058585383 0.078164935
-0.09803174 0.101778515 -0.012982893 -0.067389905 0.10201451 0.06003985 -0.013637855 0.009144005
-0.087796204 0.045060273 0.09345823 0.036841784 -0.038423147 0.091521055 -0.06930107 0.08885658
-0.080183215 -0.104062624 -0.10580678 -0.0011334298 0.066958286 -0.01197317 0.047247693 -0.061269224
-0.10079605 -0.09579245 -0.09251494 0.017941322 -0.0013547491 -0.04160415 -0.04282275 0.11446098
-0.08574426 0.08244655 -0.06594577 -0.08010798 0.07026271 -0.014910915 0.018447904 -0.08921086
-0.054752845 -0.10918538 0.11504697 -0.003224806 0.06817779 0.08508494 -0.09571916 0.1064836
-0.035464272 -0.08168149 0.09141559 -0.03594721 0.013072783 0.042110153 0.10802747 0.046177838
-0.005582554 0.10061971 0.009000575 0.050413333 0.10548292 0.09724305 -0.091050014 0.04238665
-0.047642943 -0.013325097 0.10475619 0.005739114 0.09689337 -0.06387633 -0.083617724 -0.03971664
0.070008144 0.07424987 0.06397952 -0.060783103 -0.110031724 0.08580976 -0.08613721 0.10932809

conv.3.bias f4 [16]
00000000: 3905 69bc f645 b33d 39ae cb3c 1201 c43c
00000010: 9fa1 2a3d 20b9 1d3b 0a38 aebd aa2e 18bb
00000020: 3f99 6b3d 258d b9bd 832f 943d e052 ed3d
00000030: c22b aebd d0d5 d93c b042 d23d 2282 e73d
-0.014222437 0.08753578 0.02486335 0.023926292 0.04165804 0.0024066642 -0.08506782 -0.0023221173
0.057519194 -0.09060124 0.07235625 0.11588073 -0.0850444 0.026591212 0.10266626 0.11304118

gru.weight_ih_l0 f4 [192, 16]
00000000: 31bf d73d ac2b 34bb e97b 2b3d 1aa1 763d
00000010: 5bee 943d 7ced 18bd 1028 02bc c890 a63a
00000020: 5e5a 353d c4e4 28bd 89f5 a7bd 9c7e 213d
00000030: c179 a9bd b351 f23d 22cb d93d 8ce2 2dbc
00000040: 6dd0 d13d e8b7 a7bd 4112 afbd 1762 ddbc
00000050: 6378 16bd 4c60 363d 0198 933d 4595 9b3c
00000060: f0a6 153d 982b 693d f043 7a3d 247a 123d
00000070: ee11 cabd 60ed dc3d 701c 4abd da1a f0bc
00000080: 7676 d9bd 0120 83bd 6f4d 34bd fb14 39bd
00000090: ff77 5fbd bc4b ba3d 69e2 cfbd e27f 903d
000000a0: ac30 313d 25df cc3c df53 42b9 f70e da3d
000000b0: cc1a c1bd 21b4 a8bd e3de 83bc f719 71ba
000000c0: 6873 fe3d 7453 fd3d 714d fbbd 413a 1b3d
000000d0: ae1e 6e3c af76 fc3d 0708 07bd 46d1 f13d
000000e0: be78 933a c53e 243d ee5a ae3d b0af d73d
000000f0: 23cd d33d 03a2 d93d 1c97 babd 7093 6a3d
00000100: 6b5d 60bc 0d80 ba3d 2a6b bb3c 6b40 2f3d
00000110: 1b1f a73d 1f23 8cbd 6d50 edb9 f59f f13c
00000120: eeed 3c3d bb6f d3bd 5d62 573d 424a 0f3d
00000130: 21d7 bb3d d788 f03c 2c1e a5bd ba65 dcbd
00000140: 422f 86bd 5b55 eebd ddc9 9dbd 343c 603d
00000150: 249b b1bd ebc4 a1bd 5dcc d53d eb8f f8bd
00000160: 99bc a7bb 4d2e 26bd b6df 7e3d 651f 6b3d
00000170: 7549 f83d 7285 d1bd abdb a93c df40 0c3d
00000180: 13a9 973d 3b0a 97bc 9025 b63d f273 d0bd
00000190: 6955 ebbc def2 b9bd 8631 aa3d cfd3 223d
000001a0: 2b04 15bd df12 e83d 1a14 c73d da68 ed3c
000001b0: 0921 59bc 25c4 cb3d 5002 de3d 2c78 c03d
000001c0: daa4 8a3d a772 0ebc ae16 c6bd 066f 603d
000001d0: 1a9b e33d 2e65 debd 1717 c7bd c62d 373d
000001e0: 2dd4 05bd ba42 b7bc 2c06 39bd 9688 013e
000001f0: fbe2 d8bd ca78 45bd d0ef 903c 276b f43c
00000200: 2ae9 233c 281f b2bc 98c1 44bd d6e4 a2bd
00000210: 1a4c ddbd bd94 4bbd 2539 aebd f951 f83d
00000220: 5d82 ccbd 6cab d7bd cab5 23bd 9b45 0dbd
00000230: d1ea 813d 64ed 823c 4160 243b cb5d 18bd
00000240: b4b9 dd3d e320 ab3d e647 cebc f380 1abc
00000250: 5341 b3bd 52fe d5bc 2fb9 d63d cdc0 e23c
00000260: c8e7 61bd 7dc5 b53c 8520 c2bd c15c f23d
00000270: de25 4b3d 95ae b13c a192 c1bd f854 f43c
00000280: 72a1 a1bd af4c 483d e210 98bc b307 50bd
00000290: 80e1 b6bd 7944 283d b287 cfbd 14fa 5ebd
000002a0: 405c a0bb 1deb 2a3d 9f37 01ba 8285 72bd
000002b0: 5bc0 00bd 78cc 8d3d e464 cfbd 8989 953d
000002c0: fbc6 c1bd 72cd a43d a74c f33c befc f7bc
000002d0: 6650 cc3c f600 33bd 9c01 97bd 0ab5 09bd
000002e0: 8958 d43d 70a6 293d a1a5 ff3d 2910 9dbc
000002f0: 9ec7 82bd 49cb 013c f5ed 9abc 0766 d73c
00000300: bfd2 ba3d a632 0ebc ef38 863d df86 be3d
00000310: 07b5 36bd 5755 af3c d50e cabd a205 2f3c
00000320: 0be6 663d 5b44 32bc cd5f b8bd a796 b13d
00000330: 42d3 a33d 4e05 d43b 2624 083d 29ef 2fbd
00000340: cf4c 6dbd 1824 9ebd 54a6 b43d 133c b7bc
00000350: 4334 c23c 0e6e f13c 13c7 513d eb03 c63d
00000360: b399 b5bd c06a c53d b6a0 cdbc a8f0 d13d
00000370: 3897 c8bd 9319 c53d 1370 ba3d cd1f b83d
00000380: 4ccf f33c f74d 06bd 2036 e03d 1afa ebbc
00000390: 8467 b33d 568e c8bc 1f41 cfbc efb3 803d
000003a0: f57b 8e3d e444 323d 9c1b 51bd 7443 f03c
000003b0: 5964 86bb 4edf e63d ea3d ce3d 4099 d43d
000003c0: 4109 333c 2416 80bd 1755 8e3d 8f5b 573d
000003d0: 66b3 873d 2de2 d9bd 4504 353d c6ca e4bd
000003e0: 5f19 943d 0524 563d d563 8a3d 7d42 e5b9
000003f0: 9f6d c13c 9856 933d 9faa c63c db32 853d
0.10534514 -0.002749185 0.041866217 0.060212232 0.07272025 -0.037335858 -0.007944122 0.0012707943
0.044275634 -0.041233793 -0.08201129 0.039427385 -0.08275176 0.11831989 0.10634448 -0.010613095
0.10244832 -0.08189374 -0.085484035 -0.027024312 -0.036735903 0.04452543 0.07206727 0.018992076
0.036536157 0.05692634 0.061099946 0.035761014 -0.09866701 0.10787463 -0.049343526 -0.029309679
-0.10618298 -0.06402589 -0.04401916 -0.045186024 -0.054557797 0.090964764 -0.10150606 0.07055642
0.043259308 0.025008747 -0.00018532526 0.106473856 -0.09428939 -0.08237482 -0.016097492 -0.00091972895
0.12424356 0.12369433 -0.1227063 0.037897352 0.014533682 0.123273246 -0.03296664 0.11807494
0.0011251194 0.040098924 0.08513437 0.105315566 0.10341861 0.106266044 -0.09110853 0.057269514
-0.013694148 0.09106455 0.022878248 0.042786043 0.0816023 -0.06842636 -0.00045264084 0.029495219
0.046125345 -0.10324045 0.05258404 0.034982927 0.09171892 0.029362125 -0.080623955 -0.1076159
-0.065519825 -0.11637374 -0.07704518 0.054744914 -0.08672169 -0.07898887 0.1043937 -0.12136825
-0.005118918 -0.0405715 0.062225066 0.057402987 0.12123386 -0.10230531 0.020734629 0.034241553
0.07405295 -0.018437495 0.08893883 -0.10178365 -0.02872725 -0.09079526 0.08310227 0.039752778
-0.036380928 0.113317244 0.09720631 0.028980661 -0.013252505 0.09949521 0.10840285 0.09397921
0.06769724 -0.008694327 -0.096722946 0.05479338 0.11113568 -0.10859142 -0.09721201 0.044721387
-0.03267305 -0.022370685 -0.0451719 0.1264976 -0.10590168 -0.048210897 0.017692477 0.02983625
0.010004321 -0.021743372 -0.048036188 -0.07953803 -0.10805531 -0.049702395 -0.08506993 0.1212501
-0.09985802 -0.10530743 -0.03996829 -0.03449021 0.06343616 0.015982337 0.0025081786 -0.037198823
0.10826436 0.08355882 -0.025180768 -0.009430158 -0.08752694 -0.026122246 0.1048454 0.027679825
-0.055152684 0.022188896 -0.09478859 0.11834098 0.04959666 0.021689693 -0.09451795 0.029825673
-0.078921214 0.048901256 -0.018562738 -0.050788593 -0.089297295 0.041080926 -0.10133304 -0.05443771
-0.0048938096 0.041728128 -0.00049292477 -0.059209354 -0.031433444 0.06923765 -0.10126665 0.073016234
-0.09461781 0.08046998 0.029699637 -0.030271884 0.02494068 -0.04370209 -0.07373354 -0.033619918
0.10368449 0.041418493 0.12482763 -0.019172745 -0.0638573 0.007922002 -0.018912295 0.026293768
0.09122228 -0.008679068 0.06553828 0.09303068 -0.044606235 0.021402998 -0.0986611 0.010682495
0.05637173 -0.010880555 -0.090026475 0.08671313 0.079992786 0.006470359 0.0332376 -0.04295269
-0.05793458 -0.07721728 0.08820787 -0.022367513 0.023706561 0.029471423 0.051215243 0.09668716
-0.088672064 0.096395016 -0.025101047 0.1025098 -0.09794468 0.096240185 0.09103408 0.089904405
0.029761933 -0.032789197 0.109478235 -0.028805781 0.087599784 -0.024481934 -0.025299607 0.062843196
0.06957237 0.04352273 -0.05105172 0.02932904 -0.004101318 0.11273061 0.10070403 0.103807926
0.010927499 -0.06254223 0.06949823 0.05257755 0.066260144 -0.10638843 0.044193525 -0.111714885
0.07231402 0.052280445 0.06757323 -0.0004372782 0.023611842 0.07194251 0.02425128 0.065038405

gru.weight_hh_l0 f4 [192, 64]
00000000: 1504 efbd 8aa4 1dbd 42e1 acbd 7c45 d93c
00000010: 4ab9 8abd b938 c4bd a717 873d fd65 a4bd
00000020: 881e 3cba a891 f2bd 10b0 a0bd 43aa 9e3d
00000030: 0386 973d 1f18 0cbd 2630 f1bd 8de7 e83d
00000040: 30a8 603d 648e 82bd b058 f5bd e49d ec3d
00000050: 0f60 5e3d 01e2 333d 8712 f53c ed79 9fbc
00000060: 1bd5 453c 539e 753d 6a1d cbbd ff1c b1bb
00000070: e678 3dbb da6a 95bd 8b95 d9bd 348f 6cbc
00000080: 9580 68bd 7843 913d fec3 c5bc 96b2 433a
00000090: 3261 d8bd b54d d43c 8c5d 323d e374 c8bd
000000a0: 7caf 023d 0bcb bcbd 4edb 28bd 7462 95bb
000000b0: 8e1a a33d 2eb7 93bd c273 9c3d c419 e3bd
000000c0: bab7 093d a2ca 17bb 48ad b9bd 7d1f e73c
000000d0: 8e92 ff3c 1e8f a03d 4429 a13d f89f 573d
000000e0: df94 b8bd e4c7 873c fc1c dbbd 6250 7bbd
000000f0: 8aec e23d 325b f6bd cbd4 ea3d fc15 d3bd
00000100: 89dd 063c dd65 ea3b 9a0a 82bd ed99 8bbd
00000110: a04f a93b 61b9 ab3d 92cc b13d 74f8 d2ba
00000120: aa41 8f3d c98d 5bbc 5c1f cd3d 2338 e6bd
00000130: 0b74 993d 2037 f23d 5414 c9bd ffbf e8bd
00000140: d5d0 a8bd 5724 f73b 4748 c63d 1dca 9abd
00000150: ee27 7b3d e030 dd3d e76b c3bd 2e63 c2bd
00000160: 02a2 e5bd 8cb2 e63d 8a76 cdbd 5225 9c3d
00000170: f464 c5bc 313f 2a3d df0a be3d 82a4 fcbc
00000180: b0ce 2c3d 5481 46bb 3f34 193c df4d 803d
00000190: a1be 90bd 43a4 a8bd ad61 e53d 6d84 dc3d
000001a0: 57b6 c3bc 85de 013e accb b33d 734c 4f3d
000001b0: d71b cb3c a717 82bd 53ad 6fbc d521 353a
000001c0: 6665 3c3c c359 393c 4644 c6bd ce3c 00be
000001d0: 6a7c 54bd 1208 ccbd 3741 9b3d 6bb8 debd
000001e0: 2d57 e9bd fb40 463d 92b1 d6bd f758 50bd
000001f0: a69f 383d 0878 cd3d c3cc 063d bde6 fc3d
00000200: 4892 48bd 904e 90bd 869e b0bd 772e 0f3c
00000210: ef56 a53d 8aac fabd d812 3e3d 9142 f6bd
00000220: d494 82bc 5cb5 963d 3ba1 d5bd 947f f2bd
00000230: 4405 8cbd 05b3 a1bd 9320 96bc 26a8 aa3d
00000240: 5190 cd3d d909 163c 7be1 d3bd 6dc9 2b3d
00000250: a266 8dbd 42f0 6d3d 22aa d2bd 0028 90bd
00000260: 2790 09bd 21d2 fd3d da06 dabd 5cc5 293d
00000270: 7da1 dcbb c266 903d aea4 793d ac52 a1bd
00000280: bc70 8a3d d447 923d 36c6 553d f2be 08bc
00000290: 9478 35bb 9f48 b53d 0a73 5ebd 1426 be3d
000002a0: da4f 81bd 1b2b 9ebd 6fae 7cbd 57b3 d5bd
000002b0: 372b d43c 3d8b 233d 8a44 63bb 11c5 8f3d
000002c0: aae1 72bd d0fa aa3d 01ff 4cba 7588 843d
000002d0: aa2c 97bd 4fe8 64bd 7452 cbbc bbaa 5d3d
000002e0: 2684 00bc 8b9b b53d 93f4 9fbd acb6 91bd
000002f0: 2094 683d 66a7 be3d 9960 633d f03c b03d
00000300: 7b62 883d 4f7f b5bd a453 c43d 4483 48bd
00000310: b022 d83d 078d a8bc ee63 143d af49 93bd
00000320: 3141 a63d f6c6 583d b7c0 abbc 0306 fa3c
00000330: a428 ccbc 0312 113d aca4 a03b c48d d73d
00000340: 86fe 0cbd 2a8b e93d 5e0a ea3d 8202 fcbc
00000350: 9c4a 44bd 41b5 323d aa98 ecbd ec9d 933d
00000360: 2fb0 a93c 3ccc 05bc 1187 8d3d 482e 9f3d
00000370: bc8f 6c3c 9a3b c03b becb e03d 7d2a cd3c
00000380: 70b4 e43c 2199 cdbc b68e 4bbd 608f ca3c
00000390: af40 cb3c b783 2bbc 26eb 633d bb5a cebd
000003a0: 8451 c03d 5c74 e2bd f956 b93d 695d 95bd
000003b0: 1487 6d3d 7d34 4dbd 7a0f d8bd b587 53bd
000003c0: aef2 82bd e510 ff3d 3cee 0f3d 8c95 ecbd
000003d0: 4a5c a3bd 44e2 91bd cddf 4d3c f49f f33c
000003e0: e759 863d 42ae f03c b7a6 d13d a174 b4bd
000003f0: c713 da3a 8b64 663d 1be8 52bd 7e34 003e
-0.116707005 -0.038486995 -0.08441402 0.02652239 -0.06773622 -0.095811315 0.06596308 -0.08027265
-0.00071761804 -0.11844188 -0.07846081 0.077473186 0.073986076 -0.03420269 -0.11776762 0.1137229
0.054847896 -0.06374815 -0.119798064 0.11553553 0.054290827 0.043916706 0.029916061 -0.019467318
0.012074734 0.059965443 -0.0991772 -0.005405068 -0.0028911172 -0.07295771 -0.10624226 -0.014438439
-0.05676325 0.07092947 -0.024141308 0.0007465271 -0.105654135 0.02591596 0.043546245 -0.09787919
0.031905636 -0.09218415 -0.04122477 -0.0045588557 0.07964049 -0.07212673 0.076392666 -0.11088899
0.03362248 -0.002316155 -0.09066254 0.028213257 0.031197812 0.078397974 0.07869199 0.052642792
-0.0901277 0.016574807 -0.10698888 -0.061355956 0.110802725 -0.12029113 0.11466368 -0.103069276
0.008231529 0.0071532563 -0.06349678 -0.068164684 0.0051669627 0.083849676 0.08681597 -0.0016095773
0.06994946 -0.013400503 0.10015747 -0.11241176 0.074928366 0.118269205 -0.098183304 -0.11364745
-0.082429565 0.007542174 0.096817546 -0.07558081 0.061317377 0.10800338 -0.09542065 -0.09491573
-0.11212541 0.11264524 -0.10032375 0.07624306 -0.02409599 0.04156417 0.09279417 -0.030840162
0.0421893 -0.0030289488 0.009350835 0.06264853 -0.070676096 -0.082344554 0.11200271 0.10767446
-0.023890657 0.1268254 0.08779082 0.050610017 0.024793549 -0.063521676 -0.014628726 0.00069096434
0.011498785 0.011312905 -0.09680991 -0.12523195 -0.051876463 -0.09962477 0.07580798 -0.10875019
-0.113935806 0.048401814 -0.104830876 -0.050866093 0.045074128 0.1003266 0.03291012 0.12348697
-0.04896763 -0.070462346 -0.08623986 0.008739105 0.08073222 -0.122399405 0.04640469 -0.12024415
-0.015940107 0.0735881 -0.10431143 -0.1184074 -0.06836942 -0.078954734 -0.01832608 0.08332853
0.10037292 0.009157621 -0.10345741 0.04194014 -0.06904341 0.058090456 -0.102863565 -0.070388794
-0.03358474 0.123935945 -0.10645838 0.041447982 -0.006733118 0.070508495 0.060948066 -0.078770965
0.067597836 0.071426064 0.05219098 -0.008346306 -0.0027690278 0.08851742 -0.05430893 0.092846066
-0.063140586 -0.077230655 -0.06168979 -0.10434597 0.025899513 0.03992771 -0.0034678304 0.07020009
-0.05929724 0.0834862 -0.0007819981 0.064713396 -0.07381566 -0.05588561 -0.02481959 0.0541179
-0.007844007 0.08867558 -0.07810321 -0.0711492 0.056781888 0.093092725 0.055512045 0.08605373
0.06659409 -0.08862173 0.09586266 -0.04895331 0.10553491 -0.02057506 0.036228113 -0.071917884
0.08117903 0.05292412 -0.020965917 0.030520445 -0.024921723 0.035417568 0.004902443 0.105250865
-0.03442242 0.114034966 0.11427759 -0.030762915 -0.047922716 0.04362989 -0.11552556 0.072078556
0.020713894 -0.008166369 0.069105275 0.07772499 0.014438566 0.00586648 0.10976361 0.025044674
0.02791807 -0.025097432 -0.049696647 0.02472657 0.024811117 -0.010468415 0.055644177 -0.10075899
0.09390548 -0.1105735 0.09049792 -0.07293207 0.05799015 -0.050098885 -0.10549827 -0.051643092
-0.06393944 0.12454394 0.035139307 -0.11551961 -0.07976587 -0.07123235 0.012565565 0.029739358
0.06560116 0.029379968 0.102368765 -0.08811308 0.0016637974 0.05624823 -0.051490884 0.12520024

gru.bias_ih_l0 f4 [192]
00000000: 6083 963d 4d7d babc b8f5 acbc 952f 60bd
00000010: b934 f5bd 5a14 acbd c36e f3bd 2365 f43d
00000020: 6006 d7bd 3146 d4bb 2e24 c83d 58bb e23d
00000030: c9a9 883c 9a30 f1bd 9f5d 413d 1036 c2bd
00000040: c7ec 6fbd 292e 9dbd 9bc1 cf3d 4753 23bd
00000050: de9d ac3c 6689 8fba 361e d6bd 4eef 9a3d
00000060: a9e2 aa3d 557d 3f3d 7cc1 e3bd 088c 25bd
00000070: 06bc 853d 0def b2bd b612 f1bd ca5f fcbd
00000080: 6681 a73d 281b 213d 3fc6 493d be42 13bd
00000090: 66b2 db3d c8cc f8bd f704 a53d df1d d1bd
000000a0: 4fda 98bd 829b 233d 4150 963d ff83 f6bc
000000b0: 83d8 c53d 6277 88bc 4fb0 bcbd 75aa 7bbc
000000c0: a0d9 963d 0410 d4bd 157c d1bd 60dc c83c
000000d0: f319 ecbd 9d54 bd3d ba06 cfbd e0a7 d0bd
000000e0: cf15 ce3c 498a f73d 7590 ce3d 8508 4c3d
000000f0: abcb 343d 0d45 7abd 4295 a93d 30a4 e63d
00000100: 56fd a1bd b307 88bc 730e 9ebd ab00 a8bb
00000110: 3592 a1bc 3aae 513b 4a1f e53d 8477 c1bc
00000120: 5c92 2ebd 58ac 013d 4b61 5f3c 9c85 a23d
00000130: 2757 003e 4fef 633d 7996 f03d 1787 003d
00000140: 67c6 53bd 08c5 e0bc 5037 d33d 282d ab3d
00000150: ae9d 99bd 47fe 653d b642 943c cebd cb3d
00000160: d179 c13d 4dcd 543c 289a c1bc c522 003c
00000170: e936 4b3d b6e8 553d ea25 193d 0572 f3bd
00000180: 9287 93bc 4ce3 333d 6909 e13c bdc8 c4bd
00000190: 3476 ef3d 1cf4 be3d 9c8a d5bd 4c40 563d
000001a0: f438 e63d 494c fb3d 0e38 d0bd 4f7f 553d
000001b0: c417 e3bd 4f8d f53d dfe1 d63d 3e97 cbbd
000001c0: d431 bbbd fce7 cabd 22eb f2bd b2f8 a5bd
000001d0: 5b39 ec3d cff5 7c3d 11a6 2cbd add0 f13d
000001e0: 0c49 c03d c162 0f3c 9812 cfba 74f4 ed3d
000001f0: 3242 ee3b 1430 b8bd efea f3bd 4db8 c63d
00000200: 1ecb c9bb 117a a73d f39a b33d ac77 76bd
00000210: edc8 87bd 34cd f2bd eced efbd 8c6e 523d
00000220: d7c5 eb3d 7415 eb3d c9b6 8dbd d1d5 083d
00000230: 9466 e43d aa58 c93d 4bd3 4f3d cc5f 00bd
00000240: 02fa ae3c 061f d43d 9b0e f0bd 66ff 40bd
00000250: 7286 82bc 88b1 debd 10ba cd3d 262a 983a
00000260: a136 e63d e90b a33d 73de b3bc 283c f7ba
00000270: 7a11 a43d 1783 983c bcc0 adbd b3e6 823c
00000280: 08c9 c93d 76b5 aebd 65b8 ce3d 750b 763d
00000290: 4f6e 4ebd 7bc2 493c 6d47 afbc 4d9d c4bd
000002a0: 9127 143c e3b3 4ebb 355a 1d3b 0135 683d
000002b0: 4621 cfbd 3f16 9d3d bc92 78bd 6dd5 51bd
000002c0: 8984 cf3d 769a cb3d 5abb 4e3d 564a 95bd
000002d0: 31b0 38bd b2b3 e3bd a7f7 aebd 3831 a4bc
000002e0: 4ad1 f83d 2b1c 9a3d 4940 8c3d 08ef 883c
000002f0: 42f9 8c3d 4d10 ba3d 7938 ee3b c056 7a3d
0.073492765 -0.022764826 -0.021113262 -0.054732878 -0.11972947 -0.08402319 -0.118863605 0.11933353
-0.10499263 -0.006478094 0.09772526 0.11070889 0.016682522 -0.11776848 0.047208425 -0.09482968
-0.058575418 -0.0767482 0.10144349 -0.03987434 0.02107137 -0.0010950982 -0.10454981 0.07565175
0.08344013 0.046750385 -0.111208886 -0.040416747 0.06530003 -0.087370016 -0.11771147 -0.12322958
0.08178978 0.03933254 0.049261328 -0.035952322 0.10727386 -0.12148434 0.080575876 -0.102107756
-0.07463514 0.039943226 0.07339526 -0.030092238 0.09660437 -0.016658489 -0.09213316 -0.015360464
0.073657274 -0.10354617 -0.10228745 0.024519145 -0.11528387 0.09244654 -0.10108705 -0.101882696
0.025156884 0.12086923 0.10086147 0.049812812 0.044139545 -0.06110101 0.08280422 0.11261785
-0.07909648 -0.016605234 -0.077176 -0.0051270328 -0.019723037 0.0031994716 0.111876085 -0.02361656
-0.042620048 0.0316585 0.013634036 0.0793564 0.12533246 0.055648144 0.117474504 0.03137883
-0.051702883 -0.027437702 0.103132844 0.08358222 -0.07500778 0.0561507 0.018098217 0.09948312
0.09447063 0.012988401 -0.023633078 0.00782079 0.049612913 0.052223884 0.037389673 -0.11886982
-0.01800898 0.04391794 0.027470307 -0.096086 0.11692467 0.09323904 -0.10426828 0.052307412
0.11241332 0.122704096 -0.101669416 0.052123364 -0.11088517 0.11989843 0.104923 -0.099409565
-0.09140363 -0.09907529 -0.11861254 -0.081040755 0.11534377 0.06175786 -0.04215056 0.1180738
0.093889326 0.008751572 -0.0015798388 0.11618891 0.0072710747 -0.08993545 -0.119100444 0.09703121
-0.0061582467 0.08177579 0.087697886 -0.06017272 -0.066301204 -0.11855546 -0.11715302 0.051374957
0.11512344 0.11478701 -0.06919629 0.033407036 0.11152378 0.098313645 0.050738614 -0.03134136
0.021359447 0.1035748 -0.11721536 -0.047118567 -0.01593325 -0.10873705 0.10045254 0.0011609241
0.112408884 0.07961256 -0.021956658 -0.0018862532 0.08011146 0.018617196 -0.08484027 0.015979147
0.09852797 -0.08530705 0.10093764 0.06006952 -0.050398167 0.012314434 -0.021396363 -0.09600315
0.0090426365 -0.0031540326 0.0024010066 0.056691173 -0.10113768 0.07670259 -0.06068681 -0.05122893
0.10132701 0.099415705 0.05047164 -0.07289569 -0.045089904 -0.111182585 -0.0854333 -0.020043
0.12149294 0.07524904 0.06848199 0.016715541 0.0688348 0.090851404 0.0072699157 0.061117887

gru.bias_hh_l0 f4 [192]
00000000: 7841 c1bd 8383 eb3d 633d d7bd b109 b2bc
00000010: f7e8 b83d 2493 51bc 79cf c93d d3a3 073d
00000020: 88d9 d43d 6716 53bd 74f1 7d3d c60f cabd
00000030: 170b 96bc 717d 3c3d 31f2 4dbd 7562 1abd
00000040: c5e3 0a3d 0acf 26bd 2011 583d 1714 df3d
00000050: 1232 ff3c d94c f1bd 3de7 b1bc 5a40 983d
00000060: ab9c d03d ada7 563d cfd0 693d ea4c bebd
00000070: 5636 d5bd 3fb6 a5bd 72e8 9dbd aebb e9bd
00000080: a720 16bd ec6e 693d 5ff5 b1bd 90f6 a8bd
00000090: 3d55 00be 40dc 93bd e483 c33c 1293 a83b
000000a0: ff38 a7bd 127b 54bd 4db9 cfbd 26e7 f43d
000000b0: 892e 993c d187 41bd 629c 52bd fb77 3b3c
000000c0: fa96 973c 7efb ab3d 3b6e 80bd da34 dbbd
000000d0: dca8 6abd a594 eebd 5c87 b3bd 891f d8bc
000000e0: 89bf d9bc a449 19bd b0c7 373d 9355 46bd
000000f0: 01a1 59bb c949 09bd de49 bcbd 185a e33d
00000100: 20b1 ad3d db01 563d c6d9 bb3c ec14 9fbd
00000110: 953d f4bc f06a 74bd 381b c73d 63b4 be3d
00000120: 16d1 f0bd 90e0 823a 2329 b7bc ae4d afbd
00000130: 99a2 9b3d 6cda d4bb 280d 2b3d 4099 e93d
00000140: f30b 703c f390 7cbd f453 e6bd f321 143d
00000150: 7c31 3bbd b47e c9bd adbd 4abd 1e41 7bbd
00000160: 6135 b33d 71f5 e2bc 63b4 47bd 0486 e13d
00000170: b5db c9bc bb05 aa3c eabd 183d 355e a2bd
00000180: 57ac 893d 187a 753d 32d7 afbd c981 a2bd
00000190: 2cd4 143d d428 bf3d 133c 65bc 0e5f 9f3d
000001a0: a4e3 e23d fb24 bf3c 6c88 8e3d 0932 8bbc
000001b0: e92a bc3c 7381 cabc fbe7 9dbd 7c5a b6bd
000001c0: bddf 27bc c644 dc3d baa8 adbd f278 a93d
000001d0: a5fc 913c dfd0 9f3d 8d1f 41bd d33b 783b
000001e0: c2b6 9c3d fbd2 84bd 35b8 813d d6b6 bd3d
000001f0: 30a3 a1bd 88a3 fbbd cf44 7b3c 57ec 1ebd
00000200: 2e87 d73d 195c 213c 7c7f 76bd 5d14 06bd
00000210: 1e94 94bd 483b 71bd f199 b4bd c5ab 7e3c
00000220: e307 f2bd df18 1d3c 6a4c 013e 20d2 093c
00000230: 91c6 fe3d 8e8c 873d 7917 7b3d 7bab bb3d
00000240: ba9b b4bd 517d 0dbc 69f8 a1bd 527c a53d
00000250: 19b5 9bbd 01c3 cd3d d405 923d 77ab 183d
00000260: b4a0 4fbd 1514 6b3d 6ed5 eebd 35f9 ca3d
00000270: f4ba e53d 39f7 563c 21e5 f8bd 33fa eabc
00000280: 3f35 803c bc70 c2bd 93ce 923d 597f ed3d
00000290: 2511 5dbc 8253 813d 4d77 c53c 4f20 0abd
000002a0: c1fa 4fbc e437 d6bd 5ddc 23bc 2087 103d
000002b0: b4f8 c3bd ddff 283c 16f5 ad3d 9859 eb3d
000002c0: 174a 2ebc 50a7 5abd 9368 923d 2fa2 2a3c
000002d0: bea7 9c3d 3789 cb3d e8d5 da3d 4851 d7bd
000002e0: ec61 373d 3cca 693d 48e4 01be 525a 9ebc
000002f0: d759 233d a317 163d 473d 6bbd 66df e4bc
-0.09436315 0.11499693 -0.105097555 -0.021733137 0.090288095 -0.012791429 0.098540254 0.03311522
0.10393053 -0.051535036 0.061997846 -0.0986629 -0.018315835 0.046018068 -0.0502798 -0.037691552
0.033908624 -0.04072479 0.052750707 0.10892504 0.031151805 -0.11782236 -0.021716708 0.07434149
0.10186132 0.052406 0.0570839 -0.09292014 -0.104107544 -0.08091401 -0.07710351 -0.1141275
-0.036652233 0.05699055 -0.08689379 -0.08250153 -0.12532516 -0.07219744 0.023866601 0.0051444853
-0.08165168 -0.05187518 -0.10142765 0.119581506 0.018698948 -0.047248665 -0.05141867 0.01144218
0.018504608 0.08397578 -0.06271025 -0.1070344 -0.057289943 -0.116494454 -0.08766052 -0.026382225
-0.026580589 -0.037423745 0.04486817 -0.048421454 -0.0033207538 -0.033517633 -0.091937765 0.111011684
0.084810495 0.052247863 0.02293099 -0.077676624 -0.02981452 -0.059672296 0.097219884 0.0931175
-0.1175863 0.0009985138 -0.022358483 -0.08559738 0.075993724 -0.0064957645 0.041760594 0.11406183
0.014651286 -0.06166167 -0.112464815 0.03616519 -0.04570149 -0.0983862 -0.049497295 -0.061341397
0.087504156 -0.027704926 -0.048756015 0.110118896 -0.024640897 0.020754686 0.03729049 -0.07928125
0.06722324 0.05993089 -0.08585967 -0.07934911 0.036335155 0.09333959 -0.013991374 0.07781802
0.11078575 0.023333063 0.06959614 -0.016991632 0.02296968 -0.02471993 -0.077102624 -0.08903977
-0.010246214 0.10755305 -0.08479448 0.082750216 0.017820666 0.07803511 -0.04714923 0.0037877455
0.07652046 -0.06485554 0.06333963 0.09263389 -0.07892454 -0.122870505 0.0153362295 -0.03879961
0.1052383 0.009848618 -0.060180172 -0.032734264 -0.072548136 -0.058894426 -0.088184245 0.015543883
-0.118179105 0.009588449 0.12626806 0.008411914 0.12440217 0.066186056 0.061301682 0.09163567
-0.08818765 -0.008635835 -0.079087086 0.08080353 -0.07602901 0.1004696 0.07130018 0.037272897
-0.050690368 0.0573922 -0.11661802 0.09910814 0.11217299 0.013120466 -0.12153078 -0.028683757
0.01565039 -0.094941586 0.07168307 0.11596555 -0.013492857 0.06314756 0.024104739 -0.033722218
-0.012694062 -0.10459879 -0.010001269 0.035285115 -0.09568921 0.010314909 0.08494012 0.11491698
-0.010637782 -0.053382218 0.07148852 0.010414644 0.07649182 0.09938281 0.10685331 -0.1051355
0.04477112 0.05707763 -0.12684739 -0.019330177 0.0398806 0.036643635 -0.057431486 -0.027938556

gru.weight_ih_l0_reverse f4 [192, 16]
00000000: 0163 4b3d dcdb d1bc db5d be3c 41d6 93bd
00000010: 7a51 83bd c519 01bd 226d f23d 7764 213d
00000020: 150d 19bd 33a2 64bd 769f d0bc 0a59 b23d
00000030: b5ee bc3d 9694 313d a3e4 313d be62 c0bd
00000040: 5160 41bc d758 98bd e08c dabd 54fc 7a3c
00000050: 9386 debd 80d7 713d 74c2 973d 4ba6 49bc
00000060: ddb6 14bd 4832 4dbd dc45 243d 6fcc 56bd
00000070: 98f1 273c e338 f2bd 7f40 fd3d 4504 2ebd
00000080: d6e4 b13d 79d7 e33d 0b1f ff3d 1a5e 21bc
00000090: 59cb f6bd 2fae 033d f01f 3fbd 524d 18bc
000000a0: 5aa1 72bd 688d 60bd fc78 a93d 6170 28bd
000000b0: 823b c73c 2caf c4bd be4d 1c3d 6fbb a8bd
000000c0: 98af afbd c653 603c 6dd6 77bd 4b2c e63d
000000d0: de02 5bbd f737 f13d a669 843d dc08 9d3d
000000e0: 9a3b 8abc ba78 f7bd bd21 8ebd 5450 ae3c
000000f0: 9f4f 613c 044b 8cbd 1e0b b83d 526e 36bd
00000100: b960 dcbd 6fb1 3dbd cc8a 7a3d 6a81 073d
00000110: 8bbf a13d 7274 76bc 1248 0ebd b5a1 c6bd
00000120: f9e0 b8bd b4d3 463d a95b c53d 6575 19bc
00000130: 7374 d23d 29ae 5d3d c2db eb3c 2ee1 69bd
00000140: 2f97 bc3d 6870 c03d d95e 13bd 5c7d f2bd
00000150: 4bda bd3d 516b a93d e18d 863d 093c b4bd
00000160: 23e1 5a3d 2f94 f1bd 6163 96bb f4bc 53bc
00000170: a448 99ba 04ec 4a3d 1a4f 973c e9a8 073c
00000180: 4fd2 b63d 166b b3bc 662d 9d3d 2c9d bf3c
00000190: ffdb 423d f919 40bc 6c25 713c 5ebe 1ebd
000001a0: b645 b2bc 9215 87bd 0b53 16bd 71ee 433d
000001b0: 0f5e 1bbd 9390 913d cc99 923d bb40 f93d
000001c0: a7b6 f8bd 7621 e4bd 7486 30bd 6743 97bd
000001d0: dc3b 913d 7f7a 163d 2904 b03d 3b27 bb3d
000001e0: ef77 df3d f66d 02bd d605 cdbc 6e18 b83d
000001f0: 8cc0 febc 352a 01bd d244 a6bd fe30 ea3d
00000200: d759 6abd afd6 c53d 4436 66bd 4a8d b8bd
00000210: 982b 93bd 569e 1a3d 6f21 7b3d 949f e3bc
00000220: 8055 a8bc 13ef 3dbd 91dc 463d c226 ac3d
00000230: a52f 89bd 2652 36bc 4302 c4bc 6336 9fbd
00000240: 3002 093d eb3c 133d 8391 083d 7d98 473d
00000250: ac64 773d 8369 84bd c8c7 84bd 558c 823d
00000260: c325 77bd 982f 453d 3695 cd3d a4bb 123b
00000270: efb9 313d f7bc c53d b083 e0bd 8d66 90bb
00000280: c6e3 c7bd a904 5e3d 0fb2 bfbd 651a 82bd
00000290: 7312 e73d 8d2c 013e e17c e8b9 4464 acbd
000002a0: ccb2 42bd 3865 a73d c644 93bc 52bc 343b
000002b0: cde4 cd3d ddf5 63bd 25ce af3c f420 943d
000002c0: 0c6d 0fbc 92e6 9ebc c91e fabd a4a1 4c3d
000002d0: 0ad5 07bd f449 a43d dbf6 04bc b84e 8d3d
000002e0: cd4c e6bd bd13 c83d a173 ed3d 3224 013e
000002f0: 8578 d53d ca52 993c ae5f 623d 6c08 013e
00000300: f01a 84bd 10c1 4d3d 9329 f2bd a157 f2bd
00000310: bc42 61bd 2c2d 02bc 4c1e 4e3d 9083 1c3d
00000320: 5739 ae3c 2de6 76bd 5a92 d33c 6173 afbd
00000330: e48c d8bd 3f63 db3c 6a8a a33d 062c ae3d
00000340: 7e9f b93b d1f1 d43d 4e8d 4abd 0b33 ba3d
00000350: ae0e b23d e489 d9bd 8870 bd3c 95e5 ddbd
00000360: 1f0c 0bbc 036c a3bd c7a2 813d fa36 2c3d
00000370: c17e 863d f139 59bd 678e 803d 63e6 c5bd
00000380: 11ff ec3d 64a4 c3bc 68b7 493d d6f5 8ebd
00000390: 403a beba 042a bbbd 073b de3d 5f31 803d
000003a0: 6de0 93bd 70f4 553d 4890 b53d bdee 04bd
000003b0: 18e3 cfbd df8b b4bd 0275 bbbd a40b 593d
000003c0: 18a9 57bd 617b 15bc 36a1 233d db24 00be
000003d0: 2609 fdbd 09f9 42bc 9348 df3c 81ad b43d
000003e0: 11e4 433c d794 edbd b672 b13c 25f1 893d
000003f0: ab69 48bd 5c47 a6bd 0ad6 14bd 8e3e a9bd
0.049654964 -0.025617532 0.023238113 -0.072186 -0.06412025 -0.031518716 0.11837222 0.03940245
-0.03736599 -0.055818748 -0.025466662 0.08708389 0.09225217 0.043354593 0.043430936 -0.093938336
-0.011802749 -0.0743882 -0.10671401 0.015318949 -0.10865512 0.059043407 0.07410136 -0.012307714
-0.036307205 -0.05009678 0.040105686 -0.052441057 0.0102504715 -0.118272565 0.12365817 -0.04248454
0.08686225 0.111250825 0.12457093 -0.009849096 -0.12050504 0.032148536 -0.046661317 -0.009295778
-0.059235908 -0.054822356 0.08275029 -0.041122798 0.024320368 -0.09603724 0.03816008 -0.08238875
-0.08578414 0.013691848 -0.060507227 0.11238917 -0.05346953 0.117782526 0.06465463 0.076677054
-0.016874123 -0.12083574 -0.06940029 0.021278538 0.013751893 -0.068502456 0.089864954 -0.044538803
-0.10760636 -0.046311792 0.061167523 0.033082403 0.07897862 -0.015042411 -0.0347367 -0.09698812
-0.09027285 0.04854174 0.096366234 -0.009366368 0.10276117 0.05412117 0.028791312 -0.057099514
0.092085235 0.0939644 -0.035979126 -0.11840317 0.09270152 0.08272422 0.0657003 -0.08800513
0.053437363 -0.11795842 -0.0045894836 -0.012923468 -0.0011694622 0.04954149 0.018470336 0.008280017
0.08926832 -0.021901648 0.07674675 0.023390375 0.047573086 -0.011724942 0.014718395 -0.038755767
-0.021761756 -0.06595911 -0.03670029 0.047834817 -0.0379315 0.071076535 0.07158241 0.121705495
-0.12144213 -0.11139195 -0.043096974 -0.07385903 0.070914954 0.036737915 0.085945435 0.09138342
0.109115474 -0.03184315 -0.025027197 0.089890346 -0.031097673 -0.031534392 -0.08118595 0.11435126
-0.057214584 0.09660088 -0.056204095 -0.09011324 -0.07186049 0.037748657 0.06131118 -0.027786054
-0.020548582 -0.046370577 0.048550192 0.0840583 -0.066985406 -0.011127984 -0.02392686 -0.07774045
0.03344935 0.035946768 0.033341896 0.04872941 0.060398743 -0.06465437 -0.06483418 0.063744225
-0.060338747 0.048141092 0.10038225 0.0022389675 0.04339021 0.09655183 -0.109626174 -0.0044067563
-0.09760241 0.054203663 -0.09360134 -0.063526906 0.11282816 0.12614651 -0.0004434353 -0.08417562
-0.047533795 0.08173603 -0.01797713 0.0027578068 0.10053406 -0.055654395 0.021460602 0.07232848
-0.008754026 -0.019397054 -0.12212903 0.04995884 -0.033162154 0.08021918 -0.008115496 0.0689978
-0.11245117 0.0976939 0.1159432 0.12611464 0.10423378 0.018716235 0.05526703 0.12600869
-0.064504504 0.050232947 -0.11824336 -0.1183312 -0.054995283 -0.00794534 0.050321862 0.038211405
0.021267576 -0.060278106 0.025826622 -0.08566929 -0.10573748 0.026780723 0.07985385 0.085044906
0.005664765 0.10397685 -0.049451165 0.09091767 0.08694206 -0.10622004 0.023124948 -0.10834805
-0.008486777 -0.07979586 0.063298754 0.042044617 0.06567145 -0.053033773 0.06277161 -0.096630834
0.115720876 -0.023882098 0.049247175 -0.06980483 -0.001451321 -0.09138873 0.10851102 0.06259417
-0.0722054 0.052235067 0.0886541 -0.03245424 -0.101507366 -0.08815741 -0.09153177 0.052989617
-0.052651495 -0.009123654 0.039948665 -0.12514059 -0.123552606 -0.011900195 0.027256286 0.08822156
0.011956231 -0.116006546 0.021661144 0.06735448 -0.048928898 -0.081190795 -0.036336936 -0.082638845

gru.weight_hh_l0_reverse f4 [192, 64]
00000000: 6415 59bd da0b d03d 3089 ddbc 0c27 f53d
00000010: e0cd ffbc 0e5e a2bd 0af8 c7bd 4c96 efbd
00000020: 6277 acbd ee36 8abd 0e52 be3d 38ee 293d
00000030: 1847 303d f01b 8cbd d80e bf3c 6847 d6bc
00000040: 8002 063c e07d 6ebc 86fd b53d 2474 acbd
00000050: 0887 13bd d07c e23d e091 debd 707d f8bc
00000060: 28ae c9bc 0802 973d 322e 9c3d b806 8d3d
00000070: 80e9 36bb 8e07 e53d 9208 f63d 303d f93c
00000080: 1023 acbd 3890 53bd a83e 7f3d 1a9c a93d
00000090: a899 c0bc 5c60 3b3d b8a7 163d b452 633d
000000a0: 7611 89bd 8cef a8bd ae6b e8bd ecf0 62bd
000000b0: 1082 5abd 762b 8ebd a8e0 4fbd 28cc 003d
000000c0: 0443 743d 8426 d7bd 104c 983c 3002 debc
000000d0: 82c8 8abd c083 e9bb dec7 aa3d a85d 04bd
000000e0: 4688 86bd 68ab e9bd c8ee 1ebd 2c87 263d
000000f0: a454 883d 8c52 023d 08b1 8a3d ecd1 1e3d
00000100: a87a 22bd 2073 283d b836 ab3c 8c83 b73d
00000110: b447 353d 6e2d e7bd 0045 a53a 2096 d1bd
00000120: a808 7c3d 70cd 4abc 640d f03d a0e1 acbb
00000130: 80d7 523d c200 9e3d 0cb7 f23d 3002 07bc
00000140: f8e8 483d 8c08 cdbd 4021 463c acf2 1d3d
00000150: 20c3 463c 667c c0bd 90ae 47bd 68e0 f43c
00000160: 1454 333d 00b5 18bb 2c4d 843d 0488 a4bd
00000170: 5850 03bd 709b f23c 969e d83d 6c87 1bbd
00000180: fe68 bb3d ee59 d83d f077 10bd 2e79 91bd
00000190: 8099 19bd 1089 343c b00f ebbc e68a a2bd
000001a0: f2e1 db3d 0c86 8a3d c6ad d73d 6c42 7e3d
000001b0: 6064 2a3c dac7 d2bd 28ff c53c 285f 3bbd
000001c0: 766a 943d 3c3e dcbd a8f6 e43d 180c c63c
000001d0: 5096 f73c a212 a0bd 604b 7fbc c80c b2bc
000001e0: 94a5 98bd 68a0 703d eaed bd3d 58c7 d63d
000001f0: ccb8 0a3d e03e 683c 2a6f b73d 9caa 5abd
00000200: dca1 69bd a67b c93d 5a1a dfbd 20a9 ef3d
00000210: c402 703d 20e7 15bc 98be 7b3d 8c9d 883d
00000220: bc2f 683d 404f a3bb ec79 483d 3241 ce3d
00000230: 805c 0f3c 00c5 b9ba 14e0 ba3d 7445 e7bd
00000240: 0890 df3c 40e1 53bd f2d0 ce3d aaff f33d
00000250: f0f2 853c 142c fabd 903d 67bc 880e 3c3d
00000260: 8055 b3ba c068 473b f436 0f3d 5eeb bcbd
00000270: dcdb b1bd 1e9f e5bd e077 a43d cc95 94bd
00000280: c69d a83d a0c1 b3bd 40fd f6bd 9c83 4a3d
00000290: 64cd 383d c6b7 f5bd 1af7 8b3d 8cbe f43d
000002a0: b27f bc3d d473 b33d d0e5 4c3c 6c02 7d3d
000002b0: b6ee 813d 762f 883d a081 5f3c a0c3 cf3c
000002c0: 20df d43b 866f b7bd b88f 543d a6fa e9bd
000002d0: cc57 d7bd 10b0 47bc 66bb ab3d ea03 adbd
000002e0: b6e6 a23d 8005 fa3a c05f 18bc 8852 373d
000002f0: 6441 04bd 8693 af3d d6d4 a8bd 90ca cd3c
00000300: 40cf 833c 5eb6 e6bd f88b 663d 5098 d93d
00000310: 5a29 97bd e85d 373d a0fd 31bd 3c2e 823d
00000320: 169c e3bd a4d7 34bd b448 a23d 7026 b2bd
00000330: 8625 e73d 40e6 32bc f030 33bc 586e bb3c
00000340: 9070 47bc e05a be3c 4c5c c03d a8cd 90bc
00000350: 92e2 f53d fea7 a9bd 16d6 fcbd c048 983b
00000360: 4c95 29bd 102c 683d 0852 d53c 228a 9dbd
00000370: 10cd 05bd 001a e5ba 0cec fbbd 5cc5 843d
00000380: 3841 a7bc 0050 d73c 44b3 25bd 2ce3 e53d
00000390: a6a6 be3d ea6f d93d 50bd f73c cc0b 71bd
000003a0: 6e15 8ebd c40c a8bd 7289 a9bd e45c 043d
000003b0: 04fb 37bd b819 843c 60a3 893c 3aa6 a13d
000003c0: 80b0 24bd 7a36 893d c85e d03c c438 56bd
000003d0: 545c c9bd 3e67 c43d 78b6 34bd 2ed4 d3bd
000003e0: 70ea 9bbd 806d f83a 40c5 6cbd c05c 0bbc
000003f0: c0a6 dd3d fcc4 a7bd 18c8 17bd 7a60 a2bd
-0.052998915 0.101585105 -0.027042955 0.11970338 -0.031226099 -0.07928096 -0.097641066 -0.11698589
-0.08421208 -0.06748758 0.092929944 0.04148695 0.04303655 -0.06841266 0.023322508 -0.026157096
0.008179307 -0.014556378 0.088862464 -0.084205896 -0.036017448 0.11058962 -0.10867667 -0.03033325
-0.024619177 0.07373434 0.076259986 0.06886047 -0.0027910173 0.111830816 0.120133534 0.030424684
-0.08405125 -0.05165121 0.062315613 0.08281727 -0.023510769 0.045746192 0.036781043 0.055498794
-0.066927835 -0.08248815 -0.11348663 -0.055405542 -0.053346694 -0.06941883 -0.05075136 0.0314447
0.059634224 -0.10505393 0.018590957 -0.027100652 -0.06776525 -0.0071263015 0.08338903 -0.03231588
-0.06568961 -0.11409646 -0.03880194 0.040656254 0.06656769 0.031817004 0.06772047 0.038774416
-0.039667755 0.041125417 0.020900115 0.089606375 0.044257835 -0.11287962 0.0012609065 -0.10233712
0.061531693 -0.012378082 0.11721304 -0.00527592 0.051475048 0.07714988 0.1185132 -0.008240268
0.0490503 -0.10011396 0.012092888 0.038561508 0.012131482 -0.09398727 -0.04875046 0.029892161
0.043781355 -0.0023301244 0.06460032 -0.080337554 -0.032059044 0.029615134 0.10577123 -0.037970945
0.09150885 0.10564028 -0.03527063 -0.07103191 -0.037499905 0.011019006 -0.028694004 -0.07936649
0.10736455 0.06763849 0.105311915 0.062075064 0.010399908 -0.10292025 0.02416952 -0.045745045
0.07246868 -0.10754058 0.111798584 0.024175689 0.030223042 -0.07816054 -0.015581936 -0.02173461
-0.074534565 0.058746725 0.09273894 0.104872406 0.033867642 0.014175147 0.0895675 -0.053385362
-0.057039127 0.09838037 -0.10893698 0.1170218 0.058596388 -0.009149343 0.06146106 0.06670675
0.056686148 -0.0049838126 0.0489444 0.10071029 0.008750081 -0.001417309 0.09124771 -0.11292544
0.02729036 -0.051728487 0.10098447 0.119139984 0.016351193 -0.122154385 -0.014113799 0.045912296
-0.0013682097 0.0030427426 0.034964517 -0.0922458 -0.08684513 -0.1121199 0.08030677 -0.07255134
0.08233218 -0.087771654 -0.12060022 0.04944192 0.04511775 -0.119979426 0.0683424 0.119504064
0.092040434 0.08762327 0.012505963 0.061769888 0.063443586 0.066496775 0.013641745 0.025361836
0.006496325 -0.08956818 0.051894873 -0.114247605 -0.10514793 -0.012187973 0.08385353 -0.08448012
0.07954161 0.0019075125 -0.009300172 0.044756442 -0.032288924 0.0857306 -0.0824372 0.025121003
0.016090035 -0.112652525 0.05628583 0.106247544 -0.07380934 0.04476729 -0.043454766 0.06356475
-0.111137554 -0.044150963 0.07924023 -0.086987376 0.11286454 -0.010919154 -0.010936961 0.022879764
-0.012172833 0.023236692 0.09392604 -0.01767619 0.120061055 -0.08283995 -0.12345521 0.0046473444
-0.041402146 0.056682646 0.026040092 -0.07692362 -0.032666266 -0.0017479062 -0.12300882 0.06482956
-0.02041684 0.026283264 -0.040454164 0.1122497 0.093091294 0.10617049 0.030241638 -0.05884914
-0.06937681 -0.0820556 -0.08278169 0.03231515 -0.04491712 0.016125545 0.016801536 0.07893033
-0.040207386 0.06699844 0.02543582 -0.05230023 -0.09832063 0.095900044 -0.04411933 -0.103432044
-0.07613075 0.0018953532 -0.0578053 -0.008506 0.10822821 -0.08191869 -0.03705606 -0.07928558

gru.bias_ih_l0_reverse f4 [192]
00000000: 6f09 a6bc 4365 f43b ef68 193d c27f f33d
00000010: 705d fd3d 9b6b cb3d 9e5c 043d 9320 e1bd
00000020: 63c6 4cbd 77cc 91bd 2006 93bc 4591 4fbd
00000030: 021a 033d 3382 ad3d 2b64 22bd 5974 693d
00000040: 81fa 7cbd fe1c 97bd ff98 72bd 70c8 853c
00000050: 31c7 c0bc 268e 273b 702b b0ba 4fd0 533d
00000060: 154f 4ebd ca09 4c3c 5c7c 84bd 43b8 91bd
00000070: e074 cc3d e6c1 7b3d fcf3 3038 95d4 b6bb
00000080: 3366 cabd 7e23 f8bd b2cc e6bd 34cb 953d
00000090: 78fe b13c effb 8a3d 540a 063d fd5a fbbd
000000a0: 23a3 4abd 321e d7bd 65e6 eb3c 98e7 a13d
000000b0: 130c eebb fc62 de3c bb46 28bb c255 4cbd
000000c0: d8df d1bd 6453 a13c 887d c0bd ee89 e13d
000000d0: 216a 323c 8000 c53d 32d1 ecbc 0990 f7bd
000000e0: b988 14bd 25e4 a9bd 0255 7f3d 6f89 8abd
000000f0: 0ec1 323d 5371 8c3d 5dc5 533d 028d ccbd
00000100: 8dac 36bc c5e9 f83d 94cd 303d f19e da3d
00000110: b42e a43d f162 9cbd 0be6 d2bc 7973 993d
00000120: 096d fc3d f25e 76bd dabb 923d 4559 c53d
00000130: 8ef8 c1bc 8526 a83d 78c1 b3bd 9e9b 463c
00000140: 5d98 e43d f3f1 823b eea6 783d aa8d 173d
00000150: 5fa3 a23d 4943 ee3d ff64 eebd 7dfa 763c
00000160: 4de1 473d fe72 c53d f532 4d3c a31f da3d
00000170: ec4d 6f3d 1846 f5bd 8178 d83c dfd6 d63c
00000180: 6312 863d 2a9a 333d 0161 2f3c b0fb 93bd
00000190: 5a83 d3bd 4d36 9a3d 5753 a23d f4ac 9e3d
000001a0: 4597 1cbd d6de 89bc 0b57 243d f5aa ac3d
000001b0: b602 8e3d 120c 00be bb62 fbbd e019 0d3d
000001c0: 5dc0 703c 4320 053d 7f97 c43d 24b2 ccbc
000001d0: 19d3 f83d c3c1 ec3d 0114 ef3d 386a 66bd
000001e0: 9700 bc3d bb49 383d 0419 ffbd 7aa8 f6bd
000001f0: 1d3a babd 0b44 e5bd 327e 753d ae3d 9fbd
00000200: 30e6 efbd dfcb 663c 44f0 da3d f6de aabd
00000210: eeac 1ebd fe87 c33d a4ae e13c ae30 203d
00000220: 97d7 a1bb e756 6dbd c333 f83d 67ea f63d
00000230: 142a ddbd 26b9 c7bd b231 573d 32d1 febd
00000240: 437e 863b e78e 633d ec85 d13d 5630 2fbd
00000250: d482 893d 166e 303d fa00 e139 90a9 a13d
00000260: adf2 44bd 70b5 3abd c52d cf3d c46a 883d
00000270: f21f 9cbc c1db 28bd 5148 073d 765d 8dbd
00000280: e7ef debd 23ea f2bd 032c 1abd 3061 80bd
00000290: 2a76 dc3d 12e5 8abc b064 cd3d 9b0a 3fbd
000002a0: 0087 333d 7dbe fabc 4301 d4bb 8e30 02be
000002b0: e21c 80bc e347 e63d 0f8d d83d c9de be3d
000002c0: c36e 04bd 914b e6bd 4bde e7bd 0619 ad3d
000002d0: 7c21 d43d a0e8 d1bd d135 c23b 8c14 efbd
000002e0: bb20 c83d 5d4a b03d 34f5 5a3d 3f8d 31bd
000002f0: 7c40 0abd 46f4 f43d 6a7b bb3d da29 853c
-0.02026817 0.0074583604 0.037453588 0.11889602 0.123713374 0.099326335 0.03231489 -0.10992541
-0.049993884 -0.07119077 -0.017947257 -0.05067565 0.032007225 0.08472099 -0.03964631 0.056995723
-0.061762337 -0.07378577 -0.05922794 0.016330928 -0.023532482 0.0025566905 -0.001344068 0.05171233
-0.050368387 0.012453506 -0.06469032 -0.07115223 0.0998323 0.061464213 4.2188898e-05 -0.005579541
-0.09882774 -0.121161446 -0.11269511 0.073141485 0.021727785 0.06786334 0.032724693 -0.12273214
-0.049471986 -0.10503806 0.028796384 0.07905501 -0.007264623 0.027146809 -0.0025676924 -0.049886473
-0.10247773 0.019693084 -0.09398943 0.11012636 0.010889561 0.09619236 -0.028908346 -0.120880194
-0.0362632 -0.08295468 0.06233693 -0.06764495 0.043641143 0.068575524 0.051701892 -0.099878326
-0.011149538 0.12153963 0.043164805 0.10674847 0.080167204 -0.07636059 -0.025744459 0.07492728
0.12325484 -0.06014914 0.07164736 0.096361674 -0.02367809 0.08210472 -0.087771356 0.012122063
0.111618735 0.0039961278 0.06070607 0.037000336 0.07941317 0.116339274 -0.11640357 0.0150743695
0.048798848 0.09641074 0.012524356 0.106505655 0.05842392 -0.1197626 0.026424648 0.026225505
0.06546476 0.043848194 0.01070428 -0.0722574 -0.10327788 0.07529888 0.07926052 0.07747832
-0.0382302 -0.01682989 0.040122073 0.08431045 0.06934111 -0.12504604 -0.12274691 0.034448504
0.0146943005 0.03250147 0.09599208 -0.024987288 0.12149639 0.115603946 0.11673737 -0.05625364
0.091798 0.04499219 -0.12455943 -0.12043853 -0.090931155 -0.11194619 0.059934802 -0.07775436
-0.11713827 0.014086693 0.10690358 -0.08343308 -0.038739137 0.09547423 0.027549095 0.039108925
-0.0049390304 -0.057944205 0.12119248 0.120564274 -0.107990414 -0.09752111 0.052537628 -0.124422446
0.004104407 0.055556204 0.10230622 -0.042770706 0.067144066 0.043073736 0.00042916072 0.078936696
-0.048082996 -0.04558319 0.10116152 0.06660989 -0.019058201 -0.0412252 0.03302795 -0.06902592
-0.108856015 -0.11861064 -0.03763963 -0.06268537 0.107647255 -0.016954932 0.1002897 -0.046640974
0.043829918 -0.03060841 -0.006469877 -0.12713835 -0.015638772 0.1124418 0.1057378 0.09319837
-0.032332193 -0.11244882 -0.11321696 0.084520385 0.10357949 -0.10249448 0.0059268256 -0.11673841
0.09771868 0.08607934 0.0534565 -0.043347593 -0.033752903 0.11960654 0.09154399 0.016255308
