Code/Archive/models/exo_conv_bigru_cluster_v3.pt (torch, 171252 bytes, 16 tensors)

conv.0.weight f4 [8, 1, 9]
0	0xbe3cd90e	-0.18442175
1	0x3e0ee03d	0.13952728
2	0x3bf1d513	0.0073801368
3	0xbe26011e	-0.16211364
4	0x3e8733af	0.2640662
5	0x3e8eb199	0.2786987
6	0xbe71a455	-0.23597844
7	0x3e7f3ecf	0.24926303
8	0xbdad6056	-0.0846564
9	0xbe8d7222	-0.2762614
10	0xbdeee4bf	-0.116647236
11	0xbdd61b33	-0.104544066
12	0x3e7831e0	0.24237776
13	0xbe3055f4	-0.17220289
14	0xbe6101dc	-0.21973366
15	0x3ba4957f	0.005022704
16	0xbd409e55	-0.047025997
17	0xbccfed5a	-0.025381733
18	0x3db23bd6	0.08702819
19	0xbe3cd9e0	-0.18442488
20	0xbe6ecb32	-0.233197
21	0xbca8aa0d	-0.020588899
22	0xbdc90595	-0.09815518
23	0x3e20e270	0.15711379
24	0x3e2dcf62	0.16973642
25	0x3e453ef2	0.19262293
26	0xbe814fa6	-0.2525608
27	0xbea58821	-0.3233042
28	0x3e988c3e	0.29794496
29	0xbe002472	-0.12513903
30	0x3deca430	0.11554754
31	0xbe16df40	-0.147336
32	0xbe8c51e7	-0.27406237
33	0x3c1c0ca0	0.009524494
34	0x3e9b7b0e	0.3036732
35	0xbde19d4c	-0.1101633
36	0xbdde406c	-0.10852131
37	0xbe0ce0b6	-0.13757595
38	0x3dc60f6f	0.096709125
39	0x3dbeb850	0.093124986
40	0x3e61d422	0.22053578
41	0xbe08c72c	-0.13357228
42	0xbdd42a36	-0.103596136
43	0xbe362993	-0.17789297
44	0xbe974f63	-0.29552755
45	0x3d8f2141	0.069887646
46	0xbe9f8566	-0.31156462
47	0x3e23e884	0.16006666
48	0xbd5e363e	-0.054250948
49	0x3e6459b5	0.22299846
50	0xbe88a1be	-0.266859
51	0x3e70ce21	0.23516132
52	0x3e9decd3	0.30844745
53	0x3ca619b0	0.02027592
54	0xbe8c358f	-0.27384612
55	0x3d00108a	0.031265773
56	0xbe4e7e69	-0.20165409
57	0xbe080701	-0.13283922
58	0x3eabad60	0.33530712
59	0x3e4c61a1	0.19959117
60	0x3d238f2f	0.039931472
61	0xbd92a5bd	-0.07160518
62	0x3e8fe49c	0.28104103
63	0x3dbebfe8	0.09313947
64	0x3de681ac	0.11255202
65	0x3e842d34	0.25815737
66	0xbca690da	-0.020332742
67	0xbe470594	-0.19435722
68	0x3e46ae22	0.19402364
69	0xbe435ee8	-0.19079173
70	0x3e7501d2	0.23926476
71	0xbdf44705	-0.119276084

conv.0.bias f4 [8]
0	0xbe1d294b	-0.15347783
1	0x3e962212	0.2932287
2	0xbe7d239b	-0.24720614
3	0xbe9921a6	-0.29908484
4	0xbe91f09d	-0.28503886
5	0xbe97d2fc	-0.29653156
6	0xbe822ed0	-0.2542634
7	0xbcba3761	-0.022731485

conv.3.weight f4 [16, 8, 9]
0	0xbd81f439	-0.0634541
1	0xbd5d6515	-0.054051477
2	0xbdc410bb	-0.095735036
3	0x3ce21e2f	0.027602283
4	0xbdb1d77c	-0.086836785
5	0xbd47478e	-0.048652224
6	0x3db9be7c	0.09069535
7	0x3da78961	0.081805
8	0x3d7001f6	0.05859562
9	0x3de58067	0.112061314
10	0x3dad6655	0.08466784
11	0xbde174bf	-0.11008596
12	0xbc751248	-0.014957972
13	0x3bc2f483	0.005949558
14	0xbc528cae	-0.012850923
15	0xbcae247b	-0.02125763
16	0xbde09d84	-0.10967544
17	0x3d6fc2fd	0.058535565
18	0xbdc9eefc	-0.09860036
19	0x3ddfc40a	0.10926063
20	0xbcd9b36a	-0.02657481
21	0x3cc5f196	0.024163049
22	0x3cf79a3f	0.030224917
23	0xbdcdc85b	-0.100479804
24	0x3bcecbd9	0.0063109216
25	0xbc5594b7	-0.013035945
26	0x3d4bcdc3	0.049756777
27	0xbc2bb8e6	-0.010481095
28	0x3cca06d7	0.024661465
29	0xbdce9b01	-0.100881584
30	0x3cf02dd6	0.029318731
31	0x3bf9eaee	0.0076268828
32	0xbd73a054	-0.059479073
33	0x3dcc57ff	0.099777214
34	0x3dd164bb	0.10224291
35	0x3ddcb730	0.10777128
36	0x3cfee8b7	0.031116826
37	0x3de808ab	0.11329778
38	0xbdb6c960	-0.08925128
39	0xbdd7ab3a	-0.10530706
40	0xbd1f724f	-0.038927373
41	0x3db16693	0.086621426
42	0xbd9303fb	-0.071784936
43	0xbd1e9690	-0.038717806
44	0xbd85f3c1	-0.06540633
45	0x3dddedeb	0.10836395
46	0x3df4fd24	0.11962345
47	0xbd288030	-0.041137874
48	0xbd5382ab	-0.051638287
49	0x3c588ccb	0.013217161
50	0xbca6e92c	-0.020374857
51	0xbc8ed5ce	-0.017435934
52	0xbda9b271	-0.08285988
53	0xbd607498	-0.054798692
54	0xbcb6728e	-0.02227142
55	0xbd24e28f	-0.040255126
56	0xbd322001	-0.043487553
57	0xbbaa0dc7	-0.0051896307
58	0x3cbfd9ea	0.02341934
59	0x3d282dd7	0.04105934
60	0x3ddc4dc0	0.10757017
61	0x3dc7006a	0.09716876
62	0xbda0de11	-0.07854856
63	0xb81fd3d7	-3.8105845e-05
64	0xbdc44b1a	-0.09584637
65	0xbdc7e254	-0.097599655
66	0xbd8a685b	-0.067581855
67	0xbd9c2cc6	-0.07625727
68	0x3dc5432c	0.09631953
69	0xbd01282b	-0.031532448
70	0x3df1db70	0.118094325
71	0xbb4d32ec	-0.003131087
72	0xbdd3bc65	-0.10338668
73	0xbd38bf59	-0.04510436
74	0x3d84aa6e	0.064778194
75	0xbd702477	-0.058628526
76	0xbdcaebee	-0.09908281
77	0x3c8a57be	0.016887542
78	0xbd9fd3b7	-0.07804053
79	0xbd2a7f14	-0.041625097
80	0xbcdcf98a	-0.026974458
81	0x3d297209	0.041368518
82	0xbde65290	-0.11246216
83	0x3c2a593d	0.010397253
84	0xbd8f6e17	-0.0700342
85	0xbab06629	-0.001345818
86	0x3d457afd	0.048212994
87	0x3dba63f8	0.09101099
88	0xbd59c978	-0.05317065
89	0x3dd1a0db	0.10235759
90	0x3dccb3b0	0.0999521
91	0xbd6c2d61	-0.057660464
92	0xbd3178a7	-0.043327954
93	0x3dcf1ad6	0.101125404
94	0x3de56c70	0.112023234
95	0xbc990d8e	-0.018683221
96	0xbd0bf7bb	-0.0341718
97	0xbd026c73	-0.031841706
98	0x3dab648e	0.08368789
99	0x3b796c9d	0.0038059123
100	0xbd6fc64d	-0.058538724
101	0x3dbdb013	0.09262099
102	0x3dd82595	0.10554043
103	0xbd7e13f2	-0.06203074
104	0x3cb07f09	0.02154495
105	0x3d592769	0.0530161
106	0xbdba8372	-0.091071025
107	0xbd8eb809	-0.06968696
108	0x3d6c118f	0.057633933
109	0x3c8200f4	0.015869595
110	0x3d9189fe	0.07106398
111	0x3c6fdca5	0.014640008
112	0x3d50c331	0.0509674
113	0xbd14af9b	-0.036300283
114	0x3d8582b1	0.06519068
115	0x3d62f459	0.05540881
116	0x3ddee281	0.10883046
117	0x3da97733	0.082746886
118	0x3d8e4074	0.06945887
119	0x3c83b178	0.016075835
120	0x3d8227b7	0.06355231
121	0xbd880694	-0.0664188
122	0x3d882231	0.066471465
123	0xbd298ee6	-0.041396044
124	0x3cbc71e4	0.023003526
125	0xbd71dc38	-0.059047908
126	0x3d94cd43	0.07265713
127	0x3b157796	0.0022806874
128	0x3dc93874	0.09825221
129	0xbdae7382	-0.08518125
130	0xbca728eb	-0.020405253
131	0x3a874ab2	0.0010321944
132	0xbde5cc76	-0.112206385
133	0xbd623df7	-0.055234876
134	0x3cdef914	0.02721838
135	0xbda4bf63	-0.080443166
136	0xbd8c8d51	-0.068628915
137	0x3d4e23f7	0.050327267
138	0xbd9863ab	-0.07440885
139	0xbd48b3bb	-0.04899953
140	0xbdb07eee	-0.0861796
141	0xbd565318	-0.052325338
142	0x3d54ec75	0.051983315
143	0xbd007bd4	-0.03136809
144	0xbc978fe2	-0.018501226
145	0xbc3ef1e0	-0.011654347
146	0x3db2e18f	0.08734428
147	0x3d9b7019	0.0758974
148	0x3d1fedd5	0.039045174
149	0x3c8ffb97	0.017576022
150	0xbddb3d6e	-0.10705076
151	0x3d2e8c5f	0.042614337
152	0xbdcb4369	-0.09924967
153	0xbd03daf6	-0.03219124
154	0x3d71578f	0.058921393
155	0xbd43c2c2	-0.047793157
156	0xbd8b2d09	-0.06795699
157	0xbc868714	-0.016421832
158	0x3c632995	0.013864894
159	0xbc929c71	-0.017896863
160	0xbd3292fa	-0.0435972
161	0x3db66eb1	0.089078315
162	0xbc91010c	-0.017700695
163	0x3d9f7aa4	0.07787064
164	0xbd88cdf8	-0.066799104
165	0x3d4f02b1	0.050539676
166	0x3d23b27c	0.039965138
167	0x3b7e34ba	0.0038788752
168	0x3c87173c	0.016490571
169	0x3d80836f	0.06275069
170	0xbdaacb93	-0.0833961
171	0x3b9c5c8c	0.0047717746
172	0xbd830244	-0.063969165
173	0x3d9e6dd8	0.07735795
174	0x3db990ff	0.09060859
175	0xbc92aa4d	-0.017903471
176	0xbd9ac708	-0.075574934
177	0xbd6726ca	-0.056433477
178	0x3d656ccf	0.05601197
179	0x3cb00358	0.02148597
180	0xbd957e9e	-0.07299541
181	0x3da4e8bf	0.08052205
182	0xbd9d459e	-0.07679294
183	0x3d990e25	0.07473401
184	0xbd3cdec6	-0.04611089
185	0x3dcacf9c	0.099028796
186	0x3dbdb834	0.092636496
187	0x3d82ea82	0.06392385
188	0x3d3c567b	0.04598091
189	0xbb8d02ac	-0.004303297
190	0xbcbc0b4b	-0.022954604
191	0x3d813da9	0.06310589
192	0xbdd1e4eb	-0.10248741
193	0x3d10ae67	0.035322573
194	0x3ca4eb1f	0.020131646
195	0xbd1af7fe	-0.03783416
196	0x3c5f3144	0.013622586
197	0x3dabb35d	0.0838382
198	0x3ce28725	0.027652333
199	0x3dd6ca95	0.10487858
200	0x3d2aee9e	0.04173147
201	0xbd00d008	-0.031448394
202	0x3cc9093f	0.024540542
203	0xbd0e9f7c	-0.034820065
204	0x3d257450	0.040394127
205	0x3c52ead0	0.0128733665
206	0xbdcbb370	-0.09946334
207	0x3da3a6ca	0.07990797
208	0x3dc0eaeb	0.09419807
209	0xbdbebed5	-0.09313742
210	0xbc906d81	-0.01763034
211	0xbdad59f8	-0.08464426
212	0x3ddb7dc9	0.10717351
213	0xbd442985	-0.04789116
214	0xbdb34d44	-0.087549716
215	0xbdd27219	-0.10275669
216	0x3d862e1d	0.06551764
217	0xbcd87835	-0.026424507
218	0xbd886ad0	-0.06660998
219	0xbcbea1f5	-0.023270587
220	0xbb111d6b	-0.0022142779
221	0xbcaf95ca	-0.02143373
222	0xbdbcf32f	-0.09226071
223	0xbd443198	-0.04789886
224	0x3dcc47fa	0.09974666
225	0xbd2879d1	-0.0411318
226	0x3cc2d616	0.023783725
227	0x3d510431	0.051029388
228	0x3caf835a	0.021424938
229	0xbde000f4	-0.10937682
230	0x3ca550b7	0.02018009
231	0x3d88bc9c	0.066765994
232	0x3ddffd4b	0.10936984
233	0xbd83d95c	-0.064379424
234	0xbc3410e8	-0.010990359
235	0xbd4ae17c	-0.049531445
236	0x3d24ff71	0.04028267
237	0x3c07fe60	0.008300394
238	0xbdbe34d9	-0.09287424
239	0x3c41c1b0	0.011825964
240	0xbdb95590	-0.09049523
241	0x3d941f7b	0.07232567
242	0x3ddd2871	0.10798729
243	0xbd84e016	-0.064880535
244	0xbdc11a0a	-0.09428795
245	0x3cc05307	0.02347709
246	0xbd88ea86	-0.06685357
247	0xbde1f287	-0.110325865
248	0x3dcdc4d5	0.10047308
249	0x3ce0e894	0.027454652
250	0xbde62eb2	-0.11239375
251	0xbd977dda	-0.07397051
252	0x3bae34c8	0.0053163506
253	0x3dcdf855	0.10057131
254	0x3ca0b2af	0.019616453
255	0x3d8781a4	0.06616524

conv.3.bias f4 [16]
0	0xbde74db8	-0.112941206
1	0x3d604c56	0.0547603
2	0x3de8bcd2	0.113641396
3	0x3dba441f	0.09095024
4	0x3de9801a	0.114013866
5	0x3d2eab46	0.042643808
6	0xbdd84595	-0.10560147
7	0xbcdf96d0	-0.027293593
8	0xbd3514e4	-0.044209376
9	0x3d5820b9	0.05276558
10	0x3bed484e	0.0072412854
11	0x3d522dc9	0.051313195
12	0xbcc213c3	-0.023691064
13	0xbc1f23bd	-0.0097131105
14	0x3db8a3f1	0.09015644
15	0xbcff9de4	-0.031203218

gru.weight_ih_l0 f4 [192, 16]
0	0x3dbaf2a9	0.09128315
1	0x3d832c17	0.06404894
2	0xbdbf3caa	-0.093377426
3	0x3dd7a8cb	0.105302416
4	0x3d7043d4	0.058658436
5	0xbd095d20	-0.033536077
6	0x3cd4f66f	0.025996415
7	0x3de2fcde	0.11083387
8	0xbd9da4e7	-0.07697468
9	0xbd06d9e1	-0.03292263
10	0x3ddf68d4	0.10908666
11	0xbd3449c6	-0.04401567
12	0x3db98bac	0.090598434
13	0xbdd23f74	-0.10266009
14	0xbdd20e55	-0.1025664
15	0x3d8798d7	0.06620949
16	0x3baa9677	0.005205925
17	0x3ddfea54	0.109333664
18	0x3d24e9cc	0.04026203
19	0x3bc7f142	0.006101758
20	0x3db6c20a	0.08923729
21	0xbdd8aef3	-0.10580244
22	0x3c121a7e	0.008917449
23	0xbde3b597	-0.1111862
24	0x3d2c8b63	0.042125117
25	0x3dfa77bc	0.12229869
26	0x3d501c7a	0.050808407
27	0xbd51fa77	-0.051264253
28	0x3ca2d9e5	0.01987929
29	0x3d912b5c	0.07088348
30	0x3d26e2fb	0.04074381
31	0x3cf882cf	0.030335812
32	0x3bbbd7ea	0.005732526
33	0x3dcc9ca8	0.09990817
34	0x3da824bc	0.082101315
35	0xbdd408ef	-0.103532664
36	0xbcc03e19	-0.02346711
37	0x3ddc622f	0.107609145
38	0xbdad1e7d	-0.08453081
39	0xbd50348b	-0.05083136
40	0xbcd45922	-0.025921408
41	0xbdc9bce5	-0.09850482
42	0xbcbd04cf	-0.023073582
43	0xbd9a322f	-0.07529103
44	0xbdbe5917	-0.09294336
45	0x3d03b13c	0.032151446
46	0xbc8a3dca	-0.016875166
47	0xbd191dfc	-0.03738211
48	0x3d5ca3c4	0.053867117
49	0xbccc86c3	-0.024966603
50	0x3df12de7	0.11776333
51	0x3b1ca77e	0.0023903544
52	0xbbda9143	-0.0066701486
53	0xbd0b069d	-0.033941854
54	0x3ae98a0b	0.0017817629
55	0xbcd496be	-0.025950786
56	0x3d977b70	0.07396591
57	0x3dc8c130	0.098024726
58	0x3d84dba7	0.06487208
59	0x3dc333e2	0.0953138
60	0xbda1ce17	-0.07900637
61	0x3c00d478	0.0078631565
62	0xbde6558b	-0.11246785
63	0xbdbdb3d5	-0.09262816
64	0x3bf2b491	0.007406779
65	0x3d0c7339	0.034289572
66	0x3cd88267	0.026429368
67	0xbd1c0c42	-0.038097627
68	0x3dfc0f03	0.12307551
69	0x3d3075d1	0.04308111
70	0x3dca05e0	0.09864402
71	0xbc0d461c	-0.008622672
72	0xbdb07805	-0.08616642
73	0xbd6f7bf4	-0.05846782
74	0xbc237cb8	-0.009978466
75	0x3d816144	0.0631738
76	0xbd5eebd4	-0.054424122
77	0x3dbdea5f	0.09273218
78	0xbd9cc3ec	-0.07654557
79	0xbd38baec	-0.045100138
80	0xbd9a8b9b	-0.07546159
81	0xbcbff7f9	-0.023433672
82	0x3cc10bd2	0.023565207
83	0x3d0c6239	0.03427336
84	0xbbbddf81	-0.005794466
85	0x3da2294c	0.07918033
86	0x3c89b408	0.016809478
87	0x3ddf44bb	0.10901781
88	0x3dad38a5	0.0845807
89	0xbdbcc114	-0.09216514
90	0x3d84c91d	0.06483672
91	0xbdd1d34a	-0.10245378
92	0x3dd50441	0.10401202
93	0xbd5ca8e7	-0.053872015
94	0x3c5e0c29	0.013552704
95	0x3d815b2d	0.063162185
96	0x3c282843	0.010263505
97	0xbd393e0f	-0.0452252
98	0xbb914e51	-0.004434385
99	0xbc39ac59	-0.011332595
100	0xbcdbb6a3	-0.026820486
101	0x3c765225	0.015034233
102	0x3cbdd3bf	0.023172257
103	0xbd1a553e	-0.03767895
104	0xbdf35f4c	-0.11883411
105	0x3d824fad	0.06362853
106	0x3c806496	0.015672963
107	0x3d077aa1	0.033075932
108	0x3df4a908	0.11946303
109	0x3dc69f72	0.096983805
110	0xbb32c956	-0.002728065
111	0x3c0c1d1b	0.008551861
112	0xbdda3601	-0.10654832
113	0x3dd17898	0.102280796
114	0x3c4a1ac8	0.012335487
115	0x3d19795d	0.037469257
116	0x3dc70455	0.09717623
117	0x3cb7b2d7	0.022424145
118	0x3d9e9655	0.07743517
119	0xbd6d7d1b	-0.057980638
120	0x3d824695	0.06361119
121	0xbc9ec3ad	-0.019380415
122	0x3d810345	0.06299452
123	0x3d1abb54	0.037776306
124	0xbdc892da	-0.09793635
125	0xbc47ead2	-0.012201982
126	0x3dd30719	0.10304088
127	0x3dc5627a	0.096379235
128	0xbc0963b8	-0.008385591
129	0x3d8d6529	0.069040604
130	0xbc417316	-0.011807224
131	0x3d95a02f	0.07305943
132	0xbd9d27ac	-0.076735824
133	0x3d40a6ee	0.047034197
134	0x3cd5013b	0.026001563
135	0x3caded94	0.02123145
136	0xbd657f72	-0.056029744
137	0x3d2b14ae	0.04176777
138	0x3d9f71ba	0.077853635
139	0x3dfa2958	0.12214917
140	0x3de2f725	0.11082295
141	0x3dbd8825	0.09254483
142	0xbd5704bc	-0.05249475
143	0x3df90f61	0.121611364
144	0x3ac2899e	0.0014842039
145	0x3da551d5	0.08072249
146	0x3dd74783	0.10511687
147	0xbdde3d5a	-0.10851546
148	0xbdcde2c8	-0.10053021
149	0xbdc181e9	-0.094486065
150	0xbd093ea7	-0.033507016
151	0x3cee5662	0.029093925
152	0xbd877a59	-0.06615133
153	0x3d5b6c12	0.05356986
154	0x3dcbb993	0.09947505
155	0x3dff9192	0.12478937
156	0x3ba4c3d9	0.0050282297
157	0xbd690f4c	-0.056899354
158	0x3df97a86	0.121815726
159	0xbd3b878f	-0.045783576
160	0xbad3e870	-0.0016167294
161	0xbdacf76e	-0.08445631
162	0x3d793c86	0.060848735
163	0xbddb4fff	-0.107086174
164	0xbdbb4127	-0.09143286
165	0xbcf419d2	-0.029797468
166	0x3c681ffc	0.014167782
167	0xbd72dbc9	-0.059291635
168	0x3deec340	0.11658335
169	0x3d87364c	0.06602153
170	0xbd99301a	-0.07479878
171	0x3de838be	0.11338948
172	0xbc9cccd4	-0.019140638
173	0xbdaf5579	-0.085612245
174	0x3dda866b	0.106701694
175	0xbd7a37cb	-0.061088365
176	0xbb4731a0	-0.003039457
177	0x3dbca5c3	0.09211304
178	0x3c3a74d7	0.011380396
179	0x3c7bb8af	0.015363856
180	0xbde0e303	-0.10980799
181	0x3d504082	0.05084277
182	0xbd93893d	-0.072039105
183	0x3cdec15b	0.027191808
184	0x3cf8fdb0	0.030394405
185	0x3d22eda7	0.039777424
186	0xbdb38862	-0.08766247
187	0x3c511b34	0.012762833
188	0x3db74d0b	0.08950242
189	0x3d4d3011	0.050094668
190	0xbd62f744	-0.055411592
191	0x3d7b785e	0.061394088
192	0x3d0d73d3	0.034534287
193	0xbc1c2350	-0.0095299035
194	0x3d161528	0.03664127
195	0x3dee427b	0.11633774
196	0x3c86480d	0.016391778
197	0x3af2a5a9	0.0018512505
198	0xbd6fa1b1	-0.05850381
199	0x3dfc214c	0.123110384
200	0x3da49227	0.08035689
201	0x3da384e2	0.0798433
202	0xbc7f6e6e	-0.015590293
203	0x3ded6793	0.11592021
204	0xbd763d0e	-0.06011682
205	0xbdcff6b0	-0.10154474
206	0x3cfcce3f	0.030860065
207	0x3df8a342	0.12140514
208	0x3de0132e	0.10941158
209	0x3da81de3	0.082088254
210	0xbdb37799	-0.08763046
211	0x3d13a626	0.036047123
212	0xbd7e2d35	-0.06205483
213	0x3d277aa6	0.04088845
214	0xbd3846e0	-0.044989467
215	0xbd246346	-0.040133737
216	0x3d858187	0.06518846
217	0xbcf571cc	-0.02996149
218	0x3dc2c63b	0.09510466
219	0xbcf85824	-0.030315466
220	0xbc44c2c2	-0.0120093245
221	0x3d583913	0.052788805
222	0x3dfdbc8a	0.123894766
223	0x3e039d81	0.12853052
224	0xbdd0f83b	-0.10203596
225	0x3dadc8d5	0.08485571
226	0xbd945acd	-0.072438814
227	0x3bfecea9	0.0077761007
228	0xbd029226	-0.03187766
229	0xbd25c795	-0.04047354
230	0xbcafde93	-0.021468436
231	0x3d992884	0.07478431
232	0xbcddcfa1	-0.027076544
233	0xbd0be3d4	-0.03415282
234	0xbd454554	-0.04816182
235	0xbbf91728	-0.0076016374
236	0x3d8dab57	0.06917446
237	0x3dfbb76c	0.12290844
238	0x3d1a71db	0.037706237
239	0x3c4f8a39	0.012667232
240	0xbd5a0a96	-0.05323275
241	0xbd824585	-0.06360916
242	0xbd1d6502	-0.038426407
243	0xbcd5ecd0	-0.026113898
244	0xbde62df4	-0.112392336
245	0x3d9e8b2b	0.07741388
246	0x3dabeced	0.083947994
247	0xbdc08662	-0.094006315
248	0xbd8d6e8a	-0.06905849
249	0xbc713ef7	-0.014724485
250	0x3c81f9c0	0.01586616
251	0xbd438a79	-0.04773948
252	0x3c2bf207	0.0104947155
253	0x3d9cbd5a	0.076533034
254	0x3dd2f686	0.10300927
255	0x3d521407	0.05128863

gru.weight_hh_l0 f4 [192, 64]
0	0x3d9fe31b	0.07806989
1	0x3de73112	0.11288656
2	0x3de75ebc	0.11297366
3	0xbd9959b3	-0.07487812
4	0xbde89e9d	-0.11358378
5	0x3d22f495	0.039784033
6	0xbdaba849	-0.08381707
7	0x3cf0a8a1	0.029377284
8	0xbda1933a	-0.07889409
9	0xbdf49025	-0.11941556
10	0x3c1fa988	0.009745009
11	0xbd830cfd	-0.06398962
12	0x3c255eb5	0.010093381
13	0x3db5ab40	0.08870554
14	0x3d17ef5a	0.037093498
15	0x3dbc3dc3	0.091914676
16	0xbc91e5dd	-0.017809803
17	0x3dea70e7	0.11447316
18	0x3df762fc	0.12079427
19	0x3d6869f3	0.056741666
20	0xbdce564f	-0.10075056
21	0xbd84dac4	-0.06487039
22	0x3d0aafd4	0.03385909
23	0x3cef60a8	0.029220894
24	0xbcbb23f0	-0.022844285
25	0x3df2dc31	0.118584044
26	0x3d7e64ae	0.062107734
27	0x3d992de1	0.07479454
28	0x3ce71fd9	0.028213428
29	0x3da3d13b	0.07998892
30	0x3ce1a723	0.027545517
31	0xbd14a680	-0.0362916
32	0x3d8e32bc	0.069432706
33	0x3d8188c0	0.06324911
34	0x3d884328	0.06653434
35	0x3dc55ada	0.09636469
36	0xbd603885	-0.0547414
37	0x3d2534be	0.040333502
38	0x3c7335c9	0.014844366
39	0xbd931ede	-0.07183622
40	0x3db4b3a7	0.088233285
41	0x3de0a3b8	0.10968727
42	0xbdc344cb	-0.095346056
43	0x3d996559	0.07490034
44	0x3de1cfc7	0.110259585
45	0x3dec69c3	0.1154361
46	0x3db33e85	0.08752159
47	0xbd2fe9b3	-0.042947482
48	0x3d7b08b6	0.061287604
49	0x3d05546d	0.032551218
50	0xbddefdb7	-0.10888236
51	0xbd72d2be	-0.05928301
52	0x3d294afa	0.04133127
53	0x3c2d2a91	0.010569231
54	0x3d68a293	0.056795668
55	0xbdb9194f	-0.0903803
56	0xbd82d045	-0.063873805
57	0x3d279148	0.040910035
58	0x3d745087	0.05964711
59	0xbcc27b36	-0.023740392
60	0x3d57b34f	0.052661236
61	0xbaf5f090	-0.001876371
62	0x3d9bd1d2	0.076083794
63	0xbd9ed626	-0.07755689
64	0xbd97a6f8	-0.07404894
65	0xbd28d382	-0.041217335
66	0x3d57a7f9	0.052650426
67	0x3dd4c55e	0.10389207
68	0xbde18801	-0.11012269
69	0x3da749bf	0.08168363
70	0x3d98596b	0.0743893
71	0xbd1c2607	-0.038122203
72	0x3d0bb93a	0.034112193
73	0xbd3d3de3	-0.046201598
74	0xbd788113	-0.06066997
75	0xbc904023	-0.017608708
76	0xbbb195f7	-0.0054194885
77	0x3db9c92d	0.09071574
78	0xbd6daa1c	-0.058023557
79	0xbdb4d4c2	-0.08829643
80	0x3cabf67f	0.020991562
81	0x3d9a344d	0.07529507
82	0x3d755830	0.059898555
83	0xbd98d2df	-0.074620955
84	0x3dd139ac	0.10216078
85	0x3cdfee67	0.027335359
86	0x3db36abb	0.087605916
87	0xbc6ae481	-0.014336706
88	0x3c972c72	0.01845381
89	0x3d80e149	0.0629297
90	0x3d83c593	0.06434169
91	0xba8baf91	-0.0010657181
92	0xbd5a02bd	-0.053225268
93	0x3d881664	0.06644896
94	0xbd9c1550	-0.076212525
95	0x3de81dc6	0.11333804
96	0x3cb24e07	0.021765722
97	0x3c13e99f	0.009027868
98	0xbd43b2e1	-0.047778014
99	0xbc4ee136	-0.012626937
100	0xbd91f74a	-0.07127245
101	0xbaa8dd02	-0.0012883248
102	0xb9ed85f7	-0.00045303974
103	0x3cdf1fc4	0.027236827
104	0x3d9b4274	0.07581034
105	0x3d6e8a7d	0.05823754
106	0x3dc979f1	0.098377116
107	0x3d370ee0	0.04469192
108	0x3d8f19a2	0.06987311
109	0xbbc06b30	-0.0058721527
110	0xbb11f40d	-0.002227071
111	0xbe01e54b	-0.12685125
112	0x3c29d366	0.010365343
113	0xbdd10dad	-0.102076866
114	0xbd11ee48	-0.035627633
115	0xbd205924	-0.03914751
116	0x3d3c3c45	0.045955915
117	0xbd8df46a	-0.06931384
118	0x3b51b53e	0.0031998898
119	0xbd61bb92	-0.05511052
120	0x3d648ae3	0.055796515
121	0x3dee0705	0.116224326
122	0xbdcbea4a	-0.099567965
123	0xbcec0a6f	-0.028813569
124	0xbdabb509	-0.08384139
125	0x3a5ae69e	0.00083504047
126	0xbdb58aab	-0.088643394
127	0xbd5b3c1b	-0.053524118
128	0x3dd73244	0.10507634
129	0x3d6fa18c	0.058503672
130	0x3a609bfa	0.0008568164
131	0xbc10f683	-0.0088478355
132	0xbdd87e95	-0.105710186
133	0x3d036a89	0.03208402
134	0xbde9eaa5	-0.11421708
135	0xbaf80e37	-0.0018925135
136	0x3e019393	0.12653951
137	0xbd5d9a97	-0.054102506
138	0xbd9d9978	-0.076952875
139	0xbd6ffb48	-0.05858925
140	0x3d320240	0.043459177
141	0x3df501ef	0.119632594
142	0xbd83b568	-0.06431085
143	0xbd0bd381	-0.034137253
144	0xbc76a330	-0.015053555
145	0xbc16bf3b	-0.009200866
146	0x3d49301e	0.049118154
147	0xbc988924	-0.018620081
148	0xbd0f4547	-0.034978177
149	0x3dbaed30	0.09127271
150	0xbd81c3f9	-0.06336207
151	0xbc3a3654	-0.011365492
152	0xbde7bb4d	-0.11315022
153	0xbd7d3081	-0.061813835
154	0xbd860f82	-0.06545927
155	0x3cb3d433	0.02195177
156	0xbd3ff7d6	-0.046867214
157	0x3daeb710	0.0853101
158	0xbdefbb3f	-0.11705636
159	0xbc750825	-0.014955555
160	0x3d9e79f1	0.07738102
161	0x3d3bb3cc	0.045825765
162	0x3dbbbb86	0.09166627
163	0xbda37e9c	-0.07983133
164	0x3d7ce6a9	0.061743412
165	0xbdc7457c	-0.0973005
166	0x3c5a9ee0	0.013343543
167	0xbd4309d4	-0.047616795
168	0xbd1c9fe0	-0.038238406
169	0x3d3a58c8	0.045494825
170	0x3d46b896	0.04851588
171	0x3d8329a3	0.06404426
172	0xbdb049fc	-0.086078614
173	0x3d5e75f9	0.054311726
174	0xbd562b25	-0.05228724
175	0xbdb5b570	-0.08872497
176	0x3d0ed0e0	0.034867167
177	0xbd626765	-0.055274386
178	0x3dca27bd	0.09870861
179	0xbb2b332b	-0.0026123028
180	0xbce47e90	-0.027892381
181	0x3d8a7d61	0.067621954
182	0xbc70e272	-0.014702426
183	0xbc819dcb	-0.015822312
184	0x3da1ffb9	0.07910103
185	0x3d872519	0.06598873
186	0x3df7e774	0.12104693
187	0x3dd17798	0.10227889
188	0xbd48fcab	-0.049069088
189	0x3df5e3bc	0.120063275
190	0x3d988b24	0.07448414
191	0xbdc38f9f	-0.09548878
192	0x3da6d885	0.081467666
193	0xbd129040	-0.0357821
194	0x3d4a1b04	0.04934217
195	0x3db2b9cf	0.087268464
196	0x3cc0dcbb	0.023542752
197	0xbda4c90d	-0.0804616
198	0xbd94e091	-0.07269395
199	0x3d9c3309	0.07626922
200	0xbd110c67	-0.03541222
201	0x3de8954c	0.11356601
202	0xbdbfac49	-0.09359033
203	0x3e04d696	0.12972483
204	0x3d2fa72e	0.042884044
205	0x3d1f7c1f	0.03893673
206	0x3def6b75	0.11690418
207	0xbdd5a9a6	-0.104327485
208	0xbc93150e	-0.017954376
209	0x3db069a5	0.086139
210	0xbd8e6967	-0.06953698
211	0xbd94e7f9	-0.07270808
212	0x3d9e954e	0.07743321
213	0xbabaa3cc	-0.0014239489
214	0x3d4a8c66	0.0494503
215	0x3d8e34b1	0.06943644
216	0x3e032e9b	0.12810747
217	0x3c708478	0.0146800205
218	0xbdbc0fd2	-0.09182705
219	0xbdaea7ce	-0.085281
220	0xbc53c9b5	-0.012926509
221	0x3dcba761	0.09944034
222	0xbde813f4	-0.11331931
223	0x3df1a956	0.117998764
224	0x3d521396	0.05128821
225	0xbdb62ae1	-0.08894897
226	0x3d96c6a1	0.07362104
227	0xbd46b175	-0.04850908
228	0x3d738582	0.059453495
229	0x3df7d9eb	0.121021114
230	0x3dc8e18f	0.09808647
231	0x3dad036d	0.08447919
232	0x3de92e48	0.113857806
233	0xbe05bffc	-0.13061517
234	0x3ddeaf56	0.108732864
235	0xbcaf4dd6	-0.02139942
236	0xbdb9b249	-0.09067208
237	0xbb451926	-0.0030074804
238	0x3d950f8d	0.07278357
239	0xbdd8851b	-0.10572263
240	0xbc3c81b4	-0.011505533
241	0xbd63839a	-0.055545427
242	0xbdde16eb	-0.10844215
243	0xbdf47ec7	-0.11938243
244	0xbddfd68a	-0.10929592
245	0xbd4dc4b0	-0.050236404
246	0xbd47dc9a	-0.048794366
247	0x3c8f3168	0.017479613
248	0xbdd5204d	-0.104065515
249	0x3d5a26ec	0.053259775
250	0x3db18e96	0.08669774
251	0x3d790d44	0.060803667
252	0x3c5ad116	0.013355514
253	0xbdd2a947	-0.10286193
254	0xbdb7b8ab	-0.089707695
255	0x3d5ae106	0.053437255

gru.bias_ih_l0 f4 [192]
0	0xbdabac54	-0.08382478
1	0xbbb64597	-0.005562495
2	0xbdc8ef0b	-0.09811219
3	0x3dd925fb	0.10602947
4	0x3d7c5d62	0.061612494
5	0xbd20ffed	-0.03930657
6	0xbdf8637f	-0.121283524
7	0x3d440331	0.047854606
8	0xbdf9d090	-0.12197983
9	0xbc8f1916	-0.017468017
10	0xbd8dcaf3	-0.06923475
11	0xbcf73b55	-0.030179659
12	0xbd607ce7	-0.054806616
13	0x3cbbb257	0.022912188
14	0x3cf1e1d8	0.029526636
15	0x3dfa834c	0.12232074
16	0xbdeedb4f	-0.116629235
17	0x3dd157fe	0.10221861
18	0xbdb313f4	-0.0874404
19	0xbdce9a57	-0.10088032
20	0x3cccd6a9	0.025004702
21	0xbb2103fc	-0.0024569025
22	0x3cb3b83e	0.02193844
23	0x3da18c3c	0.07888076
24	0xbdb57a10	-0.08861172
25	0x3b9bcd98	0.0047547333
26	0xbdc54965	-0.096331395
27	0xbce1cd7c	-0.027563803
28	0xbd6ef42f	-0.05833834
29	0x3de3e149	0.11126954
30	0x3de5d386	0.112219855
31	0x3cd3770e	0.025813606
32	0x3aa3da30	0.0012500938
33	0xbdde5527	-0.10856085
34	0xbd22373d	-0.03960346
35	0x3dec4918	0.11537379
36	0xbdba7743	-0.091047786
37	0x3db4e72b	0.08833154
38	0x3df99636	0.121868536
39	0x3dbdb3b4	0.09262791
40	0x3d00fdc9	0.03149203
41	0xbd3beee4	-0.04588212
42	0x3c90ecd5	0.017691055
43	0x3d4bd468	0.049763113
44	0x3ddb3454	0.1070334
45	0xbdad6c60	-0.084679365
46	0x3ce30d1e	0.027716216
47	0xbd86170a	-0.06547363
48	0xbc997228	-0.018731192
49	0xbdbb8296	-0.09155767
50	0xbd807a75	-0.06273357
51	0x3d906082	0.070496574
52	0xbd44a7d7	-0.048011627
53	0xbdd46faf	-0.103728645
54	0xbdb2959e	-0.087199435
55	0x3abcc670	0.0014402401
56	0x3dc4162a	0.0957454
57	0xbd26e432	-0.040744968
58	0x3d8f2379	0.06989188
59	0x3c719362	0.014744611
60	0xbcdb1bbe	-0.026746627
61	0xbb590370	-0.0033113621
62	0x3d07a8ed	0.033120085
63	0xbca7b697	-0.020472808
64	0xbc9bb263	-0.01900596
65	0xbdc105a1	-0.09424902
66	0x3c8eead7	0.017445965
67	0xbdef0f8b	-0.116728865
68	0xbbc3629b	-0.0059626824
69	0x3d9538cb	0.07286223
70	0x3c993ffb	0.018707266
71	0x3d68706f	0.05674785
72	0xbd79893c	-0.060921893
73	0xbc9504eb	-0.018190822
74	0xbdefe418	-0.11713427
75	0xbcb9f464	-0.022699542
76	0xbc9af4b5	-0.018915514
77	0xbd6a914b	-0.05726747
78	0x3c999d7b	0.01875185
79	0x3db0f8db	0.086412154
80	0xbd4a8c20	-0.04945004
81	0xbcf0101d	-0.029304558
82	0x3d19c2a7	0.03753915
83	0xbde0b113	-0.10971274
84	0xbdcfabfd	-0.10140226
85	0xbdf72e98	-0.12069434
86	0xbd2ce8f9	-0.042214368
87	0xbdba3337	-0.090918
88	0x3deb82a2	0.114995256
89	0x3d27ec36	0.040996753
90	0xbbdd1688	-0.0067470707
91	0xbc297921	-0.010343821
92	0xbd85a203	-0.06525042
93	0xbdcb6fa8	-0.09933406
94	0xbdcbbfdf	-0.09948706
95	0x3c17dcd0	0.009268954
96	0x3d9e4c20	0.077293634
97	0xbdb5ec8a	-0.08883007
98	0xbcdbae5d	-0.026816541
99	0xbc4db100	-0.012554407
100	0x3daccb01	0.084371574
101	0x3ceeb28f	0.029137878
102	0xbddda20e	-0.10821925
103	0x3c98ba8f	0.018643646
104	0x3d01969e	0.03163778
105	0xbd8f2bd4	-0.069907814
106	0x3d8fbe09	0.07018668
107	0xbd12eb4f	-0.03586894
108	0x3d5f2b7a	0.05448482
109	0x3c416b57	0.011805377
110	0xbdbc5253	-0.091953896
111	0xbda3e2e6	-0.08002262
112	0xbd0ecbec	-0.034862444
113	0x3ce69c4d	0.028150702
114	0xbd928671	-0.07154549
115	0xbd7951f6	-0.06086918
116	0xbb0840a8	-0.0020790491
117	0x3cc6d53d	0.024271602
118	0x3c4ca389	0.012490162
119	0x3d63e12d	0.055634666
120	0x3d071d61	0.032987002
121	0xbd72026d	-0.059084345
122	0xbd31533a	-0.04329226
123	0xbd3b5c75	-0.04574247
124	0xbd3dc55a	-0.046330787
125	0xbd7459c7	-0.05965593
126	0xbd6e20e7	-0.058136847
127	0xbcdaffaf	-0.026733248
128	0x3da60266	0.08105926
129	0x3dc873e1	0.09787727
130	0x3d3f2f57	0.046676006
131	0xbd326d17	-0.043561067
132	0x3c7c7d9f	0.01541081
133	0xba843559	-0.00100867
134	0xbd69e41d	-0.05710231
135	0xbddacf6a	-0.10684092
136	0x3dd96186	0.10614304
137	0xbcc44ae7	-0.023961497
138	0xbde39631	-0.11112631
139	0x3dc2b5d9	0.09507341
140	0x3dccadab	0.09994062
141	0xbbf981da	-0.0076143565
142	0x3d630470	0.055424154
143	0xbd20dcbb	-0.039273005
144	0x3d50b148	0.05095032
145	0xbd4aff78	-0.04956004
146	0x3c8b6fef	0.017021148
147	0xbd9acdab	-0.07558759
148	0xbd9884d1	-0.07447208
149	0x3d877d19	0.06615657
150	0xbdfa0d4d	-0.12209568
151	0xbd10eb38	-0.035380572
152	0x3db49310	0.088171124
153	0xbd3cb4ff	-0.04607105
154	0x3d0d9c5d	0.034572948
155	0xbdc37a7c	-0.095448464
156	0xbdd1a10a	-0.10235794
157	0xbd91b60d	-0.071148016
158	0xbc9e13f3	-0.019296622
159	0x3dc82a58	0.097737014
160	0x3d41c3db	0.047305923
161	0xbde1ae0e	-0.110195264
162	0x3cd14155	0.025543848
163	0xba200a92	-0.0006105091
164	0x3d8a2a15	0.06746308
165	0x3caccfdb	0.021095207
166	0xbde83233	-0.113377
167	0xbddc8cbe	-0.10769032
168	0x3d569c6d	0.052395273
169	0xbdd27f3a	-0.10278173
170	0x3d9a4be0	0.07534003
171	0xbdcef762	-0.10105778
172	0x3db2fd66	0.08739738
173	0xbe011b66	-0.12608108
174	0xbdf1957f	-0.11796092
175	0xbb45fb64	-0.0030209655
176	0x3d643600	0.05571556
177	0x3d880388	0.066412985
178	0x3dff1576	0.12455265
179	0xbd58015d	-0.052735675
180	0x3cceaea1	0.025229754
181	0xbda19a94	-0.078908116
182	0xbdeadd55	-0.11467997
183	0x3deba61d	0.11506293
184	0xbc1eb181	-0.009685875
185	0x3d2e9901	0.042626385
186	0xbdb5c399	-0.08875198
187	0xbd1eb0f8	-0.03874299
188	0x3c016743	0.007898155
189	0xbd0119fd	-0.031518925
190	0xbd2a6162	-0.041596778
191	0xbde7d1b9	-0.11319298

gru.bias_hh_l0 f4 [192]
0	0x3c1f2004	0.009712223
1	0x3ddae947	0.10689025
2	0xbde42fd1	-0.11141933
3	0xbdc8dcdb	-0.0980775
4	0xbd606f02	-0.054793365
5	0xbdddef7d	-0.108366944
6	0xbcd00145	-0.02539123
7	0x3d8dacd1	0.06917728
8	0x3c92e11b	0.017929604
9	0x3d895d01	0.06707192
10	0xbdae7e71	-0.085202105
11	0xbdba6b89	-0.09102542
12	0xbd3c178f	-0.045920905
13	0x3de6dd2c	0.11272654
14	0xbc3a7403	-0.011380198
15	0x3dd4ca24	0.10390118
16	0x3dbff43b	0.09372755
17	0x3dcbba86	0.09947686
18	0xbd37e1f0	-0.044893205
19	0xbca2e92d	-0.019886578
20	0xbdc06d9d	-0.09395907
21	0xbd0dd713	-0.03462894
22	0x3d0f7351	0.035022084
23	0x3dc4f582	0.096171394
24	0x3da3970e	0.07987796
25	0x3dee1617	0.11625307
26	0xbdf6813b	-0.120363675
27	0xbdef7098	-0.116913974
28	0x3d47d265	0.048784632
29	0x3c6c669e	0.014428763
30	0x3d90ca2a	0.0706981
31	0x3dea5745	0.114424266
32	0xbdecc3ec	-0.11560807
33	0xbd86dfc5	-0.065856494
34	0xbdd8e5eb	-0.10590728
35	0x3d9b2214	0.07574859
36	0x3da09f25	0.078428544
37	0xbd601705	-0.054709453
38	0xbdc8b56c	-0.098002285
39	0x3cd0c5b7	0.025484903
40	0xbda7d3bd	-0.08194683
41	0x3d484ad4	0.048899487
42	0xbd478d99	-0.048719022
43	0xbd73ce93	-0.059523176
44	0xbda95438	-0.082680166
45	0x3db322ac	0.087468475
46	0xbdc756cd	-0.09733353
47	0xbd338b85	-0.043834228
48	0xbd28706a	-0.04112283
49	0x3d47546c	0.048664495
50	0x3b6519d0	0.0034958012
51	0xbe017078	-0.1264056
52	0xbc91bf11	-0.017791303
53	0x3d05d005	0.032669086
54	0x3d62dd40	0.05538678
55	0xbd7b259e	-0.06131517
56	0x3d60cd51	0.054883305
57	0xbdddb50f	-0.1082555
58	0xbdb8cf8f	-0.09023964
59	0x3c3a1cf2	0.01135944
60	0xbd379e68	-0.044828802
61	0xbd78c921	-0.060738686
62	0xbd173d82	-0.036923893
63	0x3ca66080	0.020309687
64	0x3d2fb763	0.0428995
65	0x3d8d14eb	0.068887554
66	0x3da593db	0.08084842
67	0xbd5617a2	-0.05226863
68	0xbcc5221f	-0.024064122
69	0xbd879361	-0.06619907
70	0x3b0d381c	0.0021548336
71	0x3dd5080a	0.10401924
72	0x3dfd7744	0.12376264
73	0xbd4a8d02	-0.04945088
74	0xbca12a46	-0.019673478
75	0x3d3ab00e	0.045578055
76	0xbc80cd8d	-0.015723014
77	0xbd030953	-0.031991314
78	0xbdb1befe	-0.08679007
79	0x3d5e2364	0.05423297
80	0x3c087c98	0.008330487
81	0xbd8bceb8	-0.06826538
82	0xbd902dfc	-0.07040021
83	0xbde25cef	-0.11052882
84	0xbd0427d6	-0.032264553
85	0x3da72e12	0.08163084
86	0xbdc4632e	-0.095892295
87	0xbdc73923	-0.09727695
88	0x3dda1222	0.1064799
89	0xbcc0e9b7	-0.023548944
90	0xbdcf0125	-0.1010764
91	0xbdcdf73a	-0.1005692
92	0x3d417711	0.04723269
93	0x3cb75c16	0.022382777
94	0xbdc00ecf	-0.093778245
95	0xbdccd698	-0.10001868
96	0xbc2c6ccf	-0.010523989
97	0x3d2224e8	0.039585978
98	0xbdc74154	-0.09729257
99	0xbcf75287	-0.03019072
100	0xbda8b5d3	-0.08237805
101	0x3cf9c1cf	0.030487923
102	0xbcbd381e	-0.023098048
103	0x3d3b2107	0.045685794
104	0x3cd327fc	0.025775902
105	0xbd102f1a	-0.03520117
106	0x3dd231e9	0.10263426
107	0x3de1003d	0.109863736
108	0x3d596152	0.053071328
109	0xbd27e177	-0.040986504
110	0x3dd9dec5	0.10638193
111	0x386cc5aa	5.6450874e-05
112	0x3d8d3f01	0.06896783
113	0xbd6ce32d	-0.05783384
114	0xbcf83f60	-0.030303657
115	0xbc76b532	-0.015057849
116	0x3d81b4c1	0.06333304
117	0x3c878b1d	0.016545827
118	0xbd179f20	-0.037016988
119	0x3dbf80af	0.09350716
120	0x3d8c9874	0.068650156
121	0x3d46e307	0.048556354
122	0x3dd13119	0.10214443
123	0xbd890db0	-0.06692064
124	0x3db2ed2f	0.087366454
125	0x3c93b526	0.018030714
126	0x3dd55faa	0.10418637
127	0xbdf7b5e0	-0.12095237
128	0x3d27be3b	0.040952902
129	0x3dddab77	0.1082372
130	0xbd33b3dc	-0.0438727
131	0xbd8164f0	-0.063180804
132	0x3dcede13	0.10100951
133	0xbcb73278	-0.022362933
134	0xbda823ca	-0.08209951
135	0x3d94c154	0.07263437
136	0xbd45bc4b	-0.048275273
137	0x3d91c7e2	0.07118203
138	0xbd088551	-0.033330265
139	0x3de3685f	0.111038916
140	0xbdf9d826	-0.1219943
141	0x3cfc85ef	0.030825583
142	0xbc5fa518	-0.013650201
143	0xbd326181	-0.04355002
144	0xbdeec449	-0.11658532
145	0x3d93c408	0.07215124
146	0xbdc73350	-0.09726584
147	0x3d1c40a8	0.0381476
148	0x3bdec2f1	0.006798141
149	0xbdb6e6f9	-0.08930773
150	0xbcf069ef	-0.029347388
151	0x3ac0de98	0.0014714776
152	0x3d1c06dc	0.03809248
153	0xbdfcc3b9	-0.12342019
154	0xbdd40174	-0.1035184
155	0xbad9e336	-0.00166235
156	0x3c1c5d56	0.009543737
157	0x3cf31663	0.02967376
158	0x3d126a01	0.035745624
159	0x3ddd0b47	0.107931666
160	0xbd7a974d	-0.061179448
161	0x3d9be5b7	0.07612174
162	0x3cf68b29	0.030095654
163	0xbdb50d2f	-0.08840405
164	0x3d500776	0.050788365
165	0x3cf1b21f	0.02950388
166	0x3cbfa611	0.023394616
167	0x3dae3ed7	0.085080795
168	0x3da10e7f	0.07864093
169	0x3d2d15ba	0.04225705
170	0x3dd32f6b	0.10311779
171	0xbdef39f6	-0.11680977
172	0xbdadbeb5	-0.0848364
173	0x3cfdb078	0.030967936
174	0xbc9c2962	-0.019062702
175	0xbde0f877	-0.10984891
176	0xbd491ca1	-0.04909957
177	0x3e0328b0	0.1280849
178	0x3dfed29c	0.12442514
179	0xba69a55d	-0.00089128857
180	0x3d9d9e9b	0.07696267
181	0x3da1073b	0.07862707
182	0xbd6ea3d7	-0.05826172
183	0x3c8cc922	0.017185751
184	0xbd121ca9	-0.035671864
185	0x3d6b7e6b	0.05749361
186	0xbd8f3224	-0.069919854
187	0x3ddc5b66	0.1075962
188	0xbd1efaf2	-0.03881354
189	0x3c8efe42	0.017455224
190	0xbda3db02	-0.08000757
191	0x3d2becf3	0.04197402

gru.weight_ih_l0_reverse f4 [192, 16]
0	0xbc45db83	-0.012076261
1	0xbdddd75f	-0.108320944
2	0xba39a261	-0.0007081386
3	0xbdbc17e3	-0.091842435
4	0x3d8e75c0	0.06956053
5	0x3c65ea5f	0.014032929
6	0xbcea5c22	-0.028608385
7	0x3c8a5817	0.016887708
8	0xbd043c13	-0.032283854
9	0x3dc3a014	0.09552017
10	0x3dbb3dd6	0.09142654
11	0xbdcbcaf2	-0.09950818
12	0xbac33210	-0.0014892239
13	0xbc5fc307	-0.013657338
14	0xbcf299a9	-0.029614286
15	0xbdbff6e6	-0.09373264
16	0xbdebdb42	-0.115164295
17	0xbd13c87e	-0.036079876
18	0xbdba44c0	-0.09095144
19	0xbd315ca4	-0.04330124
20	0xbd86046a	-0.06543811
21	0x3cd7356d	0.026270593
22	0xbd333cb4	-0.043759063
23	0x3d1056a7	0.035238888
24	0x3cbb61f4	0.022873856
25	0x3d8d70b5	0.06906263
26	0xbbe3283f	-0.006932288
27	0x3c02376b	0.007947783
28	0x3c9bb10a	0.019005317
29	0x3dad56e6	0.0846384
30	0x3d669b66	0.056300543
31	0xbd323a77	-0.043512788
32	0xbd781dbc	-0.060575232
33	0xbd3d69f3	-0.04624362
34	0xbd6a2efb	-0.05717371
35	0xbd8c17be	-0.06840466
36	0x3da98c35	0.082786955
37	0xbdd050f8	-0.101716936
38	0x3d58b957	0.05291113
39	0x3da3a7fc	0.07991025
40	0xbdc198b9	-0.09452958
41	0xbd7da334	-0.06192322
42	0x3db47732	0.08811797
43	0xbde94f7e	-0.11392115
44	0xbdef9da1	-0.11699987
45	0x3dd94c88	0.106103
46	0xbde83ebe	-0.11340092
47	0xbd944cdd	-0.07241223
48	0xbdb5c1fb	-0.088748895
49	0x3c879b63	0.016553586
50	0xbd947529	-0.07248909
51	0x3df28ee8	0.118436635
52	0xbce14932	-0.027500723
53	0x3d5b1cb9	0.05349419
54	0x3db76f98	0.08956832
55	0x3de21c84	0.11040595
56	0xbd369aa8	-0.044581085
57	0x3cb240e1	0.021759452
58	0xbd209a09	-0.0392094
59	0xbdb4d165	-0.08829001
60	0x3d5738c1	0.05254436
61	0xbc50452f	-0.012711807
62	0x3caf1d77	0.021376355
63	0x3c54093b	0.012941654
64	0x3cab6e83	0.02092672
65	0x3ce05725	0.027385304
66	0x3d948f60	0.07253909
67	0xbd4af325	-0.049548287
68	0x3d573639	0.052541945
69	0x3da706ea	0.08155616
70	0x3ddb2b5e	0.10701631
71	0xbca1fc7b	-0.019773712
72	0xbc882fb6	-0.016624313
73	0x3dd1fee9	0.102536984
74	0x3c539b56	0.012915453
75	0x3ac6c555	0.0015165011
76	0xbded13e6	-0.11576061
77	0x3df36b5a	0.1188571
78	0x3ddfa49a	0.10920067
79	0xbd9db4c4	-0.07700494
80	0x3dded7b6	0.10880987
81	0xbde28a22	-0.11061503
82	0x3c4be0e9	0.0124437595
83	0x3dff3913	0.12462058
84	0x3cfabb7a	0.030606974
85	0xbd43c089	-0.047791038
86	0xbd8a780d	-0.06761179
87	0xbcf7ad62	-0.030234043
88	0x3de9a54c	0.11408481
89	0xbdaf6335	-0.08563844
90	0xbd03078c	-0.03198962
91	0xbda57abc	-0.0808005
92	0x3ce4e687	0.027941955
93	0xbd20fdf9	-0.039304707
94	0x3e0391c7	0.12848578
95	0xbdd7551c	-0.1051428
96	0x3cc89086	0.024482977
97	0xbcce253a	-0.025164235
98	0xbe014771	-0.12624909
99	0xbdee19d6	-0.116260216
100	0x3d082d13	0.03324611
101	0x3d225d78	0.03963992
102	0x3c65169b	0.01398244
103	0xbd74c23d	-0.059755553
104	0xbd85dfe4	-0.065368444
105	0xbd083041	-0.033249144
106	0x3d399b43	0.045314085
107	0x3bd06d0c	0.0063606557
108	0xbc8d7eb7	-0.017272336
109	0x3c284a4e	0.010271622
110	0x3dd2feee	0.1030253
111	0xbb6d93e9	-0.0036251491
112	0xbb6b7d85	-0.003593297
113	0x3d1aeda8	0.037824303
114	0x3d5aac47	0.053386953
115	0xbd291f67	-0.041289713
116	0xbd9623d2	-0.07331051
117	0x3e02f5e5	0.12789114
118	0xbd37f8d7	-0.044915047
119	0xbcc0cd6e	-0.023535457
120	0x3ddf364e	0.1089903
121	0xbdb838be	-0.08995198
122	0xbdbabd62	-0.09118153
123	0x3da418d0	0.08012545
124	0x3e02443b	0.1272134
125	0x3db39a7d	0.08769701
126	0xbdb9c486	-0.09070687
127	0x3c0aef22	0.008479865
128	0x3a09f31b	0.0005262361
129	0x3c6b2314	0.014351625
130	0xbd130e81	-0.035902504
131	0x3dab92e8	0.083776295
132	0xbd8ac1e4	-0.06775263
133	0xbc0ae99d	-0.008478549
134	0xbd2f31d9	-0.042772148
135	0xbd91df43	-0.07122662
136	0x3de49e12	0.11162962
137	0xbd1f77e2	-0.03893269
138	0xbc831aaa	-0.016003925
139	0xbdbf98ba	-0.09355302
140	0x3da858bb	0.08220049
141	0x3d12280f	0.035682734
142	0xbdbd75aa	-0.09250958
143	0xbb9eb7f7	-0.0048437077
144	0x3e01ec55	0.1268781
145	0x3cfc4a37	0.030797107
146	0xbdb5aa3f	-0.088703625
147	0xbdc922c4	-0.09821084
148	0xbcb21cec	-0.021742307
149	0x3da7beaf	0.08190667
150	0x3d7cc893	0.06171472
151	0x3de935d5	0.11387221
152	0x3d71eeab	0.059065502
153	0x3ca0a9a7	0.019612147
154	0xbd9483a3	-0.0725167
155	0xbdc52ed6	-0.09628074
156	0xbbc3cf5c	-0.005975647
157	0xbdcac9a0	-0.09901738
158	0x3de42868	0.111405194
159	0x3d2ed11d	0.042679895
160	0xbcefc632	-0.029269312
161	0xbd368874	-0.044563726
162	0x3dbadcd0	0.09124148
163	0xbcecb5cf	-0.028895287
164	0xbdbd9cd7	-0.092584305
165	0xbd7d1632	-0.061788745
166	0xbdbc3274	-0.09189311
167	0xbcc71398	-0.024301335
168	0x3c341f56	0.010993799
169	0x3dc83c65	0.09777144
170	0x3c9c638b	0.019090435
171	0xbb022615	-0.0019859124
172	0x3cdec4da	0.027193476
173	0xbd2c6e47	-0.042097356
174	0xbc8a6949	-0.016895907
175	0xbc2420c7	-0.01001758
176	0xbc84538e	-0.016153123
177	0xbe03ce82	-0.12871745
178	0xbdc8e1f4	-0.09808722
179	0x3d712289	0.058870826
180	0xbd9df961	-0.07713581
181	0xbc914612	-0.017733607
182	0x3c135ac5	0.008993809
183	0xbde57c4e	-0.1120535
184	0xbd561fdd	-0.05227648
185	0x3d7d4fb9	0.061843608
186	0x3d096345	0.033541936
187	0x3d0eccab	0.034863155
188	0x3da5174e	0.08061086
189	0x3de0ea56	0.10982196
190	0x3db76115	0.08954064
191	0x3d3bb939	0.04583094
192	0x3db310c8	0.08743435
193	0x3d504caa	0.050854363
194	0xbd90df33	-0.07073822
195	0xbde23a22	-0.11046244
196	0x3d86e4a6	0.0658658
197	0x3df3d86f	0.11906516
198	0x3d3b6a4c	0.04575567
199	0xbc447559	-0.0119908685
200	0x3dccd6ac	0.10001883
201	0xbe003556	-0.12520346
202	0xbdda9f13	-0.10674872
203	0xbdfa46d7	-0.12220543
204	0x3c8156cf	0.015788464
205	0xbddf1996	-0.10893552
206	0x3d4e7f8e	0.050414614
207	0xbd9bd8dc	-0.07609722
208	0xbd52b33c	-0.051440462
209	0xbd4ee7fa	-0.0505142
210	0x3d90ff29	0.07079918
211	0x3dca43b5	0.09876195
212	0xbdf5abe8	-0.11995679
213	0xbd5e2521	-0.054234628
214	0x3deed658	0.116619766
215	0x3dc50445	0.09619955
216	0x3d896d2d	0.06710277
217	0xbdc8f244	-0.098118335
218	0x3dbff226	0.09372358
219	0x3daab9d2	0.08336224
220	0xbe010f77	-0.12603556
221	0xbdb01ad0	-0.08598864
222	0x3da123cf	0.07868158
223	0x3d9a1444	0.075233966
224	0x3dacf76f	0.08445632
225	0x3dcb9e63	0.09942319
226	0xbdc0cdce	-0.09414254
227	0xbc1482e0	-0.009064406
228	0x3d39274b	0.04520349
229	0xbddfd94f	-0.1093012
230	0x3d5a0f99	0.05323753
231	0x3d1bfe88	0.038084537
232	0x3dc29b3b	0.09502264
233	0xbdcd2e0e	-0.1001855
234	0x3d2df997	0.042474356
235	0x3d932343	0.0718446
236	0xbd96884d	-0.07350216
237	0x3d3c59f5	0.045984227
238	0x3dfc631a	0.123235896
239	0x3d6b568e	0.05745559
240	0xbddbcafe	-0.10732077
241	0xbd3caec4	-0.046065107
242	0xbd0ed89b	-0.03487454
243	0x3cbbe451	0.022936018
244	0xbdbb8102	-0.09155466
245	0xbb01b173	-0.0019789606
246	0xbca35e06	-0.019942295
247	0xbdf7e421	-0.12104059
248	0xbde304cf	-0.110849015
249	0xbd54d1d1	-0.05195791
250	0xbd1ed3fd	-0.038776387
251	0x3cf331c6	0.02968682
252	0xbd74be65	-0.059751887
253	0x3de96657	0.11396473
254	0xbc80889a	-0.015690137
255	0xbca7545a	-0.020425964

gru.weight_hh_l0_reverse f4 [192, 64]
0	0x3dfb97c0	0.122848034
1	0x3d638b9c	0.055553064
2	0x3dc416d4	0.095746666
3	0x3d9fb964	0.07799032
4	0x3beda140	0.0072518885
5	0x3d7cc6b0	0.06171292
6	0xbdd0b3a2	-0.10190512
7	0xbbede940	-0.0072604716
8	0xbd7388bc	-0.059456572
9	0x3de44668	0.111462414
10	0x3c8bc530	0.0170618
11	0xbdfdec44	-0.1239858
12	0xbc36f410	-0.0111665875
13	0x3dee26c6	0.11628489
14	0x3d97f610	0.074199796
15	0x3dad388a	0.084580496
16	0x3cbf6148	0.023361817
17	0x3d2fafb4	0.042892173
18	0xbb2f0500	-0.002670586
19	0x3d9e79f8	0.077381074
20	0x3de533ca	0.111915186
21	0x3d2f02f8	0.04272744
22	0x3dfd7b88	0.12377077
23	0xbccbfe68	-0.024901584
24	0x3c265210	0.010151401
25	0xbdc0f790	-0.09422219
26	0x3da5344a	0.08066614
27	0x3d84bd92	0.0648147
28	0xbdbd505a	-0.092438415
29	0x3d9699c4	0.07353547
30	0x3d5d5c10	0.054042876
31	0xbd1253a8	-0.035724312
32	0xbdb48aac	-0.08815512
33	0xbdb2a672	-0.08723153
34	0xbd3743dc	-0.04474245
35	0x3d8b919a	0.06814881
36	0xbc1fa4b0	-0.009743854
37	0xbdddaf76	-0.10824482
38	0xbd7a5708	-0.061118156
39	0x3de365be	0.1110339
40	0xbc949970	-0.018139571
41	0x3d6144a0	0.054997087
42	0xbde680b0	-0.11255014
43	0xbdc138f2	-0.094346896
44	0x3dd6d2b6	0.10489409
45	0xbd7c8ac0	-0.06165576
46	0xbd0740e0	-0.033020854
47	0x3d683a5c	0.05669628
48	0xbda0cca2	-0.078515306
49	0xbdbec75a	-0.09315367
50	0x3d8e959e	0.06962131
51	0xbcfedc68	-0.031110957
52	0x3dda52bc	0.106603116
53	0xbdc5ef1e	-0.096647486
54	0xbda7fd16	-0.08202569
55	0x3d9ddc0c	0.07707986
56	0xbd3a5d24	-0.045498982
57	0x3db847e6	0.089980885
58	0x3d9ac6ce	0.0755745
59	0x3b0e6d80	0.0021732748
60	0xbda2e7ec	-0.07954392
61	0x3ccc8930	0.02496776
62	0x3ddc383e	0.10752915
63	0x3d6f5c28	0.058437496
64	0xbcd37398	-0.025811955
65	0xbdec98ee	-0.115526065
66	0x3dbc85a8	0.092051804
67	0xbdff4440	-0.124641895
68	0x3bde90e0	0.006792173
69	0x3d8c6284	0.06854728
70	0x3d236694	0.039892748
71	0x3c0303e0	0.007996529
72	0xbdcf5c2e	-0.10125004
73	0xbdb20c18	-0.08693713
74	0xbdedd166	-0.11612205
75	0xbda0ea04	-0.07857135
76	0xbdf08732	-0.117445365
77	0xbd5d01a4	-0.053956643
78	0x3c977400	0.01848793
79	0x3db1dd90	0.08684838
80	0xbd9a7d90	-0.075434804
81	0x3de21ba8	0.11040431
82	0xba9cf800	-0.0011975765
83	0x3dc3dd06	0.09563641
84	0x3d632cb4	0.055462554
85	0xbdadfd06	-0.08495526
86	0x3dc55778	0.09635824
87	0xbdb542f8	-0.08850664
88	0xbc36deb0	-0.011161491
89	0x3d46cf64	0.048537627
90	0x3c20fdf0	0.009826168
91	0x3d8c770e	0.068586454
92	0xbdc99b20	-0.09844041
93	0x3ded7e8e	0.11596404
94	0xbd51c2d4	-0.051211193
95	0xbc0bb240	-0.008526385
96	0xbd988624	-0.0744746
97	0xbc9f4c98	-0.019445702
98	0xba2ad600	-0.0006516874
99	0x3d43599c	0.04769288
100	0xbc8938c0	-0.016750693
101	0x3d5a5c08	0.053310424
102	0xbbfb2ba0	-0.0076651126
103	0xbc605fe0	-0.013694733
104	0xbd02c6c4	-0.03192784
105	0xbd94fbd8	-0.07274598
106	0x3ca7cb70	0.020482749
107	0xbcf35b48	-0.029706612
108	0xbdafda24	-0.08586529
109	0x3b9513a0	0.0045494586
110	0x3c786d00	0.015162706
111	0xbd3121ec	-0.04324524
112	0xbde76dcc	-0.11300239
113	0x3d87b5b2	0.066264525
114	0xbd339268	-0.043840796
115	0xbd5f3604	-0.054494873
116	0xbd9c0872	-0.07618798
117	0x3dd4835e	0.10376619
118	0xbd862368	-0.06549722
119	0xbde86be6	-0.11348705
120	0x3dcecab6	0.10097258
121	0x3d1c268c	0.0381227
122	0xbcb6c810	-0.022312194
123	0x3dff6308	0.124700606
124	0x3d1215f0	0.035665452
125	0x3dba3a5e	0.09093164
126	0x3c87e350	0.016587883
127	0xbdfa7a94	-0.12230411
128	0x3d3484c4	0.044071928
129	0x3d0ee130	0.034882724
130	0xbdbe426a	-0.09290011
131	0x3dda7048	0.10665947
132	0xbcb764a8	-0.022386864
133	0xbd9648a2	-0.07338072
134	0xbccd37e0	-0.025051057
135	0xbd929a44	-0.0715833
136	0xbd9af290	-0.075657964
137	0xbdf22670	-0.118237376
138	0x3dedfca2	0.116204515
139	0xbd7f626c	-0.06234972
140	0xbd5a2854	-0.053261116
141	0xbca626b8	-0.020282134
142	0xbd1a4f08	-0.037673026
143	0xbd89f244	-0.067356616
144	0xbd95e03e	-0.073181614
145	0xbcede380	-0.029039145
146	0xbcf32818	-0.029682204
147	0x3c22b030	0.009929702
148	0x3b59bdc0	0.0033224672
149	0x3daf3078	0.085541666
150	0x3c161510	0.009160295
151	0x3cdbd580	0.026835203
152	0xbddd7676	-0.1081361
153	0xbdcb0730	-0.0991348
154	0xbd7493a8	-0.05971113
155	0x3d89c19c	0.06726381
156	0x3dbc2dc8	0.091884196
157	0xbdad9fd2	-0.08477749
158	0x3dc70c8a	0.097191885
159	0xbd77a770	-0.060462415
160	0xbc5ba170	-0.013405189
161	0x3dd8e290	0.10590088
162	0x3d8743fe	0.06604765
163	0x3d196620	0.03745091
164	0xbd357ffc	-0.04431151
165	0xbd0ed374	-0.034869626
166	0x3bdea380	0.006794393
167	0x3cf49fe8	0.029861405
168	0x3d18d5c0	0.037313223
169	0x3d0cd634	0.034383968
170	0x3dfd23d4	0.12360349
171	0x3d5c40a0	0.05377257
172	0xbd86dff4	-0.065856844
173	0xbcd26150	-0.025681168
174	0xbc5f7a50	-0.013640001
175	0x3d9ca0d0	0.0764786
176	0x3d8650fc	0.06558415
177	0xbd3d6878	-0.046242207
178	0x3d902c26	0.07039671
179	0x3df2a6a4	0.118481904
180	0xbd817f4a	-0.063231066
181	0x3cebe280	0.028794527
182	0xbcddb018	-0.027061507
183	0x3c91ad28	0.017782763
184	0x3dd893c2	0.105750576
185	0xbcece068	-0.028915599
186	0xbd0b7cfc	-0.03405474
187	0x3d0eba60	0.03484571
188	0xbca7c828	-0.020481184
189	0x3d940cc0	0.07228994
190	0xbcf34aa8	-0.029698685
191	0xbdd191f8	-0.102329195
192	0x3cd6a470	0.026201457
193	0xbbcca2c0	-0.0062449872
194	0xbd20cbf0	-0.03925699
195	0xbdf584ea	-0.11988242
196	0x3d5963e0	0.053073764
197	0xbd729d94	-0.05923231
198	0xbdb7a026	-0.08966093
199	0x3c810ae8	0.01575227
200	0x3c93a518	0.018023059
201	0x39261c00	0.00015841424
202	0xbd0b207c	-0.033966526
203	0xbd1d6d8c	-0.03843455
204	0xbd21fdb8	-0.039548606
205	0x3d6454c8	0.055744916
206	0x3dcbbc78	0.09948057
207	0xbd79c1cc	-0.060975835
208	0x3c31c120	0.010849267
209	0x3da81980	0.08207989
210	0xbd542210	-0.051790297
211	0xbc8ccc30	-0.017187208
212	0xbac27e80	-0.0014838725
213	0x3b3533c0	0.0027649254
214	0x3c4ddc10	0.012564674
215	0x3c8796b0	0.016551346
216	0x3d24e974	0.0402617
217	0x3dd44e40	0.103664875
218	0xbdd4acbe	-0.103845105
219	0xbd1009fc	-0.03516577
220	0xbd378578	-0.04480502
221	0xbc7a1010	-0.015262619
222	0xbd025538	-0.031819552
223	0x3df4bed4	0.1195046
224	0x3dc396ae	0.09550224
225	0xbda4e79a	-0.08051987
226	0x3da34f7c	0.07974145
227	0xbdc71fca	-0.0972286
228	0xbda3e8c4	-0.08003381
229	0xbda22728	-0.07917625
230	0xbb93f7a0	-0.004515603
231	0xbd47b670	-0.04875797
232	0xbd73cfc8	-0.059524328
233	0xbd1595e0	-0.036519885
234	0xbd3c4f78	-0.045974225
235	0xbd432630	-0.04764384
236	0xbd963986	-0.073351905
237	0x3d4a5b44	0.049403444
238	0xbdd3ff2e	-0.10351406
239	0xbde0ef1a	-0.10983105
240	0x3aa43780	0.0012528747
241	0xbde59172	-0.11209382
242	0x3d8284ce	0.06372987
243	0x3dce9634	0.10087243
244	0x3c091c50	0.008368567
245	0xbdd35f8a	-0.10320957
246	0xbc4606e0	-0.0120866
247	0x3d21b184	0.039475933
248	0xbd162510	-0.03665644
249	0xbc9f2068	-0.019424632
250	0xbc8c2900	-0.017109394
251	0xbdbd090c	-0.09230241
252	0xbdc5ab10	-0.09651768
253	0x3d8d81aa	0.06909497
254	0x3dff6bea	0.12471755
255	0x3a073b00	0.0005158633
