Code/Archive/models/exo_conv_bigru_v2.pt (torch, 168574 bytes, 15 tensors)

conv.0.weight f4 [8, 1, 9]
-0.1436062 -0.12644711 -0.19545226 -0.05716982 -0.27928737 0.23060957 0.06901315 0.16065621
0.11884466 0.1466256 -0.02015573 0.110572316 0.2989919 -0.21948144 0.08055347 0.3243393
-0.07613388 0.07777857 0.20725717 0.15811749 -0.27202275 -0.079243116 -0.14067668 0.18775019
-0.069150746 0.3117845 0.15098552 0.099612 -0.08176263 -0.056697484 -0.17146677 0.10876976
-0.035600644 0.20036568 -0.009804266 -0.05938575 -0.3171094 0.027456308 -0.032629732 -0.1485647
-0.26664126 -0.026974889 0.22311328 0.018997444 -0.04748048 -0.18547645 -0.13265964 -0.26447132
-0.20588547 -0.15062846 -0.10166374 -0.21465923 0.18533042 -0.15015107 0.29700315 -0.30345607
-0.06540464 0.02911201 0.1644292 -0.08148927 -0.2849828 -0.06014891 -0.13150257 -0.19682556
0.14125793 0.18951744 -0.18465766 0.06904537 0.3203052 0.18107621 -0.11886945 0.2202355
00000000: 810d 13be 5a7b 01be a324 48be e72a 6abd
00000010: c1fe 8ebe ea24 6c3e c456 8d3d 1083 243e
00000020: d464 f33d 0525 163e a11d a5bc bd73 e23d
00000030: 7715 993e bebf 60be 38f9 a43d cd0f a63e
00000040: 14ec 9bbd 5f4a 9f3d 393b 543e 8de9 213e
00000050: 9146 8bbe 374a a2bd 8c0d 10be 9641 403e
00000060: e89e 8dbd 38a2 9f3e f39b 1a3e 6001 cc3d
00000070: 2a73 a7bd 9f3b 68bd fc94 2fbe aec2 de3d
00000080: fbd1 11bd a92c 4d3e 12a2 20bc 793e 73bd
00000090: 2a5c a2be 0dec e03c c1a6 05bd 5821 18be
000000a0: 3485 88be 71fa dcbc cf77 643e 87a0 9b3c
000000b0: e47a 42bd 8aed 3dbe eed7 07be c968 87be
000000c0: a4d3 52be 593e 1abe 1435 d0bd a1cf 5bbe
000000d0: 42c7 3d3e 34c1 19be cc10 983e 985e 9bbe
000000e0: def2 85bd 4f7c ee3c 2160 283e d9e3 a6bd
000000f0: 44e9 91be b45e 76bd 9ca8 06be a48c 49be
00000100: eba5 103e dc10 423e e616 3dbe a967 8d3d
00000110: 0bff a33e 0b6c 393e d471 f3bd 6a85 613e

conv.0.bias f4 [8]
0.17584883 -0.2840913 -0.1486631 0.122309886 0.05853675 -0.07705805 0.035355296 -0.16737078
00000000: b711 343e 6a74 91be 243b 18be 9b7d fa3d
00000010: 3bc4 6f3d 9cd0 9dbd b7d0 103d 3f63 2bbe

conv.3.weight f4 [16, 8, 9]
-0.04075585 -0.01185358 -0.0062701413 -0.07164876 0.10224793 0.077407666 0.0693265 0.09294779
0.051029027 0.0474237 -0.1127114 0.11456046 -0.062004656 0.062199023 0.039285544 -0.0131907035
0.09009029 0.09864798 -0.08477331 -0.021967255 -0.012111582 -0.10679996 0.08307231 -0.104546174
0.03741616 -0.045197908 0.027747663 -0.09049513 -0.027183695 0.01629461 0.09974099 0.01249347
-0.07512415 0.04657665 0.048523985 0.011508329 -0.056516588 -0.063119374 0.04283532 0.105626084
-0.052734293 0.05675955 0.025195954 0.010297438 0.076156035 0.055977367 0.01866843 -0.061771438
0.11114182 -0.080047086 0.04943441 0.05293815 -0.10104318 0.066041894 0.005033391 0.046755653
-0.030354569 0.009286797 -0.058321778 0.027832223 -0.02060493 0.10499733 0.108860336 0.030539706
-0.008636661 0.04278988 -0.057649095 -0.02778858 0.051105812 -0.08659291 -0.055494506 -0.048829872
0.11716389 0.06710027 -0.061683714 -0.031344194 0.0839575 0.09311171 -0.016133541 0.06733974
-0.02427556 -0.067581475 -0.023338702 0.001208164 -0.061299574 -0.06725337 -0.080932274 0.07519983
-0.024975326 -0.08039888 0.0482145 -0.08972169 -0.007844625 0.10575184 0.03701143 0.10282264
0.09207342 -0.011492129 0.053486113 -0.056267235 0.029058056 -0.07187764 0.09387209 0.04535769
0.0005174377 -0.021752696 -0.08533362 0.010536632 0.110063635 0.028951349 0.01910738 0.094700426
0.103127226 0.026302375 0.003570062 0.048065282 -0.022457916 -0.0118530225 0.007486151 0.004344617
0.11325141 -0.04200671 -0.10574118 0.03179869 -0.039728653 -0.0016701012 0.05850916 -9.9838915e-05
0.036421623 0.0727949 0.051886477 0.043317225 0.078558065 -0.013431741 0.028177226 -0.06795863
0.03542435 0.05770252 -0.043464687 -0.025260935 0.07155879 -0.046234585 0.10147241 0.043091133
0.04406262 0.020718228 0.095000856 -0.054501787 0.035418853 0.09430407 -0.084139 0.08945758
-0.07614248 -0.06617267 -0.028768051 -0.0014141535 -0.037132677 0.059200596 0.04317277 0.012883052
0.1033639 0.061628275 -0.0022237387 -0.008007483 0.11679243 -0.106546886 -0.08994536 0.092286296
-0.10188782 0.06857271 -0.061168868 -0.10469237 0.032603968 -0.11632124 0.07490667 0.036705025
-0.006768544 0.020151183 -0.10444215 0.006970813 -0.068344116 0.06333688 -0.09680302 -0.08028344
0.0562678 0.07530395 -0.04465064 0.10084349 -0.036971148 -0.006281096 -0.023313707 -0.06947549
-0.065977946 -0.0044808323 -0.0032072924 0.0020336756 -0.105534896 0.047547176 -0.069380894 -0.051646806
-0.00863456 -0.015988266 0.06091887 -0.05464007 -0.0070121023 -0.0035106777 0.0020188303 -0.11004854
0.006602781 0.11745344 -0.091896996 0.08570211 0.07770812 -0.1102069 -0.10047695 -0.11369521
0.036503818 -0.03595426 -0.06301073 -0.09826387 -0.108110376 0.0938017 -0.014937494 -0.10989896
0.101454586 -0.11164958 -0.0077753877 -0.106463134 -0.033102594 -0.11049963 0.017473098 -0.032801658
-0.062381767 -0.064928085 0.0018314248 -0.08918504 -0.060926195 0.016040925 -0.06712369 -0.04260099
0.075090826 0.11405444 0.012960081 0.045564756 0.09685481 0.023931865 -0.03003287 -0.014664175
0.038079508 0.08194917 0.061230097 -0.1075055 0.11306244 0.06286914 0.08008813 0.0077876025
00000000: 9bef 26bd 8535 42bc c275 cdbb 96bc 92bd
00000010: 5d67 d13d e987 9e3d 0dfb 8d3d 695b be3d
00000020: d003 513d 5b3f 423d 3cd5 e6bd ad9e ea3d
00000030: 98f8 7dbd 67c4 7e3d e1e9 203d d21d 58bc
00000040: 4281 b83d f407 ca3d a19d adbd acf4 b3bc
00000050: a86f 46bc f0b9 dabd d121 aa3d 4e1c d6bd
00000060: b041 193d 7121 39bd 114f e33c 8355 b9bd
00000070: 57b0 debc 467c 853c 0145 cc3d 69b1 4c3c
00000080: b1da 99bd 28c7 3e3d 16c1 463d 6e8d 3c3c
00000090: f07d 67bd bb44 81bd 1774 2f3d 7d52 d83d
000000a0: eaff 57bd b47c 683d bf67 ce3c 96b6 283c
000000b0: b2f7 9b3d 8648 653d 89ee 983c 0c04 7dbd
000000c0: 539e e33d baef a3bd bc7b 4a3d acd5 583d
000000d0: baef cebd f940 873d 25ef a43b db82 3f3d
000000e0: 25aa f8bc a627 183c d1e2 6ebd 6700 e43c
000000f0: accb a8bc d708 d73d 2bf2 de3d 682e fa3c
00000100: c880 0dbc 7144 2f3d 7521 6cbd e0a4 e3bc
00000110: 5454 513d a057 b1bd 354e 63bd d501 48bd
00000120: 9ff3 ef3d de6b 893d 10a8 7cbd c562 00bd
00000130: e9f1 ab3d 5ab1 be3d 7d2a 84bc 6be9 893d
00000140: 8add c6bc 2868 8abd ce30 bfbc 425b 9e3a
00000150: 4315 7bbd 23bc 89bd d2bf a5bd 5e02 9a3d
00000160: 0e99 ccbc 2ba8 a4bd 917c 453d 01c0 b7bd
00000170: be86 00bc 6c94 d83d 4c99 173d ad94 d23d
00000180: fd90 bc3d 7c49 3cbc 4114 5b3d 7978 66bd
00000190: 290b ee3c 9634 93bd 0340 c03d fcc8 393d
000001a0: a8a4 073a b632 b2bc 65c3 aebd d6a1 2c3c
000001b0: 0b69 e13d 612b ed3c 1587 9c3c 4cf2 c13d
000001c0: 5e34 d33d 1478 d73c b4f7 693b 1ae0 443d
000001d0: aaf9 b7bc 2e33 42bc 634e f53b 4a5d 8e3b
000001e0: 5bf0 e73d 3a0f 2cbd d58e d8bd 583f 023d
000001f0: 83ba 22bd 4ce7 daba 4da7 6f3d 9c60 d1b8
00000200: d72e 153d 7e15 953d ea86 543d 676d 313d
00000210: 0de3 a03d ce10 5cbc edd3 e63c e52d 8bbd
00000220: 2019 113d 7a59 6c3d 0708 32bd 05f0 cebc
00000230: 6a8d 923d 7a60 3dbd c4d0 cf3d 5480 303d
00000240: 017b 343d 46b9 a93c cf8f c23d 443d 5fbd
00000250: 5c13 113d 7e22 c13d 1151 acbd 8935 b73d
00000260: 97f0 9bbd 8985 87bd faaa ebbc 1e5b b9ba
00000270: 6f18 18bd 537c 723d eed5 303d 7013 533c
00000280: 74b0 d33d ee6d 7c3d 25bc 11bb d131 03bc
00000290: df30 ef3d 4135 dabd 4635 b8bd 9900 bd3d
000002a0: 90aa d0bd d96f 8c3d 358c 7abd f468 d6bd
000002b0: bd8b 053d d539 eebd ab68 993d 0258 163d
000002c0: aaca ddbb 1814 a53c c4e5 d5bd 6b6b e43b
000002d0: 00f8 8bbd c4b6 813d a940 c6bd a56b a4bd
000002e0: 1179 663d f538 9a3d 97e3 36bd 0887 ce3d
000002f0: 0f6f 17bd a7d1 cdbb 63fc bebc 2a49 8ebd
00000300: 721f 87bd f2d3 92bb 7031 52bb 6a47 053b
00000310: ae22 d8bd d4c0 423d 9217 8ebd 9a8b 53bd
00000320: f877 0dbc d3f9 82bc 1186 793d 44ce 5fbd
00000330: c7c5 e5bb 6613 66bb 5a4e 043b 2161 e1bd
00000340: 245c d83b 6e8b f03d 7e34 bcbd 9684 af3d
00000350: 6f25 9f3d 28b4 e1bd dcc6 cdbd 09d9 e8bd
00000360: 0785 153d c644 13bd c50b 81bd 913e c9bd
00000370: f968 ddbd 1b1b c03d 64bc 74bc b512 e1bd
00000380: 6cc7 cf3d 89a8 e4bd aec8 febb 5809 dabd
00000390: 9696 07bd a14d e2bd be23 8f3c 085b 06bd
000003a0: 0684 7fbd 04f9 84bd 6b0c f03a a5a6 b6bd
000003b0: bf8d 79bd 4268 833c 2578 89bd 607e 2ebd
000003c0: 38c9 993d 6095 e93d 8556 543c 1ca2 3a3d
000003d0: d15b c63d c20c c43c 7e07 f6bc 0242 70bc
000003e0: 42f9 1b3d f7d4 a73d 69cc 7a3d d82b dcbd
000003f0: 488d e73d 89c1 803d 3f05 a43d 252f ff3b

conv.3.bias f4 [16]
-0.027823526 -0.040562846 0.011917456 0.07481899 -0.09304738 0.08909566 -0.07331779 -0.08664864
-0.01497113 0.018526176 -0.06289263 0.066714734 -0.06755246 -0.026372144 -0.017882058 -0.10560682
00000000: 2aee e3bc 3a25 26bd 6f41 433c b33a 993d
00000010: a08f bebd c977 b63d a327 96bd d874 b1bd
00000020: 7849 75bc 35c4 973c dacd 80bd bca1 883d
00000030: f258 8abd 650a d8bc 657d 92bc 6348 d8bd

gru.weight_ih_l0 f4 [192, 16]
-0.023790434 -0.1244842 0.10694998 0.079409845 -0.029022837 0.075974435 0.05682977 -0.11316267
0.01847105 0.11996503 0.0051388345 0.08500814 -0.024092631 -0.10380105 -0.036554083 0.06908652
-0.035492096 0.070833385 -0.097805105 -0.06641988 -0.12205232 -0.048978362 -0.111570925 -0.106126636
0.034195513 0.0067372154 0.024694487 0.11459214 -0.04680647 0.053532124 0.042719975 -0.05879778
-0.051989093 -0.09268619 -0.0144596575 0.10138151 -0.08068199 -0.11219266 0.036452 -0.12109142
-0.018228529 -0.042273924 0.08533762 -0.07954869 -0.097511105 -0.06315117 -0.025163159 -0.075596474
0.012759295 -0.09092433 0.0013193002 -0.0003586165 0.039706293 -0.05973071 0.039969996 -0.029270647
-0.04116138 -0.092563994 0.017528536 -0.105258726 0.0038988397 0.11398868 0.09306514 0.06700854
0.029886102 -0.0858596 0.03282903 -0.060881812 0.07562453 -0.005708899 0.11211356 -0.110475495
-0.10416815 0.0800233 -0.048448827 -0.010419965 0.032125894 -0.1191323 -0.042300016 0.019374168
0.105840504 -0.07494735 0.017953439 0.09157219 0.06775688 0.020751476 -0.06225764 0.0016415737
0.118450545 0.110240355 -0.060726758 0.09227475 0.10041339 -0.031102253 0.07714202 0.084860526
-0.025461147 0.07808364 -0.0032405488 0.059430514 -0.018976111 0.1001003 -0.0070486125 -0.098598935
0.039882176 0.043010093 0.009533191 -0.0028363054 0.09552104 0.015565043 -0.10692128 -0.0077961446
0.08110876 0.04117289 0.004565286 -0.10726027 -0.08046023 -0.05587644 0.08784083 -0.0649679
0.067658976 0.09305648 0.09474067 -0.10229834 0.12287573 -0.083893575 -0.105614774 0.07216866
-0.09252411 0.034285173 0.06637204 -0.1275823 -0.12328303 -0.043080214 -0.09450514 0.08400296
0.048136782 0.06934245 -0.1236291 0.027062528 -0.0969377 0.042523026 -0.029879479 -0.12636535
0.09973333 -0.043125253 0.061136227 0.065543704 0.011543632 0.066966474 -0.06521641 -0.097470716
-0.015281454 0.026684308 0.08267053 -0.0105190445 0.102261685 -0.038531356 0.088269174 0.056856927
-0.03453427 -0.067161866 -0.032426782 0.099244826 -0.06815257 -0.0998488 0.008059398 0.10889432
0.0039265146 0.111721 0.05097476 -0.095761456 0.06038278 -0.03205303 0.00087012857 0.06037543
0.007251795 0.052417967 -0.003344483 0.09932997 -0.029456396 -0.047767513 -0.04841351 -0.014342002
-0.06777228 0.056782003 -0.08256849 0.034737382 0.060622793 0.021347625 0.05573701 0.0554518
0.07704228 -0.09257917 0.05286794 0.025766512 -0.11804892 -0.11765155 -0.06463088 0.029982235
0.05113634 0.092499085 -0.0690323 0.06235918 -0.08882396 0.07632324 -0.072970964 -0.022594009
-0.120265715 0.048357893 -0.10049637 0.07505598 -0.049464952 0.08062749 0.06468363 0.10092754
0.0463275 -0.087877326 0.04053274 -0.057260063 0.021939954 -0.033234827 -0.022881605 -0.003835372
0.053250812 0.057931367 0.024109695 -0.077990994 0.0744571 -0.1003996 0.10203175 -0.047910072
0.07783287 -0.010168254 -0.030110665 0.06749774 -0.023153339 0.0049103615 0.0452066 0.0211116
-0.0026597732 0.092714675 -0.06661191 0.079984136 0.06866057 -0.021543536 -0.121963054 -0.08375035
0.07100354 0.0020328094 -0.07121669 0.115263924 0.056168262 0.02092934 0.065703616 0.10874952
00000000: 28e4 c2bc 92f1 febd 9708 db3d a1a1 a23d
00000010: 4dc1 edbc 7c98 9b3d 55c6 683d d4c1 e7bd
00000020: 9950 973c 3ab0 f53d ab63 a83b bf18 ae3d
00000030: e95d c5bc a595 d4bd bcb9 15bd 3c7d 8d3d
00000040: 2960 11bd 1811 913d 0b4e c8bd 2507 88bd
00000050: 91f6 f9bd 899d 48bd 4c7f e4bd ec58 d9bd
00000060: 9810 0c3d dcc3 dc3b 184c ca3c 49af ea3d
00000070: 24b8 3fbd 8044 5b3d 24fb 2e3d f1d5 70bd
00000080: 84f2 54bd 42d2 bdbd 33e8 6cbc 1ca1 cf3d
00000090: 993c a5bd 44c5 e5bd b14e 153d c7fe f7bd
000000a0: ff53 95bc 6c27 2dbd 7dc5 ae3d 6cea a2bd
000000b0: e7b3 c7bd 6755 81bd f822 cebc 53d2 9abd
000000c0: 5d0c 513c 8936 babd 5eec ac3a b104 bcb9
000000d0: 11a3 223d 30a8 74bd 94b7 233d ffc8 efbc
000000e0: d698 28bd 3192 bdbd 0198 8f3c e391 d7bd
000000f0: ad83 7f3b e672 e93d f098 be3d c63b 893d
00000100: b3d3 f43c 28d7 afbd bc77 063d 355f 79bd
00000110: 09e1 9a3d b711 bbbb cb9b e53d fa40 e2bd
00000120: 1c56 d5bd 42e3 a33d 4772 46bd 80b8 2abc
00000130: 7196 033d a3fb f3bd c842 2dbd 93b6 9e3c
00000140: e8c2 d83d ff7d 99bd 1713 933c 338a bb3d
00000150: 1ec4 8a3d 00ff a93c de01 7fbd 132a d73a
00000160: 3396 f23d b2c5 e13d 9fbc 78bd 8bfa bc3d
00000170: 89a5 cd3d 27ca febc a3fc 9d3d 5bcb ad3d
00000180: e593 d0bc 51ea 9f3d 635f 54bb 696d 733d
00000190: ca73 9bbc 6301 cd3d 0cf8 e6bb 3dee c9bd
000001a0: 7e5b 233d 5a2b 303d 1a31 1c3c 4fe1 39bb
000001b0: 89a0 c33d 8604 7f3c 8bf9 dabd cd76 ffbb
000001c0: 591c a63d e8a4 283d 6598 953b 46ab dbbd
000001d0: 55c8 a4bd b2de 64bd e5e5 b33d e40d 85bd
000001e0: ca90 8a3d 6594 be3d 6507 c23d cb81 d1bd
000001f0: 45a6 fb3d 65d0 abbd 8f4c d8bd 2acd 933d
00000200: 487d bdbd 9c6e 0c3d 10ee 873d efa4 02be
00000210: d07b fcbd e174 30bd e98b c1bd be09 ac3d
00000220: 132b 453d 6a03 8e3d 4131 fdbd 3cb2 dd3c
00000230: 4687 c6bd a02c 2e3d cfc5 f4bc eb65 01be
00000240: fd40 cc3d 1ba4 30bd fb69 7a3d c73b 863d
00000250: 8021 3d3c b825 893d 2e90 85bd ba9e c7bd
00000260: 105f 7abc 0d99 da3c 2b4f a93d 1258 2cbc
00000270: 936e d13d 0ed3 1dbd 78c6 b43d cfe2 683d
00000280: cf73 0dbd 298c 89bd f2d1 04bd df40 cb3d
00000290: 9393 8bbd 877d ccbd 910b 043c fc03 df3d
000002a0: fea9 803b fbcd e43d e9ca 503d 951e c4bd
000002b0: ef53 773d 0a4a 03bd 5719 643a 3a4c 773d
000002c0: 77a0 ed3b 39b4 563d 1d2f 5bbb 836d cb3d
000002d0: 8a4e f1bc dea7 43bd 3f4d 46bd b7fa 6abc
000002e0: 31cc 8abd 3f94 683d ab19 a9bd c948 0e3d
000002f0: 9b4f 783d 37e1 ae3c 7e4c 643d 6d21 633d
00000300: 58c8 9d3d 269a bdbd 0e8c 583d 4b14 d33c
00000310: a2c3 f1bd 4cf3 f0bd 325d 84bd 4e9d f53c
00000320: 5774 513d 2970 bd3d ce60 8dbd 576c 7f3d
00000330: 56e9 b5bd 5c4f 9c3d cd71 95bd 1217 b9bc
00000340: df4d f6bd ed12 463d 0ad1 cdbd f3b6 993d
00000350: c39b 4abd 0720 a53d da78 843d 19b3 ce3d
00000360: e8c1 3d3d 07f9 b3bd a905 263d 8789 6abd
00000370: 6bbb b33c 3e21 08bd 3472 bbbc dd5a 7bbb
00000380: 861d 5a3d 7149 6d3d b281 c53c beb9 9fbd
00000390: f77c 983d 4e9e cdbd 06f6 d03d 5a3d 44bd
000003a0: d766 9f3d c098 26bc a4aa f6bc 413c 8a3d
000003b0: 12ac bdbc 19e7 a03b 8e2a 393d 3cf2 ac3c
000003c0: 974f 2ebb 31e1 bd3d d36b 88bd b9ce a33d
000003d0: ea9d 8c3d 127c b0bc c4c7 f9bd 4e85 abbd
000003e0: 4e6a 913d e238 053b 0eda 91bd 7e0f ec3d
000003f0: b110 663d 0274 ab3c 9e8f 863d 11b8 de3d

gru.weight_hh_l0 f4 [192, 64]
-0.010294796 -0.11572997 0.028829817 0.09375933 -0.06232136 0.103480294 -0.081140496 -0.11924793
-0.0231484 0.08974517 0.08084933 -0.06431254 0.014633288 0.012487111 0.10451951 0.10089244
0.03067071 0.020163514 -0.09369839 -0.06157824 -0.06411705 -0.11707951 -0.11205299 0.07766323
0.10364202 -0.039993327 -0.023930531 -0.109946206 -0.03296595 0.010801119 0.08198576 0.09391726
-0.017394615 0.10911774 -0.08981429 0.056936305 -0.07966214 -0.09387591 -0.034919843 -0.073829606
0.021074578 0.013241839 0.04747288 -0.0012207815 0.09294441 -0.03657778 0.061421633 -0.0762882
-0.12412725 -0.095065214 -0.067527115 -0.03237752 0.014409994 0.113756016 -0.07448435 -0.009480342
0.08849009 0.053292416 0.12348823 -0.007510568 0.013631922 -0.09515501 -0.04585317 -0.024881022
-0.073864885 0.105738476 0.07754734 0.01290475 0.028159413 -0.050143193 -0.04845112 0.09572919
-0.04727254 -0.080083184 0.11669809 -0.0953787 -0.001542286 0.10670037 0.12205669 -0.00067736604
0.022908717 -0.001528715 0.120368786 0.045956515 -0.05976845 0.11091939 -0.0017707974 -0.0043843617
0.117350586 0.066943854 -0.07827898 -0.01921105 0.052003097 -0.10222264 -0.036496464 0.07984424
-0.048674405 0.06810202 0.097179085 0.035787977 0.11078243 0.1213993 -0.025471563 -0.084334925
-0.07091893 -0.11490869 -0.04457813 0.07655639 0.014483331 -0.10887261 -0.021852853 0.09342768
0.1173899 0.06008431 0.112135485 0.04661588 0.048211753 0.05684436 0.12423802 0.109055825
0.007502512 -0.024785338 -0.09373569 0.011295943 -0.110074736 0.002927027 0.023895122 0.07872635
-0.11669101 -0.03853117 -0.03478474 -0.0005597868 0.007775884 -0.11387522 0.05379107 -0.053761803
-0.0033994452 0.075984165 -0.111872 0.035087183 -0.11029697 0.10720449 0.0026867993 -0.037893794
-0.05745449 0.045725156 -0.061505917 -0.029363316 0.046492886 -0.09492041 -0.034905866 0.092851594
-0.01790134 0.02368255 0.056080095 -0.063427664 -0.050055437 0.10323303 0.09307904 0.08522898
-0.01906907 -0.023355862 -0.119480066 -0.04506175 -0.020333238 0.11908401 0.08239561 -0.116428524
-0.10426483 0.021439916 -0.10939296 0.11939076 -0.04237467 -0.018870337 -0.08973038 0.02683453
-0.08279428 0.08949519 -0.06287056 -0.10568389 0.071622334 -0.029623782 0.04482335 0.0051439996
0.061239775 0.004540764 -0.026131798 0.051919453 -0.089641355 -0.0901971 0.016985063 -0.1021761
0.020369511 0.1146595 0.023758588 0.085445166 0.01736725 -0.064205594 0.032102447 0.031804267
0.0492668 0.020069795 -0.12632258 -0.004576451 0.069981225 0.09998863 0.0078094434 -0.09997385
-0.10950252 0.012801103 0.071863905 -0.10012671 0.08265278 0.067153834 0.07952207 -0.048917532
-0.11186532 -0.12270639 -0.09232304 0.055753607 0.07063937 -0.036968723 -0.018902328 0.076706514
0.07966052 0.081944 -0.0123104425 -0.07418586 0.09252636 -0.032716285 0.02669668 -0.10983738
-0.022153685 0.009216569 0.012606863 0.015542228 -0.018219804 -0.01192991 0.0681688 -0.015511247
0.079432875 -0.00035859848 0.06324669 -0.056077708 0.11334655 -0.085254386 -0.0035829297 0.041303843
0.08078296 -0.045213036 0.045897707 0.014403599 -0.07365744 -0.110319555 -0.035561997 -0.015012289
00000000: 81ab 28bc d603 edbd 822c ec3c e404 c03d
00000010: af44 7fbd 7aed d33d fd2c a6bd 4238 f4bd
00000020: b7a1 bdbc 51cc b73d 5594 a53d 4bb6 83bd
00000030: 75c0 6f3c bd96 4c3c 530e d63d b2a0 ce3d
00000040: 2441 fb3c f42d a53c f1e4 bfbd 7739 7cbd
00000050: cd4f 83bd 62c7 efbd 0a7c e5bd e60d 9f3d
00000060: 4442 d43d 0bd0 23bd f609 c4bc 7a2b e1bd
00000070: 4e07 07bd 2df7 303c 26e8 a73d b157 c03d
00000080: 277f 8ebc 1f79 df3d 8ef0 b7bd 0b36 693d
00000090: e725 a3bd 0342 c0bd 1c08 0fbd fa33 97bd
000000a0: 98a4 ac3c 4cf4 583c ec72 423d a102 a0ba
000000b0: a459 be3d 95d2 15bd 4095 7b3d fd3c 9cbd
000000c0: 6d36 febd 8db1 c2bd a84b 8abd 4a9e 04bd
000000d0: e517 6c3c eaf8 e83d 408b 98bd 7053 1bbc
000000e0: 4b3a b53d 2649 5a3d 66e7 fc3d 361b f6bb
000000f0: 6d58 5f3c a1e0 c2bd 89d0 3bbd 49d3 cbbc
00000100: 7946 97bd 6a8d d83d 24d1 9e3d 726e 533c
00000110: 92ae e63c f362 4dbd ae74 46bd aa0d c43d
00000120: daa0 41bd a702 a4bd 69ff ee3d e855 c3bd
00000130: 8826 caba b985 da3d dcf8 f93d 4491 31ba
00000140: 10ab bb3c 2a5f c8ba e983 f63d e63c 3c3d
00000150: c3cf 74bd b529 e33d 1a1a e8ba b1aa 8fbb
00000160: 8155 f03d dc19 893d bb50 a0bd 7e60 9dbc
00000170: 3301 553d 1a5a d1bd 517d 15bd 6085 a33d
00000180: d05e 47bd 1279 8b3d d405 c73d 6a96 123d
00000190: e6e1 e23d 32a0 f83d bda9 d0bc cab7 acbd
000001a0: f23d 91bd 3f55 ebbd 8f97 36bd 99c9 9c3d
000001b0: 7e4b 6d3c 9af8 debd c104 b3bc 0357 bf3d
000001c0: 1e6a f03d f71a 763d 4aa7 e53d 4bf0 3e3d
000001d0: b079 453d a2d5 683d 8170 fe3d a958 df3d
000001e0: a2d7 f53b 9f0a cbbc 7ff8 bfbd 9e12 393c
000001f0: dd6e e1bd 5dd3 3f3b b4bf c33c 483b a13d
00000200: b2fb eebd dcd2 1dbd 727a 0ebd a8be 12ba
00000210: d8cc fe3b 6937 e9bd 0654 5c3d 5635 5cbd
00000220: 3ac9 5ebb 969d 9b3d 261d e5bd 94b7 0f3d
00000230: 61e3 e1bd 078e db3d 0315 303b 8636 1bbd
00000240: 6655 6bbd 4d4a 3b3d a1ed 7bbd 568b f0bc
00000250: 536f 3e3d a265 c2bd 74f9 0ebd fa28 be3d
00000260: d5a5 92bc e801 c23c 3eb4 653d 5de6 81bd
00000270: ee06 4dbd d76b d33d 39a0 be3d 888c ae3d
00000280: bd36 9cbc cb54 bfbc f7b1 f4bd ab92 38bd
00000290: e491 a6bc 51e2 f33d 08bf a83d 1472 eebd
000002a0: cd88 d5bd c3a2 af3c 6b09 e0bd 2583 f43d
000002b0: 1091 2dbd f795 9abc 90c4 b7bd 17d4 db3c
000002c0: 0c90 a9bd 4149 b73d 48c2 80bd cc70 d8bd
000002d0: bbae 923d 93ad f2bc b098 373d ff8e a83b
000002e0: 8fd6 7a3d b0ca 943b 5a12 d6bc 7ea9 543d
000002f0: e395 b7bd 42b9 b8bd 4224 8b3c b441 d1bd
00000300: f6dd a63c 9ad2 ea3d 5fa1 c23c e0fd ae3d
00000310: c345 8e3c 397e 83bd db7d 033d 3145 023d
00000320: fccb 493d 6969 a43c b55a 01be 0ef6 95bb
00000330: 5152 8f3d d7c6 cc3d 5ce6 ff3b 17bf ccbd
00000340: db42 e0bd b8bb 513c 622d 933d 3c0f cdbd
00000350: dc45 a93d f387 893d 78dc a23d c05d 48bd
00000360: a519 e5bd 7d4d fbbd dd13 bdbd e55d 643d
00000370: 60ab 903d 846c 17bd 0ed9 9abc 4e18 9d3d
00000380: 0e25 a33d 42d2 a73d bdb1 49bc c2ee 97bd
00000390: 767e bd3d 8301 06bd ffb2 da3c 6cf2 e0bd
000003a0: a57b b5bc 1801 173c 048d 4e3c d4a4 7e3c
000003b0: b341 95bc ab75 43bc 159c 8b3d e322 7ebc
000003c0: b4ad a23d 4602 bcb9 7b87 813d bdb1 65bd
000003d0: 3c22 e83d da99 aebd 96cf 6abb 382e 293d
000003e0: 8971 a53d 4e31 39bd 3cff 3b3d 13fd 6b3c
000003f0: b6d9 96bd 38ef e1bd 75a9 11bd 1bf6 75bc

gru.bias_ih_l0 f4 [192]
-0.039608877 -0.01735322 -0.009052106 0.011210191 -0.12768608 -0.07405752 0.089465044 0.11259971
0.07567044 0.12543683 0.06807412 -0.10474512 -0.044692736 0.056439437 -0.05812374 -0.08383492
0.055184625 -0.015423171 0.11838804 0.06760269 -0.014320972 -0.08528248 0.054988794 0.063842095
-0.058360085 0.07511853 0.020723231 -0.07484194 -0.074075 -0.09482715 -0.051218007 -0.025085865
0.09889216 -0.0927033 0.030476855 0.005626971 0.061662003 -0.0939893 0.044597596 -0.042454
-0.041721426 0.020365078 -0.025902038 -0.0252881 0.041745078 -0.027901486 0.0010887716 -0.097587176
0.023361407 0.06665245 -0.09083193 -0.10063429 0.064967915 -0.11766403 0.06743821 -0.083293565
0.08188717 -0.062533736 0.068797894 0.10932616 -0.11298932 0.1050529 0.010390144 0.010748625
-0.019840771 -0.015714249 0.10668653 0.051283114 0.068723366 -0.044713162 -0.032702964 -0.0075278156
0.10155654 0.0868739 0.038210146 -0.11914993 0.036004018 0.091226004 0.08180482 -0.01282267
0.023482438 0.12465437 0.08093031 0.1220211 0.082815595 0.018417567 -0.09075897 -0.04949066
0.102300584 -0.010212203 -0.055120036 0.02752008 0.093236014 0.09818761 -0.09655476 0.07060055
0.04378677 0.0687459 0.06868776 -0.044454314 -0.10305118 -0.07287771 0.012209774 0.095671356
-0.06372494 0.01575746 -0.02430533 0.06142904 0.07607131 0.02748403 -0.10617815 -0.116463974
-0.04652765 0.10069588 0.10312784 0.077435814 -0.077118464 -0.11434449 0.041991442 0.017527085
-0.006114227 -0.05963437 -0.058776338 -0.1159631 -0.010961314 0.07607411 0.03166291 0.054204363
0.08404128 0.010791771 0.047905203 0.01616218 0.081097886 0.0010389484 0.004028272 -0.08173694
-0.083408885 -0.08764145 0.12113863 0.030207573 -0.104766816 0.06316594 0.07037818 0.12667634
-0.072467655 0.10208538 0.075982586 -0.054764207 -0.016038608 -0.04189628 -0.06498393 -0.056328777
-0.061178274 0.08867645 0.04981266 0.04260391 -0.112342186 -0.08289918 -0.122660555 -0.061366558
-0.038800415 -0.08477759 0.104823 0.023205217 -0.020288778 -0.068847075 -0.017188353 0.0039176373
0.010771925 0.035589483 0.11234301 0.10705109 0.09484338 -0.004339448 -0.12534466 0.0064665433
0.09244034 0.102970295 0.07033602 0.020612743 0.018772569 0.05218507 0.03261016 -0.0130116325
-0.03340466 0.04132265 -0.035771422 0.11155065 -0.10532031 -0.11775002 -0.08575856 -0.083999805
00000000: eb3c 22bd 5728 8ebc 494f 14bc f3aa 373c
00000010: 24c0 02be 78ab 97bd 7339 b73d ad9a e63d
00000020: 1bf9 9a3d 8372 003e 726a 8b3d 9c84 d6bd
00000030: bb0f 37bd 0a2d 673d 2913 6ebd a4b1 abbd
00000040: 4609 623d 78b1 7cbc 6e75 f23d 4773 8a3d
00000050: 83a2 6abc 95a8 aebd ee3b 613d a5bf 823d
00000060: fc0a 6fbd bed7 993d c4c3 a93c bb46 99bd
00000070: a2b4 97bd bd34 c2bd f9c9 51bd df80 cdbc
00000080: f987 ca3d 3adb bdbd 99aa f93c 7462 b83b
00000090: 4c91 7c3d 767d c0bd f8ab 363d 3fe4 2dbd
000000a0: 16e4 2abd aad4 a63c 8330 d4bc fd28 cfbc
000000b0: e3fc 2a3d a891 e4bc 1db5 8e3a c9db c7bd
000000c0: 6c60 bf3c 1481 883d 1706 babd 5a19 cebd
000000d0: e60d 853d d7f9 f0bd 0b1d 8a3d d195 aabd
000000e0: 76b4 a73d b011 80bd e9e5 8c3d 65e6 df3d
000000f0: f266 e7bd fa25 d73d 6c3b 2a3c 001b 303c
00000100: 1d89 a2bc 2bbb 80bc 787e da3d 3e0e 523d
00000110: d6be 8c3d 2625 37bd 8bf3 05bd e5ab f6bb
00000120: e0fc cf3d f1ea b13d 3e82 1c3d e104 f4bd
00000130: f378 133d b3d4 ba3d 4989 a73d 2d16 52bc
00000140: 3e5e c03c ca4a ff3d cabe a53d 33e6 f93d
00000150: 399b a93d 70e0 963c d7df b9bd b8b6 4abd
00000160: f882 d13d 1551 27bc 8cc5 61bd ca71 e13c
00000170: 86f2 be3d 9616 c93d 81be c5bd 0597 903d
00000180: c259 333d a7ca 8c3d 2bac 8c3d ba15 36bd
00000190: 7f0c d3bd e940 95bd 810b 483c 58ef c33d
000001a0: 3982 82bd ca15 813c f91b c7bc 049d 7b3d
000001b0: 46cb 9b3d 3026 e13c ee73 d9bd aa84 eebd
000001c0: c793 3ebd a439 ce3d b034 d33d ab96 9e3d
000001d0: 49f0 9dbd 722d eabd 38ff 2b3d f694 8f3c
000001e0: db59 c8bb 2b43 74bd 75bf 70bd 107e edbd
000001f0: 1597 33bc becc 9b3d f8b0 013d 6505 5e3d
00000200: d61d ac3d f8cf 303c 3f38 443d 8c66 843c
00000210: a616 a63d 532d 883a 98ff 833b b265 a7bd
00000220: 47d2 aabd 5c7d b3bd 8817 f83d df75 f73c
00000230: fc8f d6bd 255d 813d 6f22 903d 71b7 013e
00000240: ec69 94bd 2412 d13d c29c 9b3d 6f50 60bd
00000250: 6663 83bc 6f9b 2bbd 4b16 85bd 01b9 66bd
00000260: 1296 7abd 009c b53d 5c08 4c3d 7081 2e3d
00000270: a913 e6bd 0cc7 a9bd 7535 fbbd 805b 7bbd
00000280: 2fed 1ebd e09f adbd 71ad d63d de18 be3c
00000290: a734 a6bc b2ff 8cbd 97ce 8cbc 865f 803b
000002a0: ba7c 303c 47c6 113d 1814 e63d 9a3d db3d
000002b0: 3f3d c23d ee31 8ebb 5a5a 00be 4ce5 d33b
000002c0: 5c51 bd3d 17e2 d23d 550c 903d 0edc a83c
000002d0: eec8 993c 03c0 553d 3b92 053d be2e 55bc
000002e0: 53d3 08bd f041 293d 0e85 12bd ab74 e43d
000002f0: 2db2 d7bd ec26 f1bd 2fa2 afbd 1708 acbd

gru.bias_hh_l0 f4 [192]
0.010782068 -0.09429001 0.013261245 -0.11397635 0.0018765499 0.014662333 0.027438521 -0.0133258
0.026118675 0.028402012 0.11592272 0.035316106 0.02155804 -0.028476184 0.0765158 0.011871532
-0.104832724 0.085652985 -0.098217964 -0.050822135 -0.01875304 -0.044281017 0.077573694 0.100929655
0.121608496 0.061835114 -0.0330121 -0.113662325 -0.020444686 0.036899753 -0.030041117 0.014672603
0.030312076 0.07535267 -0.054078154 0.07531578 -0.016446613 -0.08903882 0.003948327 0.06665314
0.070787415 -0.07834213 0.055098627 0.08724616 0.07560271 -0.02202057 0.00074217346 -0.04110828
0.10311778 -0.084135905 -0.09876301 -0.11912026 -0.12042363 0.055163536 0.07995199 -0.02243991
-0.05132834 -0.12493965 0.08890401 -0.094349645 0.022129362 -0.119457856 0.034026653 0.00063631026
-0.0073030232 0.04788964 -0.044707324 -0.060458418 -0.026834916 -0.122249074 0.004783031 -0.082306944
-0.003104497 0.05211126 -0.012553582 -0.113733456 0.122060105 -0.018047988 -0.08183416 -0.04431449
-0.0703583 0.0038357265 -0.02946197 0.07728384 -0.106444284 0.021860864 -0.12331397 -0.06867647
0.102938406 -0.025155019 -0.039931335 0.025159324 -0.099664845 0.034647033 -0.0151929 -0.10926407
0.12096282 -0.058007665 0.03214161 0.09830814 0.06586959 0.104714654 -0.07087742 -0.059486143
0.05456461 -0.091484606 -0.0228221 -0.057568155 0.056000073 -0.020711107 -0.07654323 -0.0037534616
0.08092081 0.038562305 -0.045397088 0.11914457 0.12632875 0.09734222 0.03761433 -0.082944006
0.053409413 -0.114948615 -0.10080474 0.112553954 -0.03619154 0.03437263 0.111297145 0.030657256
-0.041752506 -0.0467758 0.0030242677 0.044200823 -0.04742404 -0.10464484 -0.11881912 0.12425761
-0.019534456 -0.08495163 0.053482044 0.056777716 0.060292035 -0.05980953 0.052201882 0.09592536
0.05891533 -0.07116098 -0.017807186 -0.052074876 -0.08721798 0.1234246 0.035781827 0.056482896
-0.07184468 -0.11194145 -0.045648985 -0.047187246 0.06551129 0.02760143 -0.053961437 -0.094667725
0.10894175 -0.06726823 0.056854095 -0.053040408 -0.1209587 0.0945478 -0.036281258 -0.10365746
0.0344975 0.07623382 -0.019943533 0.022147642 0.07864079 0.031778075 -0.07946128 0.10953174
0.10490895 0.0582245 0.06266789 -0.055139452 0.025392253 0.005748607 0.021603083 -0.009643231
0.0021017396 0.044975314 0.11290596 0.06373159 -0.12017181 -0.04386045 0.017958684 -0.08680073
00000000: 45a7 303c 1f1b c1bd b145 593c 6f6c e9bd
00000010: 91f6 f53a 483a 703c c0c6 e03c 7554 5abc
00000020: d5f6 d53c 56ab e83c e468 ed3d 9fa7 103d
00000030: 7d9a b03c e346 e9bc 51b4 9c3d d080 423c
00000040: 8ab2 d6bd d56a af3d 8026 c9bd df2a 50bd
00000050: fa9f 99bc 0360 35bd f5de 9e3d 35b4 ce3d
00000060: e00d f93d d146 7d3d b237 07bd cbc7 e8bd
00000070: 9d7b a7bc 3224 173d ca18 f6bc 5c65 703c
00000080: 0851 f83c 8052 9a3d 0e81 5dbd 293f 9a3d
00000090: 0cbb 86bc fc59 b6bd f860 813b 7181 883d
000000a0: fef8 903d d771 a0bd 19af 613d 1dae b23d
000000b0: 98d5 9a3d 7b64 b4bc 6b8e 423a 2861 28bd
000000c0: 6a2f d33d 724f acbd 4344 cabd 53f5 f3bd
000000d0: aaa0 f6bd 29f3 613d debd a33d e7d3 b7bc
000000e0: aa3d 52bd 5ce0 ffbd 4e13 b63d 633a c1bd
000000f0: a348 b53c 52a6 f4bd 885f 0b3d 0fce 263a
00000100: 334e efbb ed27 443d 071f 37bd 3fa3 77bd
00000110: e6d4 dbbc b95d fabd f9ba 9c3b 8b90 a8bd
00000120: d174 4bbb 9e72 553d 8aad 4dbc 16ed e8bd
00000130: a6fa f93d 60d9 93bc ab98 a7bd 1c83 35bd
00000140: 0318 90bd d060 7b3b 3b5a f1bc fd46 9e3d
00000150: 76ff d9bd 8e15 b33c 098c fcbd 40a6 8cbd
00000160: 5fd1 d23d e611 cebc 0a8f 23bd ed1a ce3c
00000170: 151d ccbd 0cea 0d3d a4eb 78bc d7c5 dfbd
00000180: 5bbb f73d 7299 6dbd eca6 033d c755 c93d
00000190: a3e6 863d a374 d63d 2e28 91bd bea7 73bd
000001a0: 247f 5f3d 485c bbbd 6af5 babc 96cc 6bbd
000001b0: 5560 653d 57aa a9bc b2c2 9cbd a3fc 75bb
000001c0: cfb9 a53d 82f3 1d3d 4cf2 39bd 1102 f43d
000001d0: 535c 013e 5c5b c73d 7c11 1a3d 8cde a9bd
000001e0: d4c3 5a3d 2e6a ebbd b772 cebd b082 e63d
000001f0: 953d 14bd 51ca 0c3d c2ef e33d ed24 fb3c
00000200: ad04 2bbd fb97 3fbd cb32 463b ec0b 353d
00000210: b63f 42bd 0950 d6bd 7057 f3bd c67a fe3d
00000220: b906 a0bc 1ffb adbd fd0f 5b3d c08f 683d
00000230: c8f4 763d d6fa 74bd a4d1 553d 8474 c43d
00000240: 3351 713d d9bc 91bd 60e0 91bc 774c 55bd
00000250: 579f b2bd 09c6 fc3d f78f 123d 9c5a 673d
00000260: 4e23 93bd 8f41 e5bd 6efa 3abd 6a47 41bd
00000270: c92a 863d 651c e23c ab06 5dbd 27e1 c1bd
00000280: da1c df3d edc3 89bd d7df 683d e640 59bd
00000290: 32b9 f7bd 47a2 c13d a89b 14bd 5d4a d4bd
000002a0: 404d 0d3d 7a20 9c3d 9f60 a3bc f96e b53c
000002b0: 6c0e a13d ba29 023d 98bc a2bd 2d52 e03d
000002c0: 81da d63d d07c 6e3d 0658 803d e8d9 61bd
000002d0: 6a03 d03c d05e bc3b f3f8 b03c a4fe 1dbc
000002e0: 57bd 093b 0938 383d 3d3b e73d b585 823d
000002f0: a31c f6bd 04a7 33bd 171e 933c 95c4 b1bd

gru.weight_ih_l0_reverse f4 [192, 16]
-0.08712113 -0.04065811 -0.09336649 0.122207895 -0.06793303 0.066903375 0.0046076872 -0.11334472
-0.087808125 -0.045950785 0.021331329 0.09494686 -0.09291444 0.075045936 0.11326596 -0.099976234
0.077327505 -0.08246264 0.058202293 0.041551087 0.037949637 0.11243553 0.057496052 0.0954187
-0.0257622 0.08947782 0.037415206 -0.05936871 0.02529175 0.08791469 0.012324165 -0.01575261
0.118424274 0.10900674 0.04078824 0.08017169 -0.030580373 0.016134229 -0.05448175 -0.05189071
-0.015418198 -0.04872945 -0.10142491 -0.026347326 -0.096667685 0.013911406 -0.051577818 0.009487466
-0.07918082 -0.016189652 0.010184053 -0.1040121 -0.032816384 0.062555075 -0.03649468 0.0032922444
0.11219058 -0.051741596 -0.050260264 -0.019163683 -0.07006145 -0.124184035 0.09202686 -0.11216573
0.025241127 0.07960755 -0.029980121 -0.11457385 -0.10234342 -0.023125 0.094185114 0.08625053
0.03571131 -0.0026908254 -0.03789351 -0.018653926 -0.106228784 0.0410962 -0.015425628 -0.038153447
0.0090490235 0.02502645 0.0034689899 0.08019804 -0.018423518 0.098827094 0.12477047 -0.06472692
0.088616446 -0.00010672607 0.0074505447 0.00608971 -0.004423312 0.043712392 -0.02897157 0.013973916
0.0265003 -0.07745587 -0.014003143 0.11878781 -0.009285764 0.047074225 0.07915762 -0.020469071
0.056382712 -0.03791547 -0.050568946 0.097269215 0.10855736 -0.016702572 -0.04220758 -0.07511768
0.07154591 -0.073418036 0.024575066 -0.11587881 0.04385405 0.080845416 -0.09515595 0.08439873
0.060198043 -0.034085833 -0.10166914 0.047186926 -0.05537296 -0.07625352 0.018280752 -0.022234637
0.0435387 0.11882488 -0.08352297 -0.09869784 0.063881435 -0.077467814 -0.060792413 0.082515426
-0.11502063 -0.10620935 0.12340574 0.11567133 -0.12344126 -0.017381249 0.029893696 0.051775005
-0.08445027 0.042581942 -0.042193938 -0.021352671 0.069503 -0.045814823 0.1049647 -0.04262123
-0.06798965 -0.07438943 -0.027778696 0.027959108 -0.08095713 0.04833066 0.079419956 -0.07435043
-0.119278155 0.061702624 0.011055389 0.024890505 0.0860007 -0.042270623 0.05241486 -0.008529219
-0.07445727 -0.052052163 -0.10178044 -0.014234323 -0.11138683 -0.117321536 0.02630411 -0.050798874
0.09230674 0.11973103 -0.08489147 -0.118032485 0.10396467 -0.020626962 0.06348468 -0.031697698
-0.039799787 -0.08657232 -0.092504375 0.056597136 0.013272674 -0.06712446 0.11273703 -0.11103867
-0.08694881 -0.069049336 -0.09368692 0.00011781734 -0.11349726 0.047160782 0.01542827 -0.1085351
-0.0223566 0.091716014 -0.06864938 -0.08260127 -0.11611615 0.05875025 0.111895174 0.04148163
0.122653775 0.01038249 0.07658294 -0.042660676 -0.08254499 0.11503342 0.124987714 -0.04901771
-0.094544284 0.04854214 -0.06836053 -0.075632095 -0.06190578 0.056271207 0.07330933 0.0033768194
-0.08117017 -0.11214185 0.08237704 0.09980467 -0.08775599 0.09157757 0.045138564 -0.10231217
-0.08566029 -0.052986376 -0.10104214 -0.03571474 0.06626642 -0.010622786 -0.091514006 -0.10718453
-0.106539056 -0.014002033 -0.08430329 0.087292835 0.06790393 0.09232925 0.10149564 -0.11908193
0.0046793763 -0.1064537 0.07962528 -0.058120973 0.03309559 -0.013963345 0.09570424 0.1169807
00000000: 906c b2bd 1e89 26bd ee36 bfbd 2248 fa3d
00000010: 7920 8bbd a304 893d 15fc 963b 4721 e8bd
00000020: bfd4 b3bd e436 3cbd 0abf ae3c 8073 c23d
00000030: ed49 bebd afb1 993d fcf7 e73d 57c0 ccbd
00000040: e25d 9e3d 2ce2 a8bd 8765 6e3d 7931 2a3d
00000050: 1471 1b3d 9944 e63d fb80 6b3d e16a c33d
00000060: 400b d3bc 2640 b73d b040 193d 9b2c 73bd
00000070: a530 cf3c 9e0c b43d 4beb 493c 9e0b 81bc
00000080: 6d88 f23d ed3e df3d 9211 273d 0e31 a43d
00000090: b183 fabc ee2b 843c 4128 5fbd 5a8b 54bd
000000a0: 9c9c 7cbc 8898 47bd ddb7 cfbd 59d6 d7bc
000000b0: b5f9 c5bd aaec 633c 4343 53bd 5171 1b3c
000000c0: 8e29 a2bd 29a0 84bc 04db 263c 4c04 d5bd
000000d0: 796a 06bd e01c 803d 727b 15bd b2c2 573b
000000e0: 2dc4 e53d ffee 53bd b5dd 4dbd 28fd 9cbc
000000f0: 617c 8fbd 3354 febd 9478 bc3d 25b7 e5bd
00000100: 7bc6 ce3c 4809 a33d df98 f5bc b2a5 eabd
00000110: 6d99 d1bd a470 bdbc 20e4 c03d 1ea4 b03d
00000120: 0646 123d 8f58 30bb 3a36 1bbd 1ed0 98bc
00000130: 7a8e d9bd 7d54 283d c6bb 7cbc ca46 1cbd
00000140: 5b42 143c 4504 cd3c fe57 633b df3e a43d
00000150: ebec 96bc dc65 ca3d a987 ff3d 8c8f 84bd
00000160: 8a7c b53d 1fd2 dfb8 b323 f43b 318c c73b
00000170: 6ef1 90bb c40b 333d c955 edbc daf2 643c
00000180: 2817 d93c 2fa1 9ebd 706d 65bc 0647 f33d
00000190: 5123 18bc e7d0 403d 641d a23d c1ae a7bc
000001a0: 8ff1 663d 404d 1bbd 6221 4fbd 1535 c73d
000001b0: 5253 de3d d5d3 88bc dbe1 2cbd 4cd7 99bd
000001c0: a986 923d 325c 96bd a651 c93c df51 edbd
000001d0: 4ea0 333d 4892 a53d 1fe1 c2bd 3ed9 ac3d
000001e0: 3992 763d 969d 0bbd e937 d0bd 1447 413d
000001f0: c2ce 62bd ce2a 9cbd 84c1 953c 6a25 b6bc
00000200: a355 323d 755a f33d 170e abbd 1822 cabd
00000210: 45d4 823d 72a7 9ebd 7701 79bd d9fd a83d
00000220: f08f ebbd 4a84 d9bd 26bc fc3d 17e5 ec3d
00000230: c5ce fcbd 1f63 8ebc a0e3 f43c 0712 543d
00000240: 43f4 acbd 676a 2e3d 8dd3 2cbd cceb aebc
00000250: 9757 8e3d 53a8 3bbd bcf7 d63d 9993 2ebd
00000260: 283e 8bbd 7c59 98bd 2690 e3bc 800a e53c
00000270: dacc a5bd 5ff6 453d eea6 a23d 0a45 98bd
00000280: 1b48 f4bd e4bb 7c3d aa21 353c 2ce7 cb3c
00000290: 2321 b03d f623 2dbd f7b0 563d 23be 0bbc
000002a0: 0e7d 98bd a634 55bd 4372 d0bd 1437 69bc
000002b0: c71e e4bd 4646 f0bd b87b d73c 7b12 50bd
000002c0: 510b bd3d 8b35 f53d 94db adbd 04bb f1bd
000002d0: 6eeb d43d e0f9 a8bc 4204 823d 72d5 01bd
000002e0: 1a05 23bd d44c b1bd ef72 bdbd 66d2 673d
000002f0: a175 593c 8d78 89bd ace2 e63d 3e68 e3bd
00000300: 3812 b2bd bd69 8dbd eede bfbd b414 f738
00000310: 4071 e8bd aa2b 413d dbc6 7c3c a747 debd
00000320: 3025 b7bc 9bd5 bb3d 0c98 8cbd db2a a9bd
00000330: 4ece edbd 1aa4 703d 4c29 e53d a4e8 293d
00000340: e731 fb3d 521b 2a3c 84d7 9c3d f6bc 2ebd
00000350: 590d a9bd a496 eb3d 8ff9 ff3d cbc6 48bd
00000360: 6fa0 c1bd 1fd4 463d 9b00 8cbd 00e5 9abd
00000370: ea90 7dbd a37c 663d 3423 963d a14d 5d3b
00000380: 8c3c a6bd a0aa e5bd 4bb5 a83d 6466 cc3d
00000390: 6ab9 b3bd 058d bb3d 37e3 383d 0b89 d1bd
000003a0: aa6e afbd 3e08 59bd 2eef cebd 9f49 12bd
000003b0: b0b6 873d 320b 2ebc b26b bbbd 9083 dbbd
000003c0: 2631 dabd c868 65bc 34a7 acbd 96c6 b23d
000003d0: 3711 8b3d 1e17 bd3d f2dc cf3d 3ae1 f3bd
000003e0: 7455 993b 6604 dabd 9412 a33d 4210 6ebd
000003f0: 3e8f 073d 84c6 64bc 9600 c43d 9493 ef3d

gru.weight_hh_l0_reverse f4 [192, 64]
0.08279416 0.10865986 0.04251636 -0.11026229 -0.060573205 0.10308568 -0.029001478 0.021295559
-0.027881745 -0.12389931 0.0410325 -0.11865705 0.10989766 0.10958631 -0.060229987 0.064713374
0.07511455 -0.12405276 -0.055166088 -0.010118013 0.004101228 -0.03659544 0.03288378 -0.101682276
0.022809915 -0.11097962 0.060615048 0.017158985 0.089712754 -0.0946091 -0.02408468 -0.012184057
-0.06991112 0.084935516 -0.0083293095 -0.094802245 0.049617633 -0.046615407 0.051531754 -0.079124615
-0.10894367 0.017943796 0.082125545 0.054401062 -0.01179627 0.055887364 -0.09125514 0.073424846
0.09510626 0.08350393 0.109626144 0.030295223 0.10287373 -0.042916425 -0.07228805 -0.055261858
0.08567302 -0.07394083 -0.04891987 -0.056981005 -0.11987887 -0.10971083 -0.03731074 -0.05310642
0.013659017 0.021758981 -0.10207856 -0.06033683 -0.078043535 0.10324718 -0.06333876 0.0036237244
0.07316452 -0.08451952 0.012214053 0.061327085 0.033061355 0.0010425216 -0.0799693 0.058648497
-0.06657244 0.092371866 0.075630516 0.016682044 -0.05876994 0.041358225 0.02777839 0.08144398
-0.02630997 -0.016308963 -0.06973535 -0.09295939 -0.07881369 0.0030057626 0.0049317656 0.099404275
0.0021910202 -0.09549652 0.10797368 0.11690955 0.011383686 0.08814336 0.09662764 0.070111424
0.09122096 0.11245878 -0.05295036 -0.1071872 -0.10600321 0.03809371 0.05491201 0.09587297
0.056687854 -0.088376045 -0.097914174 0.091259256 -0.052000143 0.024078064 -0.08182448 -0.0363862
0.12187639 -0.043373376 -0.05320748 -0.09016459 0.07851207 -0.031826645 0.07324508 0.025673885
0.118435666 0.06588982 -0.0925533 0.030117393 0.07114035 0.091022745 0.084456876 -0.014574992
-0.08812915 0.07064836 -0.11269699 -0.10703777 0.09311129 -0.059147656 -0.019250851 -0.06587726
0.04562071 0.01133946 -0.008880949 0.08753182 -0.02212923 -0.09601641 -0.08474611 0.108154714
0.00020435269 -0.021155413 -0.015111968 0.11294305 0.019784685 0.09742631 0.065619335 0.02903362
0.005354005 -0.11648214 0.033227935 0.024732433 0.08957212 0.025385521 -0.04740767 -0.1103995
0.04739228 -0.10838559 0.06084326 -0.020034786 -0.11071135 0.07318035 -0.11257063 -0.041041695
-0.07234196 -0.07463363 0.028145883 -0.0048806695 0.02043144 -0.069954455 0.085001394 -0.102298364
-0.11164799 0.09529564 -0.12196018 0.005319196 -0.08166163 0.042050295 0.028865043 -0.07722953
-0.09549758 -0.120651096 0.091100335 -0.11991565 -0.00015510488 -0.00056074036 0.014950901 -0.050820313
-0.041737087 0.11878659 -0.079576045 0.03835941 0.036143042 0.08436327 0.103007704 0.013416724
0.017568067 -0.0017785581 0.10553542 0.00044290355 0.11123817 0.06945023 0.05922757 -0.12147008
-0.1046699 0.096514955 -0.0062192474 -0.118889034 0.12372038 -0.09795439 -0.018261146 0.077956125
-0.0921424 0.03918273 -0.042880394 0.0042312853 -0.05528567 -0.065751776 -0.06558767 -0.095534846
0.10295081 -0.089110404 -0.12256557 -0.10114801 -0.12263538 -0.065654576 -0.11562419 0.037049033
-0.08097476 0.104619265 0.04289616 0.006056348 0.058244996 -0.117033884 -0.107396185 -0.039172
0.10880266 0.08319561 0.11575575 -0.0036043231 0.09217805 -0.060479656 0.07763316 0.048635542
00000000: fc8f a93d 1089 de3d a225 2e3d 32d1 e1bd
00000010: 9c1b 78bd 961e d33d 8294 edbc 0674 ae3c
00000020: 4268 e4bc ecbe fdbd b211 283d 7802 f3bd
00000030: 0612 e13d ca6e e03d b8b3 76bd 7288 843d
00000040: a8d5 993d 600f febd d6f5 61bd 06c6 25bc
00000050: 9863 863b 1ae5 15bd 24b1 063d cc3e d0bd
00000060: dcdb ba3c 4849 e3bd 7c47 783d 0091 8c3c
00000070: 52bb b73d 6ac2 c1bd 3c4d c5bc a49f 47bc
00000080: 902d 8fbd acf2 ad3d a877 08bc ae27 c2bd
00000090: dc3b 4b3d ccef 3ebd f612 533d 160c a2bd
000000a0: dc1d dfbd defe 923c 7031 a83d a6d3 5e3d
000000b0: 2445 41bc 26ea 643d fae3 babd c45f 963d
000000c0: 12c7 c23d 1c04 ab3d ac83 e03d b02d f83c
000000d0: 76af d23d 22c9 2fbd c20b 94bd 425a 62bd
000000e0: 5675 af3d 4a6e 97bd 3460 48bd ea64 69bd
000000f0: 0e83 f5bd 12b0 e0bd 26d3 18bd 1e86 59bd
00000100: 12ca 5f3c e43f b23c 900e d1bd c023 77bd
00000110: 4ad5 9fbd 4273 d33d c0b7 81bd 027c 6d3b
00000120: 48d7 953d 9218 adbd 741d 483c 1c32 7b3d
00000130: 586b 073d 38a5 883a f2c6 a3bd 6839 703d
00000140: 2257 88bd 762d bd3d 2ce4 9a3d c8a8 883c
00000150: c0b8 70bd 3e67 293d 828f e33c 1acc a63d
00000160: 0288 d7bc 609a 85bc 68d1 8ebd 7e61 bebd
00000170: 1269 a1bd 54fc 443b a69a a13b 7894 cb3d
00000180: 3897 0f3b ae93 c3bd 4e21 dd3d 466e ef3d
00000190: a482 3a3c 8284 b43d b6e4 c53d 9496 8f3d
000001a0: 0ed2 ba3d ca50 e63d 7ae2 58bd f684 dbbd
000001b0: 3618 d9bd 2608 1c3d 6aeb 603d 0c59 c43d
000001c0: 8631 683d 80fe b4bd 3a87 c8bd 22e6 ba3d
000001d0: 1afe 54bd 5c3f c53c 9893 a7bd b209 15bd
000001e0: 549a f93d 48a8 31bd 16f0 59bd 36a8 b8bd
000001f0: f0ca a03d a85c 02bd 8401 963d 0a52 d23c
00000200: 668e f23d 3ef1 863d 968c bdbd c0b8 f63c
00000210: 08b2 913d 226a ba3d baf7 ac3d f2cb 6ebc
00000220: 0e7d b4bd 16b0 903d aecd e6bd 9e36 dbbd
00000230: 22b1 be3d d044 72bd f6b3 9dbc a8ea 86bd
00000240: c8dc 3a3d 24c9 393c 6681 11bc e243 b33d
00000250: 5c48 b5bc 40a4 c4bd 5e8f adbd 3880 dd3d
00000260: 8247 5639 1e4e adbc 3098 77bc b04e e73d
00000270: 7e13 a23c 7287 c73d 6e63 863d ead7 ed3c
00000280: a670 af3b 308e eebd 041a 083d ac9b ca3c
00000290: 9671 b73d 4cf5 cf3c 8c2e 42bd 2219 e2bd
000002a0: 681e 423d 44f9 ddbd c836 793d fe1f a4bc
000002b0: a2bc e2bd 94df 953d 6e8b e6bd 561b 28bd
000002c0: 0628 94bd 84d9 98bd 3292 e63c 06ee 9fbb
000002d0: d65f a73c 4844 8fbd 3615 ae3d ce81 d1bd
000002e0: b4a7 e4bd 5c2a c33d 42c6 f9bd a64c ae3b
000002f0: 363e a7bd ee3c 2c3d 6276 ec3c 842a 9ebd
00000300: 3c94 c3bd ec17 f7bd d092 ba3d 5696 f5bd
00000310: a6a3 22b9 a6fe 12ba a0f4 743c f628 50bd
00000320: 82f4 2abd 6246 f33d c4f8 a2bd c21e 1d3d
00000330: ba0a 143d a6c6 ac3d b4f5 d23d d2d1 5b3c
00000340: e8ea 8f3c 821e e9ba f422 d83d 8235 e839
00000350: d6d0 e33d ec3b 8e3d 9c98 723d 4ec5 f8bd
00000360: 2c5d d6bd a2a9 c53d d4ca cbbb 187c f3bd
00000370: 1c61 fd3d 509c c8bd 6698 95bc 76a7 9f3d
00000380: 28b5 bcbd 127e 203d 5aa3 2fbd 98a6 8a3b
00000390: 3a73 62bd dea8 86bd d452 86bd c6a7 c3bd
000003a0: e0d7 d23d 847f b6bd a803 fbbd b026 cfbd
000003b0: 4228 fbbd e875 86bd 60cc ecbd bac0 173d
000003c0: 18d6 a5bd a042 d63d e2b3 2f3d 5474 c63b
000003d0: 4e92 6e3d 76af efbd 88f2 dbbd d272 20bd
000003e0: eed3 de3d 7662 aa3d 5a11 ed3d 8236 6cbb
000003f0: d8c7 bc3d 84b9 77bd 22fe 9e3d 1036 473d

gru.bias_ih_l0_reverse f4 [192]
-0.014714758 -0.050142996 -0.001643988 -0.059717655 -0.043848578 0.08937018 -0.08470887 -0.010358309
-0.033748705 0.019730339 0.09055913 0.106508404 -0.0690454 0.090567976 0.033131436 -0.07782551
-0.11843829 -0.011903474 -0.037561286 -0.038591836 0.113318495 -0.018746996 0.008778731 -0.05673459
0.060045704 -0.038773566 0.08385458 0.090707995 0.015661707 0.104165 -0.05385107 -0.00016396603
-0.11822616 0.019429488 0.1142069 0.023923045 -0.103137806 -0.0065856334 -0.1004145 -0.014289617
0.073099524 -0.090785414 -0.116907455 0.079844624 0.09257708 -0.0071407403 -0.0070530516 0.08023517
0.058514524 0.09589844 -0.055613067 -0.04365235 0.107541114 0.122925356 -0.102746926 -0.08320418
0.019782688 0.038159844 -0.03051766 -0.045302283 -0.0071214293 -0.004914875 -0.09230161 -0.026300322
0.019556979 -0.08128356 -0.06668304 -0.014900419 -0.08854767 -0.021231461 -0.06150447 -0.02985415
-0.006352909 -0.10364573 0.04027123 -0.053101286 -0.050848316 0.03861931 -4.824428e-05 -0.025938047
-0.10463406 -0.012906033 -0.10929373 0.07111859 -0.018729385 0.037587784 0.084255286 0.015399673
0.09081722 -0.053088408 -0.08283305 -0.041022234 0.020764908 0.045083303 -0.020079773 0.09567297
-0.08089875 0.051355053 0.046440262 -0.12351495 -0.08852609 -0.1100621 0.08054828 0.12310688
0.07115972 0.116807565 0.052310362 0.07365602 -0.013077362 0.10891621 -0.044483572 -0.03363656
-0.07110267 0.11648134 -0.053294793 0.018522128 0.073677555 0.06163691 0.014201014 -0.04242352
-0.0037465151 0.083905526 0.04330228 -0.05757569 -0.031605236 0.076532416 0.11659869 -0.06320342
-0.01882818 0.051418345 -0.05540408 0.07396661 0.051332064 -0.112818375 0.05719583 -0.113106795
-0.09337573 -0.015837837 -0.050008792 -0.12269805 -0.031946152 -0.09789233 -0.10157117 0.008197318
-0.11705285 -0.012085442 0.09818782 -0.025017094 0.082847916 -0.1092368 0.011760702 -0.0801737
-0.027350064 -0.04198603 -0.027874263 0.12194034 -0.0038321214 0.008014753 0.044970296 -0.03032393
0.056692734 0.020493563 -0.012466554 0.10337135 0.031399325 0.012205373 0.09522916 -0.06874394
0.05422879 0.069696896 0.12245499 0.059290867 0.09772036 -0.113151655 -0.11269261 -0.10443877
0.063338324 -0.030256754 -0.024464149 -0.045548677 -0.041366287 -0.10268057 -0.09371518 0.013683153
-0.058906343 0.0069943364 -0.018332828 0.012633143 -0.08265873 0.055360254 -0.053190995 0.06979529
00000000: 2b16 71bc be62 4dbd 157b d7ba 809a 74bd
00000010: 919a 33bd b707 b73d d87b adbd e6b5 29bc
00000020: 153c 0abd 85a1 a13c 1177 b93d 1421 da3d
00000030: ad67 8dbd b47b b93d d4b4 073d fb62 9fbd
00000040: c68f f2bd ca06 43bc ddd9 19bd 7912 1ebd
00000050: 8713 e83d 4d93 99bc abd4 0f3c 8862 68bd
00000060: 7cf2 753d 08d1 1ebd f3bb ab3d 1dc5 b93d
00000070: fb4c 803c 7654 d53d f192 5cbd 4cee 2bb9
00000080: 8f20 f2bd 972a 9f3c 4fe5 e93d 43fa c33c
00000090: ea39 d3bd 4ccc d7bb 1ea6 cdbd ff1e 6abc
000000a0: 34b5 953d b4ed b9bd 2d6d efbd 9485 a33d
000000b0: 0d99 bd3d dffc e9bb 491d e7bb 5652 a43d
000000c0: edac 6f3d 6766 c43d 87ca 63bd cecc 32bd
000000d0: 843e dc3d 4ac0 fb3d fb6c d2bd f466 aabd
000000e0: 4e0f a23c 7f4d 1c3d 2c00 fabc e38e 39bd
000000f0: e15a e9bb f60c a1bb a008 bdbd c673 d7bc
00000100: f535 a03c ff77 a6bd 1e91 88bd e320 74bc
00000110: 7b58 b5bd 9aed adbc 1cec 7bbd b190 f4bc
00000120: 102c d0bb 3644 d4bd 72f3 243d bc80 59bd
00000130: 5346 50bd 482f 1e3d e759 4ab8 077c d4bc
00000140: 624a d6bd d373 53bc 64d5 dfbd a0a6 913d
00000150: 5e6e 99bc a6f5 193d 098e ac3d e94e 7c3c
00000160: 61fe b93d 3b73 59bd 60a4 a9bd ee06 28bd
00000170: 2b1b aa3c 45a9 383d 567e a4bc 31f0 c33d
00000180: 3eae a5bd ad59 523d 2538 3e3d 68f5 fcbd
00000190: 2b4d b5bd 3d68 e1bd 7ff6 a43d 761f fc3d
000001a0: 30bc 913d ce38 ef3d 6443 563d f8d8 963d
000001b0: 6f42 56bc 760f df3d 6834 36bd 7dc6 09bd
000001c0: 479e 91bd c58d ee3d a44b 5abd b8bb 973c
000001d0: 42e4 963d fc76 7c3d 5fab 683c 49c4 2dbd
000001e0: 1888 75bb a9d6 ab3d bb5d 313d 7dd4 6bbd
000001f0: 7e74 01bd 07bd 9c3d 4bcb ee3d cb70 81bd
00000200: 8e3d 9abc 0b9c 523d 63ef 62bd ce7b 973d
00000210: 9241 523d 520d e7bd 2d46 6a3d 89a4 e7bd
00000220: c63b bfbd 5abe 81bc 05d6 4cbd 1e49 fbbd
00000230: f8d9 02bd c67b c8bd 8c04 d0bd 0b4e 063c
00000240: 68b9 efbd 0502 46bc b216 c93d a6f0 ccbc
00000250: 2bac a93d 8bb7 dfbd f6af 403c 1c32 a4bd
00000260: 3e0d e0bc 8bf9 2bbd 9158 e4bc dbbb f93d
00000270: 5424 7bbb 5050 033c c632 383d e469 f8bc
00000280: a436 683d 1ee2 a73c 8440 4cbc 5cb4 d33d
00000290: 949c 003d 0bf9 473c 8107 c33d 9fc9 8cbd
000002a0: 021f 5e3d 3fbd 8e3d afc9 fa3d fbda 723d
000002b0: 9d21 c83d 0ebc e7bd 62cb e6bd fee3 d5bd
000002c0: 86b7 813d 03dd f7bc 0a69 c8bc 4091 3abd
000002d0: b26f 29bd 314a d2bd bfed bfbd 4e2f 603c
000002e0: c747 71bd bf30 e53b ba2e 96bc 3efb 4e3c
000002f0: fb48 a9bd 6fc1 623d cdde 59bd d5f0 8e3d
